src/saved_models/GNN/try/multi_GNN_offline_16.07.2021-11_33.pt (torch, 6743 bytes, 6 tensors)

convs.0.weight f4 [18, 32]
0	0x3f498eaf	0.7873334
1	0x3e78abe6	0.24284324
2	0x3e74ccdc	0.23906273
3	0xbe3cde1f	-0.18444107
4	0x3f405d59	0.7514244
5	0x3e05b94f	0.13058971
6	0xbee10815	-0.4395148
7	0x3e15031a	0.14551964
8	0x3ee5cf1e	0.4488458
9	0x3f17160f	0.59018034
10	0xbea451b2	-0.3209358
11	0x3e07104d	0.13189812
12	0xbe969f28	-0.29418302
13	0x3eac251c	0.33622062
14	0x3ee8f722	0.45501047
15	0x3e963fe5	0.29345623
16	0xbe5ede3d	-0.21764465
17	0xbf338280	-0.70121
18	0xbc01464c	-0.007890295
19	0x3e47ce26	0.19512233
20	0x3e6284aa	0.2212092
21	0x3d1b773b	0.037955504
22	0x3e96c460	0.29446697
23	0x3f40ffd6	0.75390375
24	0xbe6ca604	-0.23110205
25	0x3caf61e3	0.02140898
26	0x3efb5ec8	0.4909575
27	0x3d567926	0.05236163
28	0xbe49122e	-0.19635841
29	0x3a9edba8	0.0012119906
30	0x3d6f235e	0.05838334
31	0xbd97106f	-0.07376181
32	0x3dc2859b	0.094981395
33	0x3e4deab4	0.20109063
34	0x3e19f781	0.15035821
35	0xbf151367	-0.5823273
36	0x3f08308f	0.53199095
37	0x3e42629f	0.18982933
38	0xbf59ba88	-0.8505025
39	0xbe37205d	-0.1788344
40	0xbe936a2b	-0.28791937
41	0x3da4b979	0.080431886
42	0x3e1ae354	0.15125781
43	0x3d4a953c	0.049458727
44	0x3eecd32e	0.46254867
45	0xbeab8bb0	-0.3350501
46	0xbe0d9f8c	-0.13830394
47	0x3e34a7de	0.17642161
48	0x3e8b9b96	0.2726714
49	0xbcb2f361	-0.021844568
50	0xbf1f02c8	-0.6211362
51	0x3e981e21	0.29710487
52	0x3ca17baa	0.019712288
53	0xbeb440fc	-0.3520583
54	0xbec2f88a	-0.38080245
55	0x3df63173	0.120211504
56	0x3df9189b	0.12162896
57	0xbed99131	-0.42493585
58	0xbf102645	-0.56308395
59	0xbcd8eef9	-0.026481139
60	0x3e13f99f	0.14450692
61	0xbc2d2fbf	-0.010570466
62	0xbe7b53fe	-0.24543759
63	0xbe47a73e	-0.19497392
64	0x3e8bee78	0.27330375
65	0x3e6227c3	0.2208548
66	0x3f072b38	0.5280032
67	0xbe67f605	-0.22652443
68	0x3eefbc51	0.46823362
69	0x3ed23aaf	0.41060397
70	0xbf9ef6d5	-1.2419077
71	0xbd84647b	-0.06464478
72	0xbdd259d6	-0.10271041
73	0xbd7d3a3c	-0.061823115
74	0xbe2a5d93	-0.16637258
75	0xbe85e3e7	-0.26150438
76	0x3e884f55	0.26623026
77	0x3d546942	0.051858194
78	0x3e027675	0.127405
79	0x3d47ee08	0.04881099
80	0xbe82b276	-0.2552678
81	0x3e2d26d8	0.16909349
82	0xbf488b20	-0.7833729
83	0x3f5bf12c	0.85914874
84	0x3e15293a	0.14566508
85	0xbeab6e93	-0.334828
86	0x3ec7cfd5	0.3902575
87	0x3b38b948	0.0028186608
88	0x3f080f68	0.5314851
89	0xbe12931b	-0.14313929
90	0xbf5ec648	-0.87021303
91	0x3ea349c4	0.31892216
92	0x3d124837	0.0357134
93	0x3f0478a0	0.5174656
94	0xbe01ad1d	-0.12663694
95	0x3dbd35ca	0.09238775
96	0x3ec25d04	0.3796159
97	0x3d75b673	0.05998845
98	0xbe284405	-0.16432197
99	0x3e2bd8ab	0.16781871
100	0xbf6f15e0	-0.93392754
101	0x3e5150ca	0.20440975
102	0x3ee194a5	0.4405872
103	0xbebcd600	-0.3688202
104	0x3e6f58d7	0.23373733
105	0xbe20e629	-0.15712799
106	0x3e592220	0.21204424
107	0xbe9a2714	-0.3010794
108	0xbeb5032a	-0.35353976
109	0xbe9cb832	-0.3060928
110	0x3eddf806	0.4335329
111	0xbda04459	-0.07825536
112	0x3e88d82a	0.2672742
113	0x3d57b2ff	0.05266094
114	0x3bd8e8fd	0.0066195712
115	0xbe9dac55	-0.3079554
116	0xbe9cab69	-0.30599526
117	0xbd946238	-0.07245296
118	0x3d799d05	0.06094076
119	0xbee43368	-0.4457047
120	0xbf938379	-1.1524497
121	0xbe696c49	-0.22795214
122	0x3ecd145b	0.40054592
123	0xbf3de64b	-0.74179524
124	0x3ab5d45f	0.0013872496
125	0x3e9a91ec	0.30189455
126	0x3e34d704	0.17660147
127	0x3e5bd508	0.21467984
128	0xbed13422	-0.40860087
129	0xbd0e3cf3	-0.034726094
130	0xbe533951	-0.20627333
131	0x3ec9e0e5	0.39429393
132	0xbf356acd	-0.7086609
133	0x3de4fcae	0.11181007
134	0xbe563176	-0.20917305
135	0xbf4c92df	-0.7991161
136	0xbdad8e2e	-0.08474384
137	0xbea0dfe2	-0.3142081
138	0x3e615eff	0.22008894
139	0x3e059f79	0.13049115
140	0x3eec1bbb	0.46114907
141	0xbe074d3f	-0.13213061
142	0x3e828dea	0.25498897
143	0x3dd9b5e5	0.10630397
144	0xbe08ca22	-0.13358358
145	0x3dd1dd20	0.10247254
146	0x3a3c45c5	0.00071820273
147	0xbebe17d9	-0.3712757
148	0xbcfa54e4	-0.030558057
149	0x3d6278ec	0.0552911
150	0x3e07b117	0.13251148
151	0x3d2e8e52	0.042616196
152	0xbf5846db	-0.84483117
153	0xbe5ba526	-0.21449718
154	0xbe69dd73	-0.22838382
155	0x3e86fd7a	0.26365262
156	0xbdd8c04d	-0.105835535
157	0x3cc0eab1	0.02354941
158	0x3e0171c4	0.12641054
159	0xbdb1983f	-0.08671617
160	0xbdcdcd0a	-0.10048874
161	0xbe88ca57	-0.26716873
162	0xbe60f602	-0.21968845
163	0x3d94d5ed	0.072673656
164	0xbf499f61	-0.7875882
165	0x3ef37d2a	0.4755643
166	0x3dcc835d	0.09985993
167	0xbe9a774e	-0.30169147
168	0xbdb8019f	-0.08984684
169	0x3d013acc	0.031550214
170	0x3e9823ce	0.29714817
171	0xbeac2560	-0.33622265
172	0x3d9eb917	0.07750147
173	0x3e66edfd	0.22551723
174	0x3d0ef486	0.034901164
175	0xbeb6cfeb	-0.35705504
176	0xbba89880	-0.0051451325
177	0xbdce6ad5	-0.1007897
178	0xbde09c93	-0.10967364
179	0xbf06d3d5	-0.5266698
180	0x3e439807	0.19100963
181	0xbd74c63a	-0.059759356
182	0xbe84b68c	-0.25920522
183	0x3e27b179	0.16376294
184	0xbf71526d	-0.94266397
185	0xbeb03e65	-0.34422603
186	0xbe9a543e	-0.30142397
187	0x3e057840	0.13034153
188	0xbe9a2bba	-0.30111486
189	0x3e920bb2	0.28524548
190	0x3dfebdce	0.12438546
191	0xbe07fc6a	-0.13279882
192	0x3ee1d4ce	0.4410767
193	0x3e520bc8	0.20512307
194	0x3d8a3e5a	0.06750174
195	0x3e856db3	0.26060256
196	0x3f01f6f9	0.50767475
197	0x3dd0a2bb	0.101872884
198	0xbe2155f4	-0.15755445
199	0xbea078fd	-0.31342307
200	0x3e0237d7	0.12716614
201	0x3d5f5c76	0.054531537
202	0xbf33f475	-0.70294887
203	0x3dc140c9	0.09436185
204	0xbf1694eb	-0.5882098
205	0xbca4f613	-0.020136869
206	0x3ec22f31	0.3792663
207	0xbe5d2175	-0.21594794
208	0xbd8e05bb	-0.06934687
209	0xbecbbc67	-0.39792177
210	0xbf3ad5e8	-0.72982645
211	0x3df67688	0.12034327
212	0x3eb7bb15	0.3588492
213	0x3d62d531	0.055379096
214	0x3e87fcdb	0.265601
215	0x3f146846	0.5797161
216	0x3e7517f9	0.23934926
217	0x3da52217	0.08063143
218	0xbeb66432	-0.35623318
219	0xbe6cb6b4	-0.2311657
220	0x3ee08cb3	0.43857345
221	0x3e897953	0.26850376
222	0xbdd2bfd8	-0.102904975
223	0x3edff7f9	0.43743876
224	0xbe2e3fd9	-0.17016543
225	0xbed02771	-0.4065509
226	0xbe49355a	-0.19649258
227	0xbf105a47	-0.5638775
228	0x3d5f127a	0.05446098
229	0x3f310cd2	0.6916019
230	0xbf419476	-0.7561716
231	0xbecfdf50	-0.4060006
232	0xbee2bf3a	-0.4428652
233	0x3d0b6ca2	0.034039147
234	0xbdb49d34	-0.088190466
235	0xbba872a0	-0.0051406175
236	0x3eea23bd	0.4573039
237	0x3e161118	0.14654958
238	0xbd2c8a62	-0.04212416
239	0xbec2a19c	-0.38013923
240	0x3dd189fc	0.102313966
241	0xbe4371d4	-0.1908639
242	0xbfcdd380	-1.608017
243	0xbdc3b7e4	-0.09556559
244	0x3e24079c	0.16018528
245	0xbf135735	-0.5755494
246	0xbd98ad9a	-0.07454987
247	0xbd90ac8a	-0.07064159
248	0xbca0184c	-0.019542836
249	0xbec00612	-0.3750463
250	0xbfa12eb0	-1.2592373
251	0xbd900353	-0.07031884
252	0x3c939161	0.018013658
253	0x3ed5e92c	0.4177946
254	0x3e3dc046	0.18530378
255	0xbdbc47c8	-0.09193379

convs.0.bias f4 [32]
0	0x3edf86fd	0.43657675
1	0x3e4199cd	0.18906327
2	0x3d8bb0c8	0.06820828
3	0x3f827722	1.0192606
4	0xbec692e2	-0.38783938
5	0xbed33d35	-0.41257635
6	0x3f764a17	0.962068
7	0x3f1be76f	0.60900015
8	0x3efba7bc	0.4915141
9	0xbcc41991	-0.023937972
10	0xbef777b1	-0.48333505
11	0xbd1e077b	-0.038581353
12	0xbf31c393	-0.6943905
13	0xbddb175b	-0.10697814
14	0x3f5ec7d9	0.87023693
15	0x3e8c20a1	0.27368644
16	0x3eac9a68	0.33711553
17	0x3efbb359	0.4916027
18	0x3e74cdf3	0.23906688
19	0xbe5cf1f1	-0.21576668
20	0xbe50b452	-0.20381287
21	0xbd74bb77	-0.059749093
22	0x3d11ca46	0.035593294
23	0x3f18a5b0	0.5962782
24	0xbf4c8fed	-0.79907113
25	0x3dff4f03	0.12466242
26	0x3e3c73fd	0.18403621
27	0x3ef0f188	0.47059274
28	0xbb83cc80	-0.004022181
29	0x3f170303	0.5898897
30	0x3e464f9a	0.19366303
31	0x3ec39132	0.38196713

post_mp.0.weight f4 [16, 32]
0	0x3f0477db	0.51745385
1	0x3e5fa17f	0.2183895
2	0x3e51f30d	0.20502873
3	0x3f203396	0.62578714
4	0x3f2698aa	0.65076697
5	0xbde01fc3	-0.10943558
6	0x3f6aa19c	0.91652846
7	0xbf67208e	-0.9028405
8	0x3f2570a9	0.6462503
9	0x3d993906	0.074815795
10	0xbd6d56e5	-0.057944197
11	0x3d845778	0.06461996
12	0xbe981747	-0.2970526
13	0x3e9f2cc4	0.3108884
14	0x3ed1e8c2	0.40997893
15	0x3e6039ed	0.21897097
16	0x3dcb4945	0.099260844
17	0x3b91e4fa	0.004452345
18	0x3f61821d	0.8808916
19	0x3e9a7b77	0.3017232
20	0x3e6570c3	0.22406296
21	0xbe0558e3	-0.13022189
22	0x3e4fa72f	0.20278619
23	0xbf78a12e	-0.9712094
24	0x3f2c456c	0.6729343
25	0xbd519c38	-0.051174372
26	0x3f876e00	1.0580444
27	0xbf009f58	-0.5024314
28	0x3e64fd5e	0.22362277
29	0x3f0679da	0.5252968
30	0x3c9fa8ff	0.019489763
31	0x3e173c56	0.1476911
32	0x3ef449fc	0.47712696
33	0x3e81a9e4	0.2532493
34	0xbc81de50	-0.015853077
35	0x3f2ccc52	0.6749927
36	0x3f2a7fa6	0.66601026
37	0xbe0d83c5	-0.13819797
38	0x3f59d105	0.85084563
39	0xbf40d66c	-0.7532718
40	0x3f36f2ea	0.7146441
41	0x3d20e07d	0.03927659
42	0xbe14583c	-0.14486784
43	0x3e9113f1	0.28335527
44	0xbf0c2ae5	-0.5475295
45	0x3d6b1194	0.05738981
46	0x3f1480b8	0.5800891
47	0x3d1b5c40	0.037929773
48	0xbb8e1582	-0.00433606
49	0xbb8ba086	-0.0042610792
50	0x3f49ed52	0.7887775
51	0x3f151443	0.5823404
52	0x3e8ce766	0.27520293
53	0x3ba67e99	0.0050810096
54	0x3e2b7d67	0.16747056
55	0xbf95ae3c	-1.1693797
56	0x3f50f617	0.81625503
57	0x3e0c85ff	0.1372299
58	0x3f83b9b2	1.0291045
59	0xbf1ff2f3	-0.62480086
60	0x3e477f2c	0.19482106
61	0x3e75d19d	0.24005742
62	0x3dcd01de	0.10010122
63	0x3e7cb1fa	0.24677268
64	0x3f257d95	0.6464475
65	0x3bf662d9	0.007519108
66	0x3e408748	0.18801606
67	0x3e8d48c0	0.27594566
68	0x3f29838d	0.66216356
69	0xbf3f127e	-0.7463759
70	0x3f79bf7b	0.975578
71	0xbfbd8871	-1.4807264
72	0x3f71ff4f	0.94530195
73	0x3e4886ab	0.19582622
74	0xbe60da9c	-0.21958393
75	0xbd6927e9	-0.056922827
76	0xbf5ac878	-0.8546214
77	0x3d34d550	0.044148743
78	0x3f0aa71a	0.54161227
79	0xbdb04ffa	-0.08609004
80	0xbd4d0358	-0.050052017
81	0xbdc37050	-0.09542906
82	0x3f3e3e63	0.74313945
83	0x3ebf3eb4	0.37352526
84	0x3d3a08f5	0.0454187
85	0xbb65a3df	-0.0035040302
86	0x3e81ce8c	0.25352895
87	0xbfeac041	-1.8339921
88	0x3f3f1083	0.7463457
89	0x3d2988be	0.041390173
90	0x3f9f8463	1.2462276
91	0xc001a41e	-2.025642
92	0xbd93c0e6	-0.07214527
93	0x3e1c9ce9	0.15294231
94	0x3d0e1f9d	0.034698118
95	0xbc1e38f2	-0.0096571315
96	0x3e6292e2	0.22126344
97	0xbd98772b	-0.074446045
98	0x3e22317e	0.15839192
99	0x3e725e4e	0.23668787
100	0xbe4c18db	-0.19931357
101	0xbcffc5ff	-0.031222342
102	0x3eb3cfec	0.3511957
103	0x3e889bd7	0.26681396
104	0xbe80253f	-0.25028417
105	0x3dd0cf12	0.101957455
106	0xbe8c440d	-0.2739567
107	0xbe553119	-0.2081951
108	0x3dfbe165	0.1229885
109	0xbe8f7a88	-0.2802317
110	0x3e904ecc	0.28185117
111	0xbdcac799	-0.099013515
112	0xbd63aaf6	-0.055582963
113	0xbd98904a	-0.07449396
114	0x3d9833c0	0.074317455
115	0x3d9b2627	0.07575636
116	0x3eb13251	0.346087
117	0xbd89f9d8	-0.06737107
118	0xbdc83b28	-0.09776908
119	0x3ea10a14	0.31453001
120	0x3d2db123	0.04240526
121	0xbe97d03c	-0.29651058
122	0x3dbcbee9	0.09216101
123	0xbd1981e5	-0.037477393
124	0xbca94156	-0.020661037
125	0x3e8d0d6c	0.27549303
126	0x3dcd6632	0.10029258
127	0x3d4d63da	0.050144054
128	0x3e88833b	0.2666262
129	0x3d54aa30	0.051920116
130	0x3c859811	0.016307862
131	0x3dbc11b5	0.09183065
132	0xbea317bc	-0.31854045
133	0x3e14af14	0.14519912
134	0x3f45269d	0.77012044
135	0x3f0a89af	0.5411634
136	0xbe325187	-0.17413913
137	0x3e0e663f	0.13906191
138	0xbe6f20a0	-0.23352289
139	0xbea16985	-0.31525818
140	0x3e4d3335	0.20039065
141	0xbd820c3e	-0.06349991
142	0x3d756a98	0.05991611
143	0xbea866eb	-0.3289102
144	0xbded3baa	-0.11583646
145	0xbe4c40be	-0.19946572
146	0x3e4abe3a	0.19799128
147	0xbdd4de90	-0.10394013
148	0x3f081e7c	0.53171515
149	0xbe04f9cc	-0.12985915
150	0x3dbbe46d	0.09174428
151	0x3f0e1430	0.55499554
152	0x3e5d8c48	0.21635544
153	0x3d772592	0.060338564
154	0x3e5ad45b	0.2137007
155	0x3e81295c	0.25226867
156	0xbe109e04	-0.14122778
157	0x3c8fac41	0.017538192
158	0xbe2974a9	-0.16548409
159	0xbe452fd7	-0.1925653
160	0x3f262950	0.6490679
161	0x3d0cf911	0.034417216
162	0x3e478cc0	0.19487286
163	0x3ea8906a	0.3292268
164	0x3f140fd3	0.57836646
165	0x3d406b2c	0.046977207
166	0x3f52bfa7	0.8232369
167	0xbf5187a4	-0.81847596
168	0x3f2c0f64	0.67210984
169	0xbd06f03c	-0.03294395
170	0x3d980967	0.07423668
171	0x3d0f1f5b	0.034942012
172	0xbea4c5f2	-0.3218227
173	0x3e5bf81a	0.21481362
174	0x3f021895	0.5081876
175	0x3d6a1c24	0.057155743
176	0x3dedcc24	0.11611202
177	0xbc77a0c4	-0.015114013
178	0x3f224129	0.63380677
179	0x3e8ee39c	0.27908027
180	0x3e82ee44	0.25572407
181	0xbd00bb0c	-0.03142838
182	0x3e8b97a9	0.27264145
183	0xbf8df2dd	-1.1089741
184	0x3ef5ee9a	0.480336
185	0x3dd93e24	0.106075555
186	0x3f5bfe98	0.85935354
187	0xbf028188	-0.509789
188	0x3e4cd11a	0.20001641
189	0x3e5a4b58	0.21317804
190	0x3db10697	0.08643835
191	0x3dc5dd8f	0.096613996
192	0x3f2d99d0	0.67812824
193	0x3e88a715	0.26689973
194	0x3d003cdf	0.03130805
195	0x3ede9e24	0.43480027
196	0x3ee91983	0.45527276
197	0xbeff10bf	-0.49817464
198	0x3f5bd9b5	0.8587907
199	0xbf50e547	-0.8159985
200	0x3f1429f8	0.5787654
201	0xbc4f2c2f	-0.0126448115
202	0xbe83f618	-0.25773692
203	0x3dd0f66c	0.10203251
204	0xbf459225	-0.77176124
205	0x3da61901	0.08110238
206	0x3ea30479	0.3183935
207	0x3e030ac9	0.12797083
208	0x3e386484	0.18007094
209	0x3db15051	0.08657897
210	0x3f554348	0.8330579
211	0x3ef8906a	0.4854768
212	0x3e877a0b	0.264603
213	0xbe19b986	-0.15012178
214	0x3e2198f2	0.15781
215	0xbf8d6ef1	-1.1049482
216	0x3ed2f6f4	0.41204035
217	0x3d2da159	0.0423902
218	0x3f4ad5a0	0.79232216
219	0xbf92933b	-1.1451181
220	0xbd037a48	-0.03209904
221	0x3dca445e	0.09876321
222	0xbcf49eb2	-0.029860828
223	0xbcfb5517	-0.030680222
224	0xbde4b6e4	-0.11167696
225	0xbe95964c	-0.2921623
226	0xbe349219	-0.17633857
227	0x3e8725e2	0.2639609
228	0x3d356199	0.04428253
229	0xbe39630b	-0.18104188
230	0x3f360bdd	0.7111185
231	0xbdf8f336	-0.12155764
232	0xbe0276a8	-0.12740576
233	0x3c4accb8	0.01237791
234	0xbded7493	-0.115945004
235	0xbe6d01b7	-0.23145185
236	0xbe3c7acd	-0.1840622
237	0xbd8e8af0	-0.06960094
238	0x3dfef3de	0.12448858
239	0xbe0fc853	-0.14041261
240	0xbd223f30	-0.03961104
241	0xbdc8b2a4	-0.09799698
242	0x3e0eecbd	0.13957496
243	0x3df7055d	0.1206157
244	0xbcb8b10a	-0.022545356
245	0x3b100b24	0.0021979297
246	0xbe18505b	-0.14874403
247	0x3dadde43	0.08489659
248	0x3d4e5d6d	0.050382067
249	0xbe6474fd	-0.22310252
250	0x3d0b075f	0.033942576
251	0x3d37a2bf	0.04483294
252	0xbe3f5da5	-0.18688066
253	0x3e74838e	0.23878309
254	0xbdac7a74	-0.084217936
255	0xbe092780	-0.13393974

post_mp.0.bias f4 [16]
0	0x3f1673fc	0.5877073
1	0x3f1d7196	0.61501443
2	0x3d83a5b2	0.06428088
3	0xbf1f68e2	-0.62269413
4	0x3e3f8dae	0.1870639
5	0x3eb2def6	0.3493573
6	0x3c84315c	0.016136818
7	0xbe166a6f	-0.14689039
8	0xbed4c771	-0.41558412
9	0x3db2d697	0.08732336
10	0x3eac631e	0.3366937
11	0xbf0178d0	-0.5057497
12	0xbf7c80be	-0.98633945
13	0x3ede7870	0.43451262
14	0x3de5a02b	0.1121219
15	0x3e0a0bce	0.13481066

post_mp.3.weight f4 [2, 16]
0	0xbe37ffae	-0.17968628
1	0xbec15f30	-0.37767935
2	0xbf62434a	-0.88383925
3	0x3f1ca4d3	0.61189
4	0x3f46322b	0.774203
5	0xbeb68b1f	-0.35653016
6	0xbef9fc15	-0.48825136
7	0x3f249063	0.64282817
8	0xbf1f6d90	-0.62276554
9	0x3ed58e1a	0.41709977
10	0xbeb64d2c	-0.35605752
11	0x3efabf73	0.4897419
12	0x3f138bfc	0.57635474
13	0xbec47c83	-0.38376245
14	0x3ea1ba18	0.3158729
15	0xbf0000f1	-0.50001436
16	0x3ed1917b	0.40931305
17	0x3e39c1bb	0.18140309
18	0x3f631af9	0.8871303
19	0xbf247736	-0.642444
20	0xbf1ef6b0	-0.62095165
21	0x3eb212f7	0.34780094
22	0x3f071d00	0.52778625
23	0xbeea40c4	-0.45752537
24	0x3f648098	0.8925872
25	0xbf45a1ba	-0.771999
26	0x3e2359a3	0.15952162
27	0xbe4251b3	-0.18976478
28	0xbf2a1082	-0.6643144
29	0x3ec569ee	0.3855738
30	0xbe47523b	-0.19464962
31	0x3f0438bc	0.5164907

post_mp.3.bias f4 [2]
0	0xbed24835	-0.41070715
1	0x3ef9729e	0.48720258
