src/saved_models/GNN/try/multi_GNN_offline_16.07.2021-10_55.pt (torch, 6743 bytes, 6 tensors)

convs.0.weight f4 [18, 32]
000000 3b 2b 7c bd 92 fc 50 3f c1 f5 db be db 21 e2 3d
       -0.061564665 0.8163539 -0.42960933 0.11041614
000010 75 16 9c 3f 2b d4 00 bf 49 ec 74 3f 38 35 11 3e
       1.2194353 -0.5032374 0.9567304 0.14180458
000020 fb ae 07 3f 68 de 59 3e 85 04 c4 3e ae ce 99 3f
       0.53001374 0.21276248 0.38284698 1.2016199
000030 3d 49 3b 3f 3e 32 c5 be d6 ba 10 c0 e9 99 dd 3e
       0.7315863 -0.38514894 -2.2614036 0.43281487
000040 33 56 a9 3d 01 53 39 3f 58 05 98 3f c3 9a d5 3e
       0.08268394 0.7239228 1.1876631 0.41719636
000050 b3 c0 88 3e e5 83 63 c0 64 03 30 3e 52 de 6b bf
       0.26709518 -3.5549252 0.17188793 -0.9213611
000060 b9 34 32 bf 19 cf 2a 3f 16 75 68 bf 64 b9 a8 bf
       -0.696117 0.66722256 -0.9080366 -1.3181577
000070 ce 7c f9 bf f2 bf b8 bf df f5 55 bd 8d f1 dd 3f
       -1.9491212 -1.4433577 -0.052236434 1.733934
000080 06 67 da be 42 23 e1 be 5e a6 d9 be 3c 6a 5b be
       -0.42656726 -0.43972212 -0.4250974 -0.21427244
000090 bd 68 0b 3f 2b 9f 3d be a4 9a 95 be 4f 3e cb be
       0.5445669 -0.18517749 -0.29219544 -0.39695975
0000a0 b4 b5 9e 3e a4 1f 1e 3f 87 68 12 bf a8 4d e6 bb
       0.30998003 0.6176703 -0.57190746 -0.0070283003
0000b0 7a 31 0f be 33 30 09 c0 77 3c a6 be 84 fc 43 bf
       -0.13983718 -2.1435668 -0.32468006 -0.76557183
0000c0 31 70 83 bf c3 fb ef be 59 71 e9 3e e7 65 7b 3d
       -1.0268613 -0.46871766 0.4559429 0.06137648
0000d0 fb 40 96 3d a4 f4 15 be fd ad 16 bd 4d 2a 41 be
       0.07336613 -0.14644104 -0.036787022 -0.18863793
0000e0 03 e9 d3 bd ab e9 ba be 2e 54 54 3f ad af 24 3f
       -0.10347178 -0.365064 0.8294095 0.6433056
0000f0 c9 14 5c bf 9c bc 82 3f be c4 0c bf 4b 42 e2 bf
       -0.85969216 1.0213809 -0.54987705 -1.7676481
000100 d2 cf c9 3d 23 e3 c9 3e 68 0f 07 c0 f4 c1 96 3f
       0.09854092 0.39431104 -2.1103153 1.177794
000110 bd af c5 3e 36 16 31 bf 0c ee 71 bf 0f 29 72 3f
       0.3861064 -0.69174516 -0.94503856 0.945939
000120 60 d0 8f bf e7 ff ad 3e 5d ee 98 3e 1a f4 65 be
       -1.1235466 0.339843 0.29869357 -0.22456399
000130 0b 9f b9 be 77 f4 08 c0 6a d4 ae 3f fa 83 4f 3e
       -0.36254153 -2.139921 1.3658574 0.20265189
000140 55 f5 a2 be 52 03 28 3e 64 4c eb 3e bc d4 05 3c
       -0.31827798 0.16407517 0.4595672 0.008168396
000150 9a ae 85 3f a9 ae 85 3f 77 c7 0d 3e fb 0a 3d 3e
       1.0443909 1.0443927 0.13845621 0.1846122
000160 87 70 b9 3f 48 88 7e be f7 52 95 3e a8 1c 17 bf
       1.4487466 -0.24856675 0.2916486 -0.590281
000170 d5 8d 99 be 23 f1 20 3f dd 62 c9 3e d6 b6 39 c0
       -0.29991022 0.62867945 0.3933324 -2.9017844
000180 1d e0 a9 3e 40 83 de bf 34 2a 19 3f c4 84 40 3e
       0.33178797 -1.7383804 0.5983002 0.18800646
000190 46 a3 7c 3e 46 06 59 bd d0 45 36 3e 97 7e 82 3e
       0.24671659 -0.0529845 0.17800069 0.25487205
0001a0 c9 b8 1d 3e b3 d7 b6 be 74 a2 9b be d0 33 0a 3f
       0.15402521 -0.3571144 -0.3039738 0.5398531
0001b0 7d 50 1a 3e fc 57 0d 3f ca bc 20 c0 ef 75 6f be
       0.15069766 0.5521238 -2.5115228 -0.23384832
0001c0 9c 73 c9 3d 75 7c e6 bc 85 12 59 3e ba 2b ea be
       0.09836504 -0.028135518 0.21198471 -0.45736486
0001d0 bd e2 4c bf 6a 49 54 c0 78 3e d4 be ca 8b 8b bf
       -0.80033475 -3.3169808 -0.4145391 -1.0902035
0001e0 4f f7 95 3e 57 10 ca 3e 61 2f 8a 3b c3 31 ed 3d
       0.29290244 0.3946559 0.004217074 0.11581757
0001f0 5f bb 7a 3f 8e 43 34 bf 1c 41 ff 3e 40 fa 0b 3f
       0.97942156 -0.7041558 0.49854362 0.54678726
000200 cf b2 10 3e af 80 cb be c4 66 b0 3e 5a 9e b4 bd
       0.1413071 -0.39746615 0.34453404 -0.08819266
000210 e4 e6 42 3d af 14 6c be d5 aa 75 be 71 90 40 3e
       0.047583476 -0.23054765 -0.23990948 0.188051
000220 43 a8 82 be 4b 22 25 3f e1 31 b6 3e b3 ca ed be
       -0.25518999 0.6450545 0.3558493 -0.4644371
000230 2f a3 ad 3e e5 c5 b4 3d e9 15 76 bd 3f 1a 7c be
       0.33913562 0.08826808 -0.06007949 -0.24619387
000240 39 6b 09 3d 6e cb 8b be 08 be 4e 3d 42 bf e8 be
       0.03354952 -0.27303642 0.050474197 -0.45458418
000250 7c d9 bc 3d 37 f3 0e bf 0b 55 9d bd 94 88 bd 3d
       0.09221169 -0.55839866 -0.07682236 0.09254566
000260 17 90 b8 3d c6 28 22 3e b9 03 cf 3e 27 f8 d0 be
       0.09011858 0.15835866 0.40432528 -0.40814325
000270 30 37 a1 3e 03 0b 0e 3f 33 49 c2 3e 71 35 f4 be
       0.31487417 0.5548555 0.37946472 -0.47697023
000280 98 92 8b bd cd fc c7 3e 10 87 56 be 3d 28 b7 3e
       -0.0681507 0.3906006 -0.2094996 0.35772887
000290 f6 1a 73 be c1 72 b8 be 6d 4b 06 be 8c 48 0f 3c
       -0.23740754 -0.3602505 -0.1311471 0.008745324
0002a0 8c 23 b7 bd fe 80 41 3f ee d2 b9 bd b2 3f 23 be
       -0.08942327 0.7558745 -0.09073435 -0.15942267
0002b0 7f 37 1b be c8 ae 4c 3d 91 86 4f 3d ed e0 e2 be
       -0.15157889 0.049971372 0.050665442 -0.4431223
0002c0 11 51 13 3e 50 cc fa bd fb 91 a9 be c9 5a 13 bf
       0.14386393 -0.12246001 -0.33119187 -0.575604
0002d0 df b7 47 3e 88 f4 71 be c8 12 1f 3f cf 68 fc bd
       0.19503735 -0.23628438 0.6213803 -0.12324678
0002e0 48 0a 30 3d e3 0c 13 bd 55 72 90 3e ea 22 ff bc
       0.042978555 -0.03590096 0.28212228 -0.031144578
0002f0 78 e6 8c be 7e 6b 6b 3e ba 24 a5 be 7f f5 af be
       -0.27519584 0.22990224 -0.32254583 -0.34366986
000300 dc 14 55 3f 7c 8c 05 3f b4 a0 ed be 0b a0 cb 3d
       0.83234954 0.5216749 -0.4641167 0.09942635
000310 d9 a9 10 3f 3d da 15 be f1 6f 9b bf 6c 11 c9 3e
       0.56509167 -0.14634033 -1.2143537 0.39271104
000320 08 d7 2b bf cb 69 0c bf a2 8e c3 3e c7 a2 b1 bf
       -0.67124987 -0.5484893 0.38194758 -1.3877801
000330 e1 8c a6 3f 22 40 94 3d 9c 75 13 bf 33 b6 a2 3e
       1.3011743 0.07238795 -0.5760133 0.31779632
000340 a8 f2 6c 3f 71 ac 51 3d cb 53 81 3f 59 c1 c8 3e
       0.92557764 0.051189844 1.0103697 0.39210013
000350 21 2e 14 3f 68 c1 3e bf 91 64 a8 3d fb 8b a7 3e
       0.5788289 -0.74513865 0.082223065 0.32723984
000360 80 51 01 bf 86 e2 a1 3f 35 e1 8b bf 83 b3 9d bf
       -0.50514984 1.2647254 -1.0928103 -1.2320408
000370 99 a0 10 3f 41 c1 8f bf 49 7a 46 3f 64 97 be 3f
       0.5649505 -1.1230851 0.7753034 1.4889951
000380 03 3a 48 3d b4 a7 14 bf 57 81 5c bd 56 a8 01 bf
       0.04888345 -0.58068395 -0.053834286 -0.50647485
000390 7e 41 80 be 71 8c 31 3d 04 5f 3a c0 41 e9 56 be
       -0.25049967 0.043346826 -2.9120493 -0.20987417
0003a0 81 c2 46 be 7a fb 64 3f 65 95 91 bf 35 34 00 c0
       -0.19410135 0.8944622 -1.1373717 -2.0031865
0003b0 9f 55 37 3f 1e 88 0c bf 55 a7 63 3d 83 3f 83 bf
       0.7161502 -0.548952 0.055579502 -1.0253757
0003c0 31 84 85 be f1 18 34 bf 5a 1a f4 bd 95 e3 a0 3d
       -0.26077417 -0.7035056 -0.11919089 0.07855908
0003d0 0b 90 51 be 29 0c cb 3d c4 bf c2 3b 3c 1a d0 3e
       -0.20465104 0.09914429 0.0059432704 0.40645015
0003e0 1e 14 85 bf bb 8a 0a 3f 90 b7 0c 3f 7a 07 0a bf
       -1.0396764 0.54117936 0.54967594 -0.5391766
0003f0 09 ce 77 be 63 f0 55 3f 02 5e 3a 3e 94 fe 2f c0
       -0.2419969 0.83569926 0.18199924 -2.7499132

convs.0.bias f4 [32]
000000 83 7c c8 bb 33 24 97 3f 66 9f d0 3f ca ba 67 bf
       -0.0061183586 1.1807922 1.6298645 -0.9051939
000010 f1 f4 1b 3f 99 e2 7d 3e 3b 40 d6 bd 40 18 47 bf
       0.60920626 0.24793471 -0.1046147 -0.7777138
000020 30 80 1b 40 18 39 34 c0 8c 9b 5f be 85 7f fc 3e
       2.429699 -2.8159847 -0.2183668 0.4931604
000030 b4 1d b1 bf 26 67 d8 bc 6b 20 48 c0 de da b4 3e
       -1.383719 -0.026416373 -3.1269786 0.35323232
000040 30 c7 3a 3e 81 eb 2b 3e 07 a8 98 3f 91 c2 39 bf
       0.18240047 0.16789056 1.1926278 -0.7256251
000050 16 5e 6c c0 55 b9 3f c0 be e9 b8 3f d3 c9 52 c0
       -3.6932425 -2.9956868 1.4446332 -3.2935684
000060 c6 ee ec bd 3f db 34 bf 01 3f cc bf 26 64 50 3e
       -0.1156898 -0.70647043 -1.5956727 0.20350704
000070 be 27 a3 3f dc 14 72 bf aa ad b5 bd a4 2a 03 3f
       1.2746503 -0.9456308 -0.088710144 0.5123694

post_mp.0.weight f4 [16, 32]
000000 27 fb 1f 3e 48 4e 65 bf 9b c9 0b 3f 9b f7 da 3e
       0.15623151 -0.8957257 0.546045 0.42767033
000010 a8 99 8a 3b e7 3d 06 3e d2 74 ab 3f 84 da 62 3e
       0.004229743 0.13109551 1.3395026 0.2215367
000020 42 27 64 3d 66 48 a3 bf 2b 92 99 3e a1 a1 c8 3f
       0.0557015 -1.2756469 0.2999433 1.5674325
000030 dd 60 b3 bf cb 82 3c 3e 16 e9 2a 3f f3 91 9f be
       -1.4013935 0.18409269 0.6676191 -0.31166038
000040 c7 53 01 bd 5f e6 e3 3d d2 91 5d 3f a0 ea aa 3d
       -0.031574037 0.11127924 0.8655063 0.083455324
000050 20 78 c1 3e 3f 83 69 3f 87 36 e3 bf ac 13 0c 3f
       0.3778696 0.9121589 -1.7751015 0.54717517
000060 16 91 ab 3e 2e cc c5 bf 46 e3 80 bf 06 68 2d 3f
       0.3350913 -1.5452936 -1.0069358 0.6773685
000070 75 d4 c5 3e ef c1 58 bf 65 e9 8c 3e 04 6c 6b bf
       0.38638654 -0.8467092 0.27521816 -0.91961694
000080 75 06 38 3e fd 66 15 c0 e3 c0 04 3f 56 44 d7 3e
       0.17971213 -2.334411 0.5185682 0.42044324
000090 90 79 86 3d fd 23 95 3d 14 40 c3 3f 0e fb 81 3e
       0.06566155 0.07282255 1.525393 0.25386852
0000a0 2a 7f 6e bd 9c d5 a6 bf af e4 00 3e 06 d9 b3 3f
       -0.05822674 -1.3033938 0.12587236 1.4050605
0000b0 74 c5 cc bf 9a c0 65 3e 5f 57 48 3f e9 13 87 bd
       -1.5997758 0.22436753 0.7825832 -0.065955944
0000c0 e0 5f 5a be 7e c5 88 3d 87 e6 55 3f 1b b2 05 3e
       -0.21325636 0.06678294 0.8355488 0.13056223
0000d0 9f c9 f0 3e ea 35 49 3f 97 58 45 c0 aa b5 f7 3e
       0.47028825 0.7859789 -3.083532 0.48380786
0000e0 ce ad 7c 3d 18 b9 d1 bf 2f 52 65 bf 22 51 21 3f
       0.06168919 -1.6384611 -0.8957853 0.63014424
0000f0 ff fa 16 3f b1 95 a6 bf 58 2f a3 3e 44 cd 63 bf
       0.5897674 -1.3014432 0.31872058 -0.88985085
000100 8f 34 16 3e b9 7b de bf 30 6e 86 3e 43 4e 5b 3d
       0.14668487 -1.7381507 0.2625594 0.053541433
000110 c4 29 92 3e 27 51 59 3e da 5d b6 3f d9 f4 23 3e
       0.2854749 0.21222363 1.4247391 0.1601137
000120 94 58 4d 3d 7e 14 3e bf ff fd ef 3b eb 90 d3 3f
       0.050133303 -0.7425002 0.00732398 1.65286
000130 ba 72 08 c0 05 68 c7 3d 80 f2 61 3f 3b cc 57 be
       -2.1320024 0.09736637 0.8826065 -0.21074001
000140 49 11 20 3d b5 d9 62 bd c8 c7 31 3f 5c 84 aa 3c
       0.039078984 -0.055383403 0.69445467 0.020815067
000150 b8 55 d9 3e 24 16 7b 3f e1 2e 53 bf ad a4 38 3f
       0.4244821 0.9808066 -0.82493407 0.72126275
000160 49 36 7e 3d 70 f3 0b c0 c1 9a 7a be 04 25 ee 3e
       0.06206349 -2.1867332 -0.24473096 0.46512616
000170 8c ef 75 3e 73 82 e6 be ef 4b 95 3e 91 2b 61 bf
       0.24017161 -0.450214 0.29159495 -0.879571
000180 d3 f1 c1 3e b9 52 e9 bf 4a cc 90 3e c1 f6 a9 3d
       0.3787981 -1.822837 0.2828086 0.08299018
000190 9f ef 18 bd ab 73 b6 3d 7b d2 cb 3f e2 3a 13 3e
       -0.037337895 0.08908781 1.5923609 0.14377931
0001a0 1a 1e 29 3d 77 fb 47 bd 1f b5 a1 3e dd 89 d7 3f
       0.041288473 -0.0488238 0.31583497 1.6838948
0001b0 ec 8b d2 bf db 4e 9b bd 68 0f 29 3f fd 9d d0 be
       -1.6448951 -0.075834 0.66039133 -0.40745535
0001c0 40 3a 0d 3e 7b 11 6d 3d 4b f7 89 3e 33 5f a8 3d
       0.13791752 0.057878 0.26946482 0.08221283
0001d0 1c 08 1a 3f f7 00 67 3f ea 3b 95 bd 77 cb 13 3f
       0.60168624 0.9023585 -0.07286818 0.5773234
0001e0 e9 7b c6 3d 83 fa d0 bf 6d f4 de 3d 58 77 c7 3e
       0.09691603 -1.632645 0.10886464 0.3895824
0001f0 d6 52 3e 3e 95 39 3a bd fb 09 9e 3e 18 52 5d bf
       0.18586287 -0.04546507 0.3086699 -0.8645339
000200 b8 1a 2d 3e 3d 1e ef 3e 0d 83 ac bf 4e ec 93 be
       0.16904724 0.46702757 -1.3477494 -0.28891224
000210 f7 bf 4a 3f 10 c8 59 3e 41 36 f3 bf 85 9f 54 3d
       0.79199165 0.21267724 -1.9000932 0.051909942
000220 53 a6 16 bf 9d d2 28 be 27 02 a4 3d a1 0e 1e c0
       -0.5884754 -0.16486593 0.08008223 -2.4696429
000230 35 23 4d 3e 6d 77 6f be 64 d0 6f bf dc 4b 3d be
       0.20032962 -0.23385401 -0.93677354 -0.1848597
000240 52 74 e5 3e fa ee 3b 3b 65 a6 a2 3c f3 3c 87 3e
       0.44815308 0.0028676377 0.019854734 0.26413688
000250 58 5a 23 bf fa 6b 77 bf 56 56 f3 3d 45 cd b3 be
       -0.6380973 -0.96649134 0.11881702 -0.35117546
000260 de 8c cc 3d 9e cd 35 3e 42 04 41 bf 0b f3 63 3f
       0.09987806 0.17754218 -0.7539712 0.8904273
000270 d9 20 d4 be 56 3c 3f be 43 36 46 3e 9f 67 84 3f
       -0.4143131 -0.1867536 0.19356637 1.0344123
000280 af 64 25 bd 14 d3 20 bf 38 8a 31 3f 77 84 99 3e
       -0.040379222 -0.6282208 0.6935153 0.29983875
000290 24 c3 04 3f df 60 56 bc 2c e5 b3 3f 77 65 5d 3e
       0.5186026 -0.013084619 1.4054313 0.21620737
0002a0 a0 b4 dc bc 71 13 d1 bf 99 36 97 3d 91 06 e8 3f
       -0.026941597 -1.6334058 0.073834606 1.8127004
0002b0 93 aa f3 bf c1 40 cd 3e 70 56 5d 3f ba 8d 3a be
       -1.903643 0.40088466 0.8646002 -0.18218127
0002c0 ad fc 30 3d a8 13 bf 3d ad f1 3f 3f c3 20 84 bd
       0.04320972 0.09329921 0.7497814 -0.06451561
0002d0 a3 1e b2 3e 61 78 79 3f c5 b4 02 c0 9a b9 35 3f
       0.34789 0.9744931 -2.0422833 0.7098633
0002e0 c7 6f e0 3e 82 e9 c7 bf eb c4 af bf 47 d2 6a 3f
       0.4383528 -1.5618136 -1.373197 0.9172711
0002f0 a4 9e 07 3f a5 b0 af bf 00 9a 3d 3e cc 05 4a bf
       0.5297644 -1.3725783 0.18515778 -0.78915095
000300 80 9a 2e 3e 1f 08 6e bd 9a c4 9e 3d 65 23 13 bc
       0.17051125 -0.058113214 0.077523425 -0.008980607
000310 24 5b cb 3e 80 f4 8f bf 46 57 ba be 76 d3 bf 3e
       0.39717972 -1.124649 -0.3639471 0.3746602
000320 48 6d ee bf 95 20 1f be 25 de b2 be b6 63 c7 3e
       -1.86271 -0.15539773 -0.34935108 0.3894326
000330 f0 37 6d bc b2 71 be 3f 31 19 d6 3e 28 3c 93 bf
       -0.014478669 1.4878447 0.41816095 -1.1502733
000340 10 82 e9 3d a2 6c 49 bf 2f 90 50 3e 32 a6 e2 bc
       0.114017606 -0.78681386 0.20367502 -0.027667139
000350 64 0e 00 be da f8 6c 3f 14 92 5c bf 7e c8 a3 be
       -0.1250549 0.9256722 -0.861604 -0.319889
000360 bd 3f 57 3d c9 1a 1c be b0 a7 fb 3d 6c 91 82 bf
       0.05255102 -0.15244593 0.12287843 -1.0200629
000370 62 ed 59 3e 4e b0 8d bd 5e a2 c6 3e 6d ff 98 bf
       0.2128196 -0.06918393 0.3879575 -1.195295
000380 34 10 d3 3e cd 5a ee bf f5 46 a3 3e 97 36 19 3b
       0.412233 -1.862146 0.31890073 0.0023378485
000390 e8 54 0b bc a6 8d 24 3e 2c 6a b4 3f 3d e3 8b 3e
       -0.00850413 0.1606966 1.4094901 0.27321807
0003a0 69 26 cb 3d 29 a2 6f be e2 42 74 3e 5d 93 cd 3f
       0.099194355 -0.23401703 0.23853639 1.6060597
0003b0 a8 09 c9 bf 01 27 89 3e 7a 93 45 3f 6d f9 a2 be
       -1.5706072 0.2678757 0.77178156 -0.31830922
0003c0 76 d9 c7 3d 08 6e 3b 3e d3 18 af 3e c4 53 08 bd
       0.09758274 0.18303692 0.34198627 -0.03328301
0003d0 c5 33 0a 3f ed 03 3d 3f 30 08 d0 be ca dd 07 3f
       0.53985244 0.73834115 -0.40631247 0.530728
0003e0 5d f4 cc 3d 16 d6 d4 bf 6a 9b 28 3e 89 58 97 3e
       0.10007546 -1.6627834 0.16465536 0.29559734
0003f0 64 9b 8e 3e 82 4f cb 3c 39 ad aa 3e 7f 13 47 bf
       0.2785293 0.024818186 0.33335283 -0.77764124

post_mp.0.bias f4 [16]
000000 e1 44 ec 3e 8d b2 d5 3e f3 e0 81 3f c7 37 8b 3f
       0.461463 0.41737786 1.0146774 1.0876397
000010 7c 20 8b 3f ac 31 18 3e 8e e5 ba be c2 9d 8a 3f
       1.0869288 0.14862698 -0.3650326 1.0829394
000020 aa 67 7c bf f8 55 5a 3f 43 a2 8a 3f 1e 2e 80 3f
       -0.9859568 0.8528743 1.0830768 1.0014074
000030 8e 64 cb bc 47 6a 9f be ef 8c c1 be 9f 37 8d 3f
       -0.024828222 -0.3113577 -0.37802836 1.1032599

post_mp.3.weight f4 [2, 16]
000000 d3 77 a8 be 0d 01 e4 be 9a 63 9d be d4 74 af be
       -0.3290392 -0.44532052 -0.30740052 -0.3426882
000010 78 1a 27 3f fb 6e 1f bf 69 d6 24 3f af 8c a9 be
       0.65274763 -0.6227872 0.64389664 -0.33115146
000020 63 a1 cb 3f 92 70 b9 3f 2e 75 db be b0 0a ea bd
       1.5908626 1.4487479 -0.42862839 -0.1142782
000030 84 30 03 bf 63 92 63 bf 3c 1c 26 bf 00 1b 74 3e
       -0.51245904 -0.88895243 -0.6488683 0.23838425
000040 7e cb fd 3e 9c e6 b5 3e 9f c8 05 3f 24 58 c0 3e
       0.49569315 0.35527503 0.5225925 0.37567246
000050 aa c1 8c be 02 25 bd 3e d3 9b 1d bf e2 19 aa 3e
       -0.27491504 0.36942297 -0.61565894 0.33222872
000060 73 1c af bf a0 f0 c6 bf 4c 07 85 3e 55 21 d8 3e
       -1.3680557 -1.5542183 0.2598213 0.4221293
000070 fd e0 35 3f e8 73 51 3f 29 88 1e 3f 12 f7 9f be
       0.7104643 0.81817484 0.61926514 -0.31243187

post_mp.3.bias f4 [2]
000000 c6 a9 ee 3c 96 61 12 3e
       0.029133689 0.14295039
