src/saved_models/GNN/try/multi_GNN_offline_16.07.2021-13_13.pt (torch, 6743 bytes, 6 tensors)

convs.0.weight f4 [18, 32]
0	0xbea12ef2	-0.3148113
1	0x3eb13f5d	0.34618655
2	0xbc8b8166	-0.017029475
3	0xbd4401b6	-0.047853194
4	0x3f64726e	0.89237106
5	0x3fb15f9f	1.3857306
6	0xbfe206ef	-1.7658366
7	0x3f620aa4	0.88297486
8	0x3f8963f4	1.0733628
9	0x3e397415	0.18110688
10	0xbea63e7c	-0.32469547
11	0x3fb287a4	1.3947644
12	0xc009eea5	-2.1551907
13	0x3f8af8af	1.0857142
14	0xbdb9ac73	-0.09066095
15	0x3f0740a8	0.5283303
16	0x3f8bd46f	1.0924205
17	0x3f1634e6	0.58674467
18	0x3f993203	1.1968387
19	0x3f3e9e83	0.7446062
20	0x3f9283f1	1.1446515
21	0x3fc2950e	1.5201738
22	0x3ddbd455	0.107338585
23	0x3fe6d4df	1.8033713
24	0xbf124fa2	-0.5715276
25	0xbed2d70b	-0.4117969
26	0x3e5a5db9	0.21324815
27	0xbb60f965	-0.0034328338
28	0xbfc3562f	-1.5260676
29	0x4005c496	2.0901237
30	0xbfd80d36	-1.6879032
31	0xc05addf7	-3.4197977
32	0xbea9ccd0	-0.33164072
33	0xbe158996	-0.14603266
34	0xbeb1a20e	-0.3469395
35	0x3e19df31	0.15026547
36	0xbea85cc6	-0.3288328
37	0xbf720725	-0.9454215
38	0xbfbfc443	-1.4981769
39	0xbf939335	-1.1529299
40	0xbeee2820	-0.46514988
41	0xbd122fab	-0.03568999
42	0x3e11bfc7	0.14233314
43	0xc0161479	-2.3449996
44	0x3ff33b69	1.9002506
45	0xbeae0a00	-0.33992004
46	0x3e613e88	0.2199651
47	0xbecdf044	-0.4022237
48	0xbf52a1f4	-0.8227837
49	0xbd4e06ff	-0.05029964
50	0xbf704f58	-0.9387107
51	0xbee0970c	-0.4386524
52	0xbe4f5553	-0.20247392
53	0xbf2ed9e6	-0.68301237
54	0x3cb95ffa	0.022628773
55	0x3f3d42c1	0.73929983
56	0xbee7cc93	-0.45273265
57	0xbeb65c1e	-0.35617155
58	0xbee108d7	-0.43952057
59	0x3e1c6b7f	0.15275382
60	0xbf9917ee	-1.1960428
61	0x3e00db57	0.12583672
62	0xbfb7729a	-1.4331849
63	0xbf8d1a16	-1.1023586
64	0xc0026f7a	-2.038054
65	0xbd9fd7f8	-0.07804865
66	0x3fc17b09	1.5115672
67	0xbe0de141	-0.13855459
68	0xbd3360b7	-0.043793406
69	0x3f02e532	0.51130974
70	0xbf90e0cf	-1.1318606
71	0x3ece32b5	0.4027306
72	0xbde75a85	-0.11296562
73	0x3e0b6f12	0.13616589
74	0xbe89f686	-0.26945895
75	0xc0834410	-4.1020584
76	0x3ff812fc	1.9380794
77	0xbe94743c	-0.2899493
78	0x3e50711d	0.2035565
79	0xbea61f24	-0.32445633
80	0x3e4a060f	0.19728874
81	0xbe875f4c	-0.26439893
82	0x3b558e5f	0.003258608
83	0xbf59ac62	-0.8502866
84	0xbebe7be5	-0.372039
85	0xbe9beb9b	-0.3045319
86	0xbe5eb62e	-0.21749184
87	0x3fb654b3	1.4244598
88	0x3fc0e138	1.5068731
89	0x3d38a856	0.045082413
90	0x3ee4dc7b	0.44699463
91	0xbe494ebb	-0.1965894
92	0x3f823628	1.0172777
93	0xbfa02e1a	-1.2514069
94	0x3eb41f1c	0.35179985
95	0x3ffa7713	1.9567589
96	0x3f2b46bb	0.669048
97	0xc03d9125	-2.961984
98	0xbfae7349	-1.3628932
99	0xbeb07d9f	-0.3447084
100	0x3efbb424	0.49160874
101	0x3f1852de	0.59501445
102	0x3f57b051	0.8425341
103	0x3e76d531	0.24104764
104	0x3ec8390c	0.39106023
105	0xbed9fb64	-0.42574608
106	0xbec023f8	-0.37527442
107	0x3fbf675e	1.495342
108	0xc0053a48	-2.0816822
109	0xbf3e721a	-0.74392855
110	0xbe3166ee	-0.17324421
111	0x3f2c81e4	0.673857
112	0xbe60d67c	-0.2195682
113	0xbef2018b	-0.47266802
114	0xbf8b69e6	-1.0891693
115	0x3f545943	0.829487
116	0x3e4f85bb	0.20265858
117	0xbf219589	-0.631188
118	0x3e817287	0.2528269
119	0xbf535743	-0.82555026
120	0xbf704116	-0.93849313
121	0xbe04457d	-0.12917133
122	0x3efe70ea	0.49695522
123	0xbe999bb5	-0.30001608
124	0xbefa96eb	-0.48943266
125	0x3ec87476	0.39151353
126	0xbfb7a56b	-1.4347357
127	0xc0830a75	-4.0950265
128	0xbf0929ee	-0.53579605
129	0xbfb3138f	-1.3990344
130	0xbe39c22a	-0.18140474
131	0xbdf457eb	-0.119308315
132	0xbe7d4217	-0.24732243
133	0xbe8f8979	-0.2803457
134	0x3e50868a	0.20363823
135	0x3dc3467e	0.0953493
136	0xbf0c4ce0	-0.548048
137	0xbe836260	-0.25660992
138	0xbec23ca7	-0.379369
139	0xbebfeeaf	-0.3748679
140	0xbf00fb63	-0.50383586
141	0xbdd80ffa	-0.10549922
142	0xbe9024bf	-0.28153035
143	0xbe4d4f04	-0.20049673
144	0x3cda662a	0.026660044
145	0xbf3ad613	-0.729829
146	0xbedc42dc	-0.4301976
147	0xbe02689d	-0.1273522
148	0x3d9dcacb	0.07704695
149	0x3cf31fe4	0.029678293
150	0x3e3d5f61	0.18493415
151	0xbf746168	-0.9546113
152	0x3ed51617	0.41618416
153	0xbc633c18	-0.013869308
154	0xbe389f19	-0.18029441
155	0xbde3aadb	-0.111165725
156	0x3edcd4dd	0.43131152
157	0xbe7611e4	-0.24030262
158	0xbda9daf8	-0.08293718
159	0xbf038240	-0.5137062
160	0xbec6609d	-0.38745585
161	0xbe044445	-0.12916668
162	0xbd6434fe	-0.0557146
163	0xbe8ba468	-0.2727387
164	0xbe23d3fe	-0.15998837
165	0xbeef4bd7	-0.4673755
166	0x3d8d6929	0.06904823
167	0xbe20381b	-0.15646403
168	0xbe9f943a	-0.31167775
169	0xbd847ac0	-0.06468725
170	0x3d03d9ee	0.032190256
171	0xbf55d42a	-0.8352686
172	0xbe5331b7	-0.20624433
173	0x3f3d2808	0.7388921
174	0xbe50e0da	-0.20398274
175	0xbea69aaf	-0.3253989
176	0xbe807ee9	-0.25096825
177	0xbd23c8ad	-0.0399863
178	0x3e68fff5	0.2275389
179	0xbf2c4009	-0.6728521
180	0x3cfec70f	0.031100778
181	0x3f3892b7	0.7209887
182	0xbd9cdb6e	-0.076590404
183	0xbf8b8679	-1.0900413
184	0x3eca5938	0.39521194
185	0xbe3afcf1	-0.18260552
186	0xbe748605	-0.2387925
187	0xbe29859c	-0.16554874
188	0x3f1c629f	0.61087984
189	0xbf127e1a	-0.57223666
190	0xbe9b6abc	-0.3035487
191	0xbf17868d	-0.59189683
192	0xbfd76ee1	-1.6830713
193	0xbe47aa40	-0.19498539
194	0x3f319189	0.69362694
195	0xbddc7d96	-0.10766141
196	0x3eddf0c9	0.43347767
197	0x3f105ace	0.56388557
198	0xbf4e9192	-0.8069087
199	0x3fa35694	1.2760797
200	0x3f153d4b	0.5829665
201	0xbd0bb8ec	-0.034111902
202	0xbdd5d3ea	-0.1044081
203	0x3f9c844e	1.2227876
204	0xbff4e71d	-1.913303
205	0xbf2fefbc	-0.6872518
206	0xbe7b3fed	-0.24536105
207	0x3f85f673	1.0465835
208	0x3f3b9a3c	0.7328222
209	0x3e012865	0.12613066
210	0xbe4f72f7	-0.202587
211	0x3f96ed18	1.1791105
212	0x3f235a56	0.63809717
213	0x403e7a8b	2.9762294
214	0x3bdd4ded	0.0067536742
215	0x3f8719ea	1.0554783
216	0xbd94a932	-0.07258834
217	0x3d4a26de	0.049353473
218	0x3fa4fbd1	1.2889348
219	0xbe6d0ff4	-0.23150617
220	0x3f126dd3	0.5719883
221	0xbf9827e5	-1.1887175
222	0x3c1ad3d4	0.009449918
223	0xbf1e3eb2	-0.61814415
224	0xbfa7defc	-1.3114924
225	0xbf3a408f	-0.7275476
226	0x3bd7b2fc	0.006582616
227	0xbe3ff7e6	-0.1874691
228	0xbf9d4ece	-1.2289674
229	0xbf9b428e	-1.2129686
230	0xbf5fb457	-0.8738455
231	0xbf63ff1a	-0.8906113
232	0xbfa0dd86	-1.2567604
233	0xbd67b488	-0.056568652
234	0xbd40e331	-0.047091667
235	0xc04bf8d0	-3.1870613
236	0x3ea3be28	0.31981015
237	0xbebc7e96	-0.36815327
238	0xbe88b462	-0.2670012
239	0xbe4f781c	-0.20260662
240	0xbf9976dc	-1.1989398
241	0x3e3219f9	0.1739272
242	0xbfb0f99e	-1.3826177
243	0xbeefdc53	-0.46847782
244	0x3de9ee3f	0.11422395
245	0x3f5dc202	0.8662416
246	0x3ee6bc77	0.45065662
247	0xbf0a8403	-0.54107684
248	0x3d0e9039	0.03480551
249	0xbe8edc6b	-0.2790254
250	0x3dad2c19	0.084556766
251	0xbe88da06	-0.2672884
252	0x3ecc540a	0.39907867
253	0xc04ab61e	-3.1673656
254	0xbdca6a49	-0.098835535
255	0x3f008b94	0.5021298

convs.0.bias f4 [32]
0	0x4007d815	2.1225636
1	0x3fdf6ec8	1.7455683
2	0xc085b9be	-4.1789236
3	0xbd8c4daa	-0.06850751
4	0x3fa4a903	1.2864078
5	0x3e0792cf	0.13239597
6	0xbdd1f32d	-0.1025146
7	0x3f3a0b9d	0.7267397
8	0x3fd302be	1.6485212
9	0xbe9d9052	-0.3077417
10	0xbe5f6330	-0.21815181
11	0x4082024b	4.06278
12	0x3fc28efd	1.5199887
13	0x3fdbaf77	1.7162923
14	0x3f75b89c	0.95984817
15	0x3ec36411	0.38162282
16	0xbf34c693	-0.706155
17	0xbdd852ce	-0.10562669
18	0x3fed7733	1.8552002
19	0x3ff542db	1.9161028
20	0x3edc6add	0.4305028
21	0x3e885201	0.26625064
22	0x3f56e46d	0.839423
23	0xbfa09e11	-1.2548238
24	0xc084e170	-4.152519
25	0xbe9129cd	-0.28352204
26	0x3f2454dd	0.6419199
27	0xbe7c45cb	-0.24635999
28	0xc0a027f2	-5.004876
29	0x3ecbaa1c	0.3977822
30	0xc0693bbc	-3.644271
31	0xc0884952	-4.25895

post_mp.0.weight f4 [16, 32]
0	0x3f1ff0a8	0.6247659
1	0xbfe258ed	-1.7683388
2	0x3edc999e	0.4308595
3	0x3da09cd8	0.078424156
4	0x3f095b0d	0.5365456
5	0x3e6491e3	0.22321276
6	0x3e640a99	0.22269668
7	0x3e75adef	0.23992132
8	0xbde1e3f2	-0.11029805
9	0x3d758fea	0.0599517
10	0x3d870ca5	0.06594209
11	0xbdae6b96	-0.08516614
12	0xbec77de3	-0.3896323
13	0x3ee155d1	0.44010785
14	0x3d33f221	0.043932084
15	0x3e461cce	0.19346926
16	0x3da9bdd8	0.08288163
17	0x3d9cc6aa	0.0765508
18	0xbf2d3aa5	-0.6766761
19	0x3e5898b9	0.21152009
20	0x3e8656ad	0.26238003
21	0xbffcf354	-1.9761758
22	0x3e19be64	0.15014035
23	0x3f1f94f4	0.6233666
24	0x3e5c2325	0.21497782
25	0x3e53080d	0.2060854
26	0xbd4a753b	-0.049428206
27	0xbdb6be5d	-0.08923028
28	0x3e06f863	0.1318069
29	0x3f888744	1.066628
30	0x3dfd013c	0.12353751
31	0x3f596e8e	0.8493432
32	0xbd9a6061	-0.07537914
33	0xbbd3dfe6	-0.0064658998
34	0xbe5c3295	-0.2150367
35	0xbdea96d5	-0.1145455
36	0x3d10ffae	0.035400085
37	0xbcab721c	-0.020928435
38	0xbe975def	-0.29563853
39	0x3b91718f	0.004438586
40	0xbe8dee6f	-0.27720973
41	0xbe81892b	-0.25299963
42	0xbe2d5b48	-0.16929352
43	0xbe3039d8	-0.17209566
44	0xbdc85d48	-0.09783417
45	0xbddf9476	-0.109169886
46	0xbb264182	-0.0025368636
47	0xbe32a5eb	-0.17446105
48	0xbeacdd7f	-0.33762738
49	0xbcba315f	-0.02272862
50	0xbda09630	-0.07841146
51	0xbec5684a	-0.3855613
52	0xbd821a8e	-0.06352721
53	0xbe19f716	-0.15035662
54	0xbe0620a4	-0.13098389
55	0xbdc3ed57	-0.09566753
56	0xbda3557d	-0.0797529
57	0x3dd4c850	0.10389769
58	0xbe0d010c	-0.1376993
59	0xbe427597	-0.1899017
60	0xbe169798	-0.14706266
61	0xbc8eb210	-0.017418891
62	0x3d144f35	0.03620835
63	0xbe33b711	-0.17550303
64	0xbf8bc796	-1.0920284
65	0x3f6c233e	0.92241275
66	0x3f2f5a10	0.684968
67	0xbdb2411b	-0.08703824
68	0xbe1db796	-0.15402064
69	0x3c7e6bf9	0.015528672
70	0x3bb5f1f1	0.0055525233
71	0xbbeb53a3	-0.007181601
72	0xbecb8c5f	-0.39755532
73	0xbd6d273b	-0.05789874
74	0x3cc1d256	0.023659866
75	0xbff76b99	-1.9329711
76	0xbfc3594d	-1.5261627
77	0x3d923269	0.07138521
78	0xbe85d26a	-0.26137096
79	0xbd829428	-0.06375915
80	0x3e15d75b	0.14632933
81	0xbea985a7	-0.3310978
82	0x3ee5af6b	0.44860396
83	0xbe514cc5	-0.20439442
84	0xbe9e09b2	-0.30866772
85	0xbf950f54	-1.1645303
86	0xbea270de	-0.31726736
87	0x3dcdfc39	0.10057873
88	0x3ee9ffe5	0.45703045
89	0x3e20609f	0.15661858
90	0xbe7cc732	-0.24685362
91	0xbe108da7	-0.14116536
92	0x3f76b7fb	0.9637448
93	0xbf086e38	-0.5329318
94	0x3ec8b627	0.3920147
95	0x3fbbeba4	1.4681287
96	0x3f5dc388	0.8662648
97	0xc00180a9	-2.0234778
98	0x3f19249c	0.59821486
99	0x3da6b754	0.08140436
100	0x3f4c3249	0.7976423
101	0x3e6c3f31	0.2307098
102	0x3ef4cd2a	0.47812778
103	0x3e880232	0.26564175
104	0xbd2b4cd7	-0.041821327
105	0xbc88b716	-0.016688865
106	0x3e81398a	0.2523921
107	0xbdd99534	-0.10624161
108	0xbd3bdd56	-0.04586538
109	0xbdf23a71	-0.11827553
110	0x3dab240e	0.08356486
111	0x3ec9611f	0.3933191
112	0x3c2641c4	0.010147516
113	0xbd3fe242	-0.046846636
114	0xbf52ae1b	-0.82296914
115	0x3e91b4d9	0.28458288
116	0x3e4d3cd3	0.20042734
117	0xc03765a3	-2.8655784
118	0x3e4bb69e	0.19893882
119	0x3f12e4cb	0.5738036
120	0x3c10740b	0.008816729
121	0x3cd5cda0	0.026099026
122	0x3e89f7d0	0.26946878
123	0x3cf1bf5c	0.029510193
124	0x3e1c3cd4	0.15257579
125	0x3fa666c8	1.3000116
126	0x3a991841	0.0011680202
127	0x3f991f1f	1.1962622
128	0x3f9146e9	1.1349765
129	0xbfdce21a	-1.7256501
130	0x3ec4e58c	0.3845638
131	0x3d285bcd	0.041103173
132	0x3f496da1	0.78682905
133	0x3e6afea4	0.229487
134	0x3e574468	0.21022189
135	0x3e939c0a	0.28829986
136	0x3c0911b4	0.008366037
137	0x3d8ead5b	0.06966659
138	0xbc76ddb7	-0.015067509
139	0xbed22129	-0.41040924
140	0x3df25a8e	0.11833678
141	0xbf9a920f	-1.2075824
142	0xbd29dd98	-0.041471094
143	0x3e9737a7	0.29534647
144	0x3e85aceb	0.26108488
145	0xbe52efc6	-0.20599279
146	0xbf3df613	-0.74203604
147	0x3e265e9e	0.16247031
148	0x3e861da1	0.2619448
149	0xc01fbbdc	-2.495841
150	0x3e3e4f25	0.18584879
151	0x3f04c6c2	0.5186578
152	0x3e3e3bb4	0.18577462
153	0x3d060445	0.032718915
154	0x3e0feec5	0.14055927
155	0x3e989877	0.2980382
156	0x3e96a41a	0.29422075
157	0x3fb70003	1.4296879
158	0xbe5c0b35	-0.2148865
159	0x3fb84f48	1.4399195
160	0x3f6391f7	0.888946
161	0xbff3d550	-1.9049473
162	0x3f1059d4	0.56387067
163	0xbc05f75b	-0.00817665
164	0x3f18b0a3	0.59644526
165	0x3de14fc3	0.110015415
166	0x3f45d1c5	0.7727321
167	0x3eda764f	0.42668387
168	0xbe1ae1ea	-0.15125242
169	0x3d791ca4	0.06081833
170	0x3cd59f48	0.026076928
171	0xbdcbe894	-0.0995647
172	0xbca577ab	-0.020198664
173	0x3dcabacb	0.09898909
174	0x3d9c29df	0.07625174
175	0x3eabe664	0.33574212
176	0x3cd8f5b0	0.02648434
177	0x3dcb2e40	0.09920931
178	0xbf8eac67	-1.1146363
179	0x3e8279a7	0.25483438
180	0x3e2730b6	0.16327175
181	0xc0222cab	-2.5339763
182	0x3de15a82	0.11003591
183	0x3f0c87e3	0.54894847
184	0x3ead65d0	0.3386674
185	0xbdbdd5f0	-0.09269321
186	0x3ea0887c	0.3135413
187	0x3e4fa549	0.20277895
188	0x3de7d297	0.11319464
189	0x3f92837a	1.1446373
190	0xbd246265	-0.0401329
191	0x3f981075	1.1880022
192	0x3f4f83ee	0.81060684
193	0xc08509e2	-4.1574564
194	0xbe0fa92f	-0.14029382
195	0xbde5a448	-0.11212975
196	0x3f846c97	1.0345639
197	0x3ed94a19	0.42439345
198	0x3e5cbfd2	0.21557549
199	0x3f29c528	0.6631646
200	0x3eb95d22	0.36203867
201	0xbc74cf23	-0.014941963
202	0xbdc6af03	-0.097013496
203	0x3f19e76b	0.6011874
204	0xbe45bae1	-0.1930957
205	0xc080fb8d	-4.030707
206	0x3f03e134	0.5151551
207	0x3e074910	0.13211465
208	0x3d3a3732	0.045462795
209	0xbf7ba492	-0.9829799
210	0xc0960b6b	-4.688894
211	0x3e93ad57	0.28843185
212	0x3eededc2	0.46470457
213	0xc043165d	-3.04824
214	0xbeb08691	-0.34477666
215	0x3f273291	0.65311533
216	0xbf44ccb4	-0.7687485
217	0xbe971385	-0.2950708
218	0x3dae119f	0.08499455
219	0xbe7fdf9f	-0.24987648
220	0xbf2cbca3	-0.67475337
221	0x4030d25c	2.7628393
222	0xbf8c69c3	-1.0969776
223	0xbf065071	-0.52466494
224	0xbf97086b	-1.1799444
225	0x3f288a8d	0.6583641
226	0x3ee0fcdb	0.43942913
227	0x3d62e674	0.05539556
228	0xbeb1d115	-0.3472983
229	0xbe836c22	-0.25668436
230	0xbe67bf18	-0.2263149
231	0xbe8f0882	-0.27936178
232	0xbf00c111	-0.50294596
233	0xbdbd718c	-0.09250173
234	0x3cbf736a	0.023370463
235	0xbfe84ec9	-1.8149043
236	0xbf99d1b0	-1.2017117
237	0xbec471b9	-0.38368014
238	0xbe17877a	-0.14797774
239	0xbebf06fe	-0.37310022
240	0xbd0f7c7b	-0.035030823
241	0xbe5b9b23	-0.21445899
242	0xbe080da1	-0.13286449
243	0xbed29723	-0.41130933
244	0x3f4bfaf3	0.79679793
245	0x3f18abc1	0.59637076
246	0xbdbdb9f1	-0.09263981
247	0xbe10e905	-0.1415139
248	0x3f3ffd54	0.74995923
249	0xbe1e824b	-0.1547939
250	0xbdd801a1	-0.10547186
251	0x3d961b7f	0.07329463
252	0x3f1e4ce9	0.61836106
253	0xbeeec58b	-0.46635088
254	0x3f586f31	0.84544665
255	0x3fa0c3be	1.2559736

post_mp.0.bias f4 [16]
0	0x3f92e80f	1.1477069
1	0xbe69234c	-0.22767371
2	0xc08c0521	-4.375626
3	0x3f8c6bad	1.097036
4	0x3f895fcb	1.0732359
5	0x3fa78666	1.308789
6	0x3fa2b6bf	1.271202
7	0xc0baace7	-5.8336062
8	0xbfa8e99d	-1.3196293
9	0xbf310df3	-0.6916191
10	0xbe4f3624	-0.20235497
11	0x3f91a2f1	1.1377851
12	0xbdd64497	-0.10462301
13	0x3f1d1bcf	0.6137056
14	0xbfa9f153	-1.3276771
15	0x3f7ac8b8	0.9796252

post_mp.3.weight f4 [2, 16]
0	0xbeab732f	-0.33486316
1	0x3dab27d8	0.08357209
2	0xbf808ee5	-1.0043608
3	0xbedfdb28	-0.4372189
4	0xbef0d257	-0.47035477
5	0xbeb1e1bc	-0.34742534
6	0xbf892e4a	-1.0717251
7	0xbfc6675e	-1.5500295
8	0x3f1d9867	0.6156067
9	0x3e769c25	0.24083002
10	0x3d934479	0.071907945
11	0xbe43572d	-0.19076224
12	0x3e3c4cde	0.18388698
13	0xbe9519d8	-0.2912128
14	0x3e36af5a	0.17840329
15	0xbe6ddcf6	-0.23228821
16	0x3e901472	0.281406
17	0x3d682c0b	0.056682628
18	0x3f82dd74	1.0223832
19	0x3dcffcf8	0.10155672
20	0x3e59b259	0.2125944
21	0x3e749e1c	0.23888439
22	0x3fbcd1f0	1.4751568
23	0x3fb3f90c	1.4060378
24	0xbf377f44	-0.71678567
25	0xbec518af	-0.38495395
26	0xbe1d2ed9	-0.15349902
27	0x3ee204cb	0.44144282
28	0x3e39722f	0.18109964
29	0x3ec7b060	0.3900175
30	0xbe8ca109	-0.2746661
31	0x3ebabb7a	0.36471158

post_mp.3.bias f4 [2]
0	0xbeaba89f	-0.33527085
1	0x3f0951e1	0.5364056
