src/saved_models/GNN/try/multi_GNN_offline_16.07.2021-14_01.pt (torch, 4695 bytes, 6 tensors)

convs.0.weight f4 [2, 32]
0	0xbebd873b	-0.37017235
1	0xbfc04716	-1.5021694
2	0xbebf72ae	-0.3739218
3	0xbd16f0ed	-0.03685086
4	0x3ec5202d	0.3850111
5	0xc0266947	-2.6001756
6	0x3dbd2074	0.092347056
7	0xbf1cf90d	-0.6131752
8	0xbf037181	-0.5134507
9	0xc00b1657	-2.1732385
10	0xbf01497a	-0.5050274
11	0xbe55dd5a	-0.2088522
12	0xbe4e4f4a	-0.20147434
13	0xbecde571	-0.40214112
14	0x3e7e347f	0.24824713
15	0xbc5b0008	-0.013366707
16	0xc037718b	-2.866305
17	0xbd22ba79	-0.039728615
18	0xbfa54e9c	-1.2914615
19	0xbfb4a971	-1.411421
20	0xbe424245	-0.18970592
21	0xbefa4b8b	-0.4888576
22	0xbe319115	-0.173405
23	0xbd8accb3	-0.067773245
24	0xbeac8777	-0.336971
25	0xbef37691	-0.47551396
26	0xbc0730d1	-0.008251385
27	0xbfe028f2	-1.7512496
28	0xbf07ef09	-0.53099114
29	0xbe85b27b	-0.26112732
30	0x3ddfcd46	0.10927825
31	0xbed31fbd	-0.41235152
32	0x3eadea8e	0.33968014
33	0x3e821c39	0.25412157
34	0xbd778260	-0.06042707
35	0x3e7b778a	0.2455732
36	0x3d21bc60	0.03948629
37	0x3db6d60c	0.08927545
38	0x3d75c712	0.0600043
39	0x3c2418c0	0.0100156665
40	0x3bfb5ebb	0.007671205
41	0xbadc64d3	-0.0016814716
42	0x3e978363	0.29592428
43	0xbe5813e0	-0.21101332
44	0xbc8d410b	-0.017242929
45	0xbc6c871f	-0.014436512
46	0xbf278a89	-0.6544576
47	0x3e6d3cdc	0.23167747
48	0x3de37e18	0.11108035
49	0xbe3d8a12	-0.18509701
50	0xbd47f0a9	-0.048813496
51	0x3e4f9c23	0.20274405
52	0xbdbcda36	-0.09221308
53	0x3eb36a16	0.35041875
54	0xbec9091d	-0.39264765
55	0x3e52f080	0.20599556
56	0xbe493841	-0.19650365
57	0x3ebc8167	0.36817476
58	0xbe2001e9	-0.15625729
59	0x3de8f4f2	0.113748446
60	0x3ed44078	0.41455436
61	0x3ebd963f	0.3702869
62	0x3df76538	0.12079853
63	0x3e6c910d	0.23102207

convs.0.bias f4 [32]
0	0xbf26df00	-0.6518402
1	0xbf80d525	-1.0065047
2	0x00000000	0.0
3	0xbfbe43e2	-1.4864466
4	0x3f5dd0f5	0.8664697
5	0xbc8fda0f	-0.017560033
6	0xbea59e84	-0.323475
7	0xbf7f4ccd	-0.99726564
8	0xbf4003df	-0.75005907
9	0xbcdbe739	-0.026843654
10	0xbfafb34e	-1.3726594
11	0x3f9718e9	1.1804477
12	0x00000000	0.0
13	0x00000000	0.0
14	0x3e9dcc14	0.30819762
15	0xbfa0978b	-1.2546247
16	0x3d10b7db	0.03533159
17	0x00000000	0.0
18	0x3f0ee290	0.55814457
19	0xbeeb898a	-0.4600337
20	0x00000000	0.0
21	0xbf2bd3d4	-0.671201
22	0x00000000	0.0
23	0xbf9a7c40	-1.2069168
24	0x00000000	0.0
25	0xbf28572b	-0.6575801
26	0xbba880b7	-0.005142297
27	0x3d8a618e	0.06756888
28	0xbf7b1704	-0.98081994
29	0xbf30a929	-0.6900812
30	0xbe645805	-0.22299202
31	0xbf908b17	-1.1292447

post_mp.0.weight f4 [16, 32]
0	0xbf6138d2	-0.87977326
1	0x3f210a43	0.62906283
2	0xbe1278cb	-0.14303891
3	0xbe80a3c5	-0.25124946
4	0xbd0bee8a	-0.034163035
5	0x3e863cce	0.26218265
6	0xbe8d46c3	-0.2759305
7	0xbc70c5f6	-0.014695635
8	0xbdca93c0	-0.09891462
9	0x3f2ce800	0.67541504
10	0xbcff352d	-0.031153286
11	0x3f11a7bf	0.56896585
12	0x3c53eb9e	0.0129345935
13	0xbe31d1fd	-0.1736526
14	0xbf63c533	-0.8897278
15	0xbebdf0e8	-0.3709786
16	0x3f05a56c	0.5220554
17	0x3d9a20d3	0.07525792
18	0x3f01ceae	0.50705993
19	0xbdba6c10	-0.091026425
20	0xbd1f1214	-0.0388356
21	0xbe7cf26c	-0.24701852
22	0x3dcd111c	0.10013029
23	0xbf019828	-0.50622797
24	0xbddfbd10	-0.10924733
25	0xbe93bea5	-0.28856388
26	0xbd9c0318	-0.076177776
27	0x3f7ee355	0.9956563
28	0xbf025410	-0.5090952
29	0xbf6be3dd	-0.92144567
30	0xbda23cad	-0.07921729
31	0xbadce7ff	-0.0016853808
32	0x3e698e73	0.22808246
33	0x3edaac90	0.4270978
34	0xbe21c960	-0.15799475
35	0x3eb0b9aa	0.3451665
36	0x3f09ae88	0.5378194
37	0x3facaf36	1.349097
38	0xbd822462	-0.06354596
39	0x3e4ef0cf	0.20209049
40	0x3d998f5d	0.074980475
41	0x3f21e88e	0.63245475
42	0x3e850476	0.25979966
43	0x3ec9d73c	0.39422023
44	0xbe228784	-0.15872008
45	0x3dc3e6b0	0.095654845
46	0x3e98e4d8	0.29862094
47	0x3e64b001	0.22332765
48	0x3f8ea670	1.1144543
49	0x3dec8d1f	0.11550354
50	0xbfc48aaa	-1.5354817
51	0x3f2857f0	0.6575918
52	0xbe1ed39d	-0.15510412
53	0x3e40cf3d	0.18829055
54	0x3de065bb	0.109569035
55	0x3dc192d5	0.09451834
56	0x3deb6c50	0.11495268
57	0x3e52b924	0.20578438
58	0xbdf041a0	-0.11731267
59	0x3edcfe50	0.43162775
60	0x3eaf073a	0.341852
61	0x3e05c30c	0.13062686
62	0x3db5461e	0.088512644
63	0x3e38d5c5	0.18050297
64	0x3e265e2e	0.16246864
65	0x3f12e2f3	0.5737755
66	0xbde1b332	-0.11020507
67	0x3ee74acf	0.45174262
68	0x3e8585bd	0.26078597
69	0x3fca971c	1.5827365
70	0x3de2c094	0.110718876
71	0x3de36ea7	0.1110509
72	0x3d2ad44b	0.041706365
73	0x3f3f30f5	0.7468408
74	0x3e916b7d	0.2840232
75	0x3ee8404a	0.4536155
76	0x3e20cd19	0.15703239
77	0x3d215369	0.039386187
78	0x3e85650b	0.26053652
79	0x3e681a6e	0.22666332
80	0x3f9b8e8d	1.2152878
81	0x3e1a8ef4	0.15093595
82	0xbfb47958	-1.4099531
83	0x3f6537e6	0.8953842
84	0x3d293f3d	0.041320074
85	0xbd5ad369	-0.053424273
86	0x3e0d7f20	0.13818026
87	0x3e32f1d0	0.17475057
88	0xbe1524f0	-0.14564872
89	0x3da88f87	0.08230501
90	0x3c5b53ad	0.013386649
91	0x3eefc9dc	0.46833694
92	0x3e1973f1	0.14985634
93	0x3e6cab9d	0.2311234
94	0x3dfa69b4	0.122271925
95	0x3d6a6c95	0.05723246
96	0xbe105fbb	-0.14099018
97	0x3d8d4528	0.06897956
98	0xbdd4f605	-0.10398487
99	0x38061ee7	3.197687e-05
100	0xbde4173c	-0.11137244
101	0xbd4ad2ab	-0.049517315
102	0xbda94990	-0.08265984
103	0xbe6bb179	-0.23016919
104	0xbc9a0efa	-0.01880597
105	0x3dae7b86	0.08519654
106	0xbe177879	-0.1479205
107	0x3d02bbec	0.031917498
108	0xbd0cab94	-0.034343317
109	0xbe202307	-0.15638362
110	0x3d6d7f0a	0.057982482
111	0x3d06498e	0.03278499
112	0xbe64f91b	-0.22360651
113	0x3d5422a4	0.05179085
114	0x3d9b68e4	0.07588366
115	0x3ddf9308	0.10916716
116	0xbe1991b2	-0.14996985
117	0x3ba71ece	0.0051001078
118	0x3dfd5134	0.12369004
119	0x3e11e30c	0.14246768
120	0xbdf3ce4e	-0.11904584
121	0xbdd41217	-0.10355013
122	0x3bfe3590	0.00775785
123	0xbd9cd934	-0.07658616
124	0xbe2aec62	-0.16691735
125	0xbd9f269e	-0.077710375
126	0xbe0e38df	-0.13888882
127	0xbe7640bf	-0.24048136
128	0x3ce5799b	0.028012088
129	0x3c0d93e0	0.008641213
130	0x3d80c6c1	0.06287909
131	0xbddabbb5	-0.106803335
132	0x3bbfe008	0.005855564
133	0xbead370a	-0.33831054
134	0xbeb7bfe2	-0.35888582
135	0x3d26c636	0.040716372
136	0xbd87933a	-0.06619878
137	0xbe30fe7e	-0.17284581
138	0x3cf5d6a9	0.030009585
139	0xbdae86ba	-0.08521791
140	0xbdb5c5ca	-0.08875616
141	0x3e29c4f5	0.1657904
142	0xbd58e5f3	-0.05295367
143	0xbdf4c165	-0.119509496
144	0xbc6b1d79	-0.014350289
145	0x3e20712e	0.15668175
146	0x3d97bd3b	0.0740914
147	0x3c9f2e80	0.019431353
148	0xbdec0f9f	-0.11526417
149	0xbe53ad61	-0.20671608
150	0xbe34d4bf	-0.17659281
151	0x3d5d51d4	0.054033116
152	0x3d992dc4	0.07479432
153	0xbe25134c	-0.16120642
154	0x3de56a66	0.112019345
155	0x3d405fe0	0.046966434
156	0xbe54c4fa	-0.20778266
157	0x3d4b0261	0.049562816
158	0xbe6d4d97	-0.2317413
159	0xbda461b7	-0.0802645
160	0xb88371e1	-6.2677784e-05
161	0x3f10a8ab	0.56507367
162	0x3dc014c7	0.09378963
163	0x3ea650c5	0.32483497
164	0xbdeedcb0	-0.116631866
165	0x3fbff3af	1.4996241
166	0xbc57c232	-0.013168858
167	0x3e3a4c9d	0.18193288
168	0xbd235f27	-0.039885666
169	0x3f111072	0.5666572
170	0x3e963933	0.29340515
171	0x3dbb49b7	0.09144919
172	0x3e20b086	0.15692338
173	0xbcc1ad2d	-0.023642147
174	0x3a84f152	0.001014272
175	0x3e843bf4	0.2582699
176	0x3fb60ccb	1.4222654
177	0x3c6db103	0.014507535
178	0xbd8cbd84	-0.06872085
179	0x3f4e9680	0.80698395
180	0x3c9030c9	0.017601388
181	0xbd046254	-0.032320336
182	0xbdb42e19	-0.08797855
183	0x3dea9d31	0.11455763
184	0x3d40c638	0.047064036
185	0x3dede716	0.11616342
186	0x3b208b3b	0.002449705
187	0x3f12528e	0.5715722
188	0x3e894e68	0.26817632
189	0xbd0e74b1	-0.034779254
190	0xbc947fa1	-0.018127264
191	0xbd69a140	-0.057038546
192	0x3cad0cab	0.021124205
193	0xbedb3909	-0.42816952
194	0x3dc27db8	0.09496635
195	0xbe713807	-0.23556529
196	0xbf8919fb	-1.0711054
197	0xbff2cec9	-1.8969356
198	0x3f03d411	0.5149546
199	0xbe9422b0	-0.28932714
200	0x3df581f5	0.11987678
201	0xbf645b99	-0.89202267
202	0xbf1ca303	-0.61186236
203	0xbd7d9afe	-0.06191539
204	0xbe1c2aaa	-0.1525065
205	0x3dc2f8b6	0.09520094
206	0xbe10f1d1	-0.14154746
207	0xbdaaa71f	-0.08332657
208	0xbff26239	-1.8936225
209	0x3e325766	0.17416152
210	0xbf2f6791	-0.68517405
211	0xbfe1ce42	-1.764107
212	0xbc3d76ee	-0.011564
213	0xbdb2241e	-0.08698295
214	0xbe0bfa8d	-0.13669796
215	0xbe070b5f	-0.13187931
216	0xbccc278b	-0.0249212
217	0xbec1b977	-0.3783681
218	0x3c7e6a60	0.015528291
219	0xbf165e53	-0.5873768
220	0xbe62a36b	-0.22132652
221	0x3db49de4	0.08819178
222	0x3f16e8d0	0.58948994
223	0xbec5d09c	-0.3863572
224	0x3b4ca701	0.0031227472
225	0x3f2c7560	0.673666
226	0xbe215cde	-0.15758082
227	0x3ed257bd	0.41082564
228	0x3d850937	0.06495898
229	0x3faba6ac	1.3410239
230	0x3df60ad3	0.12013783
231	0x3b72c200	0.0037041903
232	0x3d86c47e	0.06580447
233	0x3f104f3c	0.563709
234	0x3dd13864	0.10215834
235	0x3f89e833	1.0773987
236	0x3e293c02	0.16526797
237	0x3ccbb9b8	0.024868831
238	0xbeafe815	-0.34356752
239	0x3e7f159e	0.2491059
240	0x3fa31095	1.2739435
241	0x3dbd9b0f	0.09258091
242	0xbf840db5	-1.0316683
243	0x3f33a962	0.7018033
244	0x3e2c1bae	0.16807434
245	0x3ea1fed9	0.31639746
246	0xbb87ca13	-0.004143962
247	0x3e3e1485	0.18562515
248	0x3c71e31c	0.01476362
249	0x3ec4e9e4	0.38459694
250	0x3d8cc339	0.06873173
251	0x3ed5862f	0.41703936
252	0x3e9a6399	0.30154112
253	0x3e7d24b2	0.2472103
254	0xbcf65554	-0.030069984
255	0x3dfa91a5	0.12234811

post_mp.0.bias f4 [16]
0	0x3e4d5e4b	0.20055501
1	0x3dad8092	0.084717885
2	0x3e00d2e9	0.12580456
3	0xbeec5169	-0.4615586
4	0xbe899fc5	-0.26879707
5	0xbed73de6	-0.42039412
6	0x3f773a60	0.9657345
7	0xbe4c0404	-0.19923407
8	0x3efdbcfd	0.4955825
9	0x3f515221	0.81765944
10	0x3d174201	0.03692818
11	0x3d0e226b	0.034700792
12	0xbf8f2216	-1.1182277
13	0x3f29e52b	0.6636531
14	0xbfe5143e	-1.7896802
15	0x3dcc6fba	0.09982248

post_mp.3.weight f4 [2, 16]
0	0x3f29a094	0.6626065
1	0xbe9e0333	-0.30861816
2	0xbe5aa6a3	-0.2135263
3	0xbc821298	-0.015878007
4	0x3e025cba	0.12730685
5	0xbeb5c918	-0.35504985
6	0xbf328f4c	-0.69749904
7	0xbeb89a5b	-0.36055264
8	0xbe898c0d	-0.26864663
9	0xbe259cfe	-0.16173169
10	0xbe3676d6	-0.1781877
11	0xbd6f9d13	-0.058499407
12	0xbc1cab28	-0.009562291
13	0xbdc265c6	-0.09492068
14	0x3fa0794c	1.2537017
15	0x3f648d0b	0.89277714
16	0xbf5a39e1	-0.85244566
17	0x3e642514	0.22279769
18	0x3ecf03ac	0.4043249
19	0xbcdc630a	-0.026902694
20	0xbe2d804d	-0.16943474
21	0x3d88f6cc	0.06687698
22	0x3f376c1b	0.7164933
23	0x3e24f00a	0.16107193
24	0x3e0fbde8	0.14037287
25	0x3e944a90	0.28963137
26	0x3e63b209	0.22235884
27	0x3ef648a0	0.48102283
28	0x3ec425c9	0.38310078
29	0x3eb86fac	0.360227
30	0xbfb79e11	-1.4345113
31	0xbf8ced60	-1.1009941

post_mp.3.bias f4 [2]
0	0xbfc04385	-1.5020605
1	0x3fb05ed9	1.3778945
