src/saved_models/GNN/multi_GNN_12.07.2021-22:48.pt (torch, 6743 bytes, 6 tensors)

convs.0.weight f4 [18, 32]
0.06946444 -1.0961261 -1.4699976 -1.4891846 1.6177148 -1.3787863 -1.2387612 -1.6045241
-1.6528848 -1.8957886 -1.4120077 -1.2180337 0.39945352 0.19281738 -1.4362732 -1.5973092
-1.6561241 -1.3794107 1.562771 1.9487821 -1.4691812 -1.5874192 -1.3544962 -1.4134877
-1.3531344 -1.6467042 -1.3161713 -1.3134072 1.0057485 -1.1862627 -1.1276845 -0.5824931
0.45727393 -1.3767885 -1.0419519 -1.4513388 1.4809692 -1.420806 -1.1866935 -0.07523857
-1.663515 0.5601007 -1.1163601 0.9805859 -0.2925909 -1.3100102 -1.0314368 -1.5909953
-1.2211351 -1.744937 1.0275583 1.2443146 -1.284676 -1.4379534 -1.1212775 -0.6371453
-0.104855895 -1.651483 -0.87793463 -1.1749369 0.19250205 -1.0305061 -1.4544035 -1.6683564
0.65189004 -1.439104 -1.334898 -1.414554 1.7574315 -1.4107097 -1.3538381 -0.5565035
-1.2391653 0.6059375 -1.2412231 1.1124507 -0.35793027 -1.4795332 -1.6353046 -1.1918212
-1.0060871 -1.3510327 1.6404033 1.2217497 -1.2787483 -1.1939198 -1.1833555 -0.9501651
0.24579675 -1.6666744 -0.8278149 -1.2568203 -0.055993233 -1.6099889 -1.3132683 -1.2964263
-0.5021243 -1.5816355 -1.4863608 -1.0694491 -1.0630159 -1.3244348 -1.0928025 -1.0017475
-1.5069646 0.36546233 -1.165894 -1.1414124 -1.365936 -0.24019285 -1.4882896 -1.3722692
-0.7740698 -0.81251895 -1.7008655 1.0930176 -1.32612 -1.3514824 -1.5833762 -0.24003513
-0.035070192 -1.1978397 -0.9956856 -0.7141817 1.3097805 -1.315752 -1.3649507 -1.2024311
-0.4299981 -1.4361948 -1.0406362 -1.3377597 -1.1552224 -0.9419532 -1.482424 -0.46295488
-1.353314 0.23031215 -1.3106213 -1.230351 -1.5649691 -1.2689284 -1.116154 -1.5399951
-0.7641076 -1.3149492 -0.99598473 0.6665878 -1.0928429 -1.2568507 -1.1031846 -0.41303745
0.025126312 -1.4457787 -1.1712822 -0.868437 1.5183018 -1.1518129 -1.1143786 -1.7479725
0.062381368 -1.054196 -1.4616795 -1.4991117 -1.2333832 -0.9130791 -1.2661989 -0.7901641
-1.0219176 0.30427498 -1.4560404 -1.1787146 -1.6174133 -1.4534206 -1.4102328 -1.4942871
-1.1979818 -1.0929681 -1.2286552 0.8500813 -1.6418787 -1.2103399 -1.2300047 -0.36626914
0.20317286 -1.2390273 -1.1659958 -0.61067826 1.5475389 -1.3227538 -1.1289942 -1.8547736
1.0976216 -0.24208148 1.0002207 -1.5978342 -0.79675055 1.230081 -1.5012397 -1.2516683
-1.458934 -0.31103867 1.0150068 -1.2335986 -1.1458429 -0.23888324 -0.21932566 -0.0138352495
0.52780604 0.8468523 -0.015391316 -0.37311053 -1.2501323 -1.4126006 -1.1757787 1.4639136
-0.11880215 -1.6416224 -0.881405 -0.7650048 1.0602599 -1.2789754 -1.1543616 -0.28440312
0.5849584 -1.5758661 -1.2447275 -1.3443954 1.5019648 -0.76087105 -1.3308433 -1.0314538
-1.4784607 -0.61520845 -1.5041999 -1.6187553 -1.7952479 -0.6212546 -1.1446422 1.3384728
-1.4999942 -0.8613597 0.89827675 1.3550303 -1.025439 -1.6552913 -1.1455317 -0.4267027
-0.82869625 -1.0847669 -1.303522 -1.3782042 1.446194 -1.0545442 -1.6985826 -1.2694918
00000000: 5f43 8e3d dc4d 8cbf e228 bcbf 9a9d bebf
00000010: 4711 cf3f 127c b0bf ba8f 9ebf 0c61 cdbf
00000020: bb91 d3bf 33a9 f2bf abbc b4bf 87e8 9bbf
00000030: 2c85 cc3e eb71 453e cdd7 b7bf a174 ccbf
00000040: e0fb d3bf 8890 b0bf e108 c83f b171 f93f
00000050: 210e bcbf 8d30 cbbf 2260 adbf 2aed b4bf
00000060: 8233 adbf 34c7 d2bf 4d78 a8bf ba1d a8bf
00000070: 5ebc 803f 75d7 97bf f757 90bf 451e 15bf
00000080: cf1f ea3e 9b3a b0bf ae5e 85bf 78c5 b9bf
00000090: 6690 bd3f f9dc b5bf 93e5 97bf ae16 9abd
000000a0: 0fee d4bf c262 0f3f e3e4 8ebf ad07 7b3f
000000b0: 79ce 95be 6aae a7bf 1f06 84bf bca5 cbbf
000000c0: 284e 9cbf 185a dfbf 0887 833f b345 9f3f
000000d0: 4370 a4bf db0e b8bf 0586 8fbf f41b 23bf
000000e0: b0be d6bd cc63 d3bf 53c0 60bf 5564 96bf
000000f0: 421f 453e a0e7 83bf e529 babf b48c d5bf
00000100: 44e2 263f 8f34 b8bf f0dd aabf 1b10 b5bf
00000110: 84f3 e03f 2392 b4bf 914a adbf 0377 0ebf
00000120: f89c 9ebf b81e 1b3f 66e0 9ebf c964 8e3f
00000130: a342 b7be 5861 bdbf a951 d1bf 998d 98bf
00000140: 76c7 80bf a4ee acbf bcf8 d13f 4b62 9c3f
00000150: 06ae a3bf 5dd2 98bf 3178 97bf 053e 73bf
00000160: 25b2 7b3e 9655 d5bf adeb 53bf 7ddf a0bf
00000170: 2959 65bd 1e14 cebf 2d19 a8bf 4cf1 a5bf
00000180: 388b 00bf 0873 cabf 1241 bebf b5e3 88bf
00000190: e810 88bf 1487 a9bf f4e0 8bbf 4339 80bf
000001a0: 37e4 c0bf e11d bb3e 043c 95bf cd19 92bf
000001b0: fed6 aebf 1df5 75be 4680 bebf 84a6 afbf
000001c0: 7029 46bf 3e01 50bf f6b5 d9bf 00e8 8b3f
000001d0: 4dbe a9bf 60fd acbf 12ac cabf c5cb 75be
000001e0: c3a5 0fbd d052 99bf 40e5 7ebf 9dd4 36bf
000001f0: e3a6 a73f 906a a8bf b4b6 aebf 43e9 99bf
00000200: b628 dcbe 3bd5 b7bf 9133 85bf b63b abbf
00000210: 54de 93bf d823 71bf 12c0 bdbf 6c08 edbe
00000220: 6539 adbf f3d6 6b3e 70c2 a7bf 247c 9dbf
00000230: e850 c8bf 3f6c a2bf 22de 8ebf 8f1e c5bf
00000240: 8e9c 43bf 4150 a8bf dbf8 7ebf 80a5 2a3f
00000250: 47e2 8bbf 7ce0 a0bf 2735 8dbf a579 d3be
00000260: b2d5 cd3c 470f b9bf 93ec 95bf e351 5ebf
00000270: b757 c23f 9b6e 93bf f5a3 8ebf 90bd dfbf
00000280: 9b83 7f3d e5ef 86bf 5018 bbbf e4e2 bfbf
00000290: 80df 9dbf 8dbf 69bf ce12 a2bf 3248 4abf
000002a0: 32ce 82bf eec9 9b3e 885f babf 1fe0 96bf
000002b0: 6607 cfbf b009 babf 8282 b4bf cd44 bfbf
000002c0: 7857 99bf 61e6 8bbf 9344 9dbf ee9e 593f
000002d0: 1529 d2bf 6bec 9abf cb70 9dbf a187 bbbe
000002e0: 8c0c 503e 7298 9ebf 5a3f 95bf 6955 1cbf
000002f0: c115 c63f ff4f a9bf e282 90bf 3969 edbf
00000300: dd7e 8c3f 35e4 77be 3b07 803f d585 ccbf
00000310: d8f7 4bbf 4b73 9d3f 9f28 c0bf ab36 a0bf
00000320: 59be babf 7640 9fbe beeb 813f 8fe6 9dbf
00000330: fbaa 92bf cf9d 74be e896 60be 3ead 62bc
00000340: 4c1e 073f 50cb 583f dc2b 7cbc 5808 bfbe
00000350: 5604 a0bf 19d0 b4bf eb7f 96bf 8561 bb3f
00000360: 8b4e f3bd af20 d2bf c2a3 61bf 5bd7 43bf
00000370: 99b6 873f 77b5 a3bf 1fc2 93bf 499d 91be
00000380: d5bf 153f fbb5 c9bf 3b53 9fbf 2615 acbf
00000390: 6240 c03f 72c8 42bf 1359 aabf ae06 84bf
000003a0: 333e bdbf 4d7e 1dbf 9f89 c0bf 6033 cfbf
000003b0: afca e5bf 8b0a 1fbf a383 92bf 1453 ab3f
000003c0: cfff bfbf 1282 5cbf 77f5 653f a271 ad3f
000003d0: 9641 83bf 96e0 d3bf c8a0 92bf c778 dabe
000003e0: 7025 54bf a4d9 8abf cfd9 a6bf ff68 b0bf
000003f0: e31c b93f 4efb 86bf 286b d9bf b57e a2bf

convs.0.bias f4 [32]
0.6969841 -1.3302209 -1.5399544 -1.4002566 -0.5431642 -1.3811939 -1.4257281 -0.96270514
-1.3436075 -0.12807158 -1.3028516 1.5261539 -0.70080256 -1.7660669 -1.3501861 -1.3220963
-1.3986793 -1.4218926 -0.66443175 0.70205384 -1.323424 -1.3647623 -1.3984019 -0.6916679
-0.8531175 -1.3638809 -1.4724241 -0.92483103 1.7256927 -1.3371996 -1.486556 -0.92450047
00000000: 8d6d 323f ae44 aabf 3a1d c5bf 9c3b b3bf
00000010: cf0c 0bbf f6ca b0bf 427e b6bf d873 76bf
00000020: 55fb abbf 3225 03be d7c3 a6bf 0359 c33f
00000030: cc67 33bf 7b0e e2bf e6d2 acbf 743a a9bf
00000040: ec07 b3bf 9400 b6bf 3318 2abf cdb9 333f
00000050: f565 a9bf 88b0 aebf d5fe b2bf 2611 31bf
00000060: e965 5abf a693 aebf 6578 bcbf bac1 6cbf
00000070: 80e3 dc3f 5b29 abbf 7847 bebf 10ac 6cbf

post_mp.0.weight f4 [16, 32]
-1.3708526 -1.3058815 0.99073964 1.2791481 -0.21152103 -1.189544 -1.2368425 -1.2294132
-1.4555256 -1.2735666 1.23979 -1.3962218 -1.1588002 -1.2558357 1.413982 -1.3199447
-1.3833447 -1.4357963 -0.987851 -1.2017081 -1.3583791 -1.1848155 -1.1373144 -1.2776263
-1.4152713 -1.216071 -1.2447034 -1.5150467 -1.4365467 -1.201571 -1.3561085 1.3174044
-0.7831868 1.4554065 1.3588898 1.2387477 2.479175 -1.465015 1.1988887 -1.8507574
-1.3120987 -0.31258416 0.78962094 -1.2855222 1.7152132 1.3099949 -1.4169528 -1.4907753
-1.554196 -1.5754546 0.93144965 -1.05892 -1.1561246 -1.3102914 -1.2149335 0.0046379226
0.13789578 -1.2829425 -1.3952287 -0.56038326 -0.8820384 -1.3084676 -1.2801564 -0.63186634
-1.459246 -1.1545146 -1.4165294 1.0540097 -1.3172283 -1.4738585 -1.2481959 -1.5152138
-1.3341966 -1.279924 1.321985 -1.4568343 -1.3307517 -1.1960316 1.3267405 -1.1476464
-1.2988257 -1.2977004 -1.1776848 -0.09516943 -1.1944231 -1.3156841 -1.1887027 -1.2871374
-1.2483476 -1.327091 -1.146718 -1.343879 -1.4405442 -1.4117211 -1.1753801 -1.0400184
-1.4050336 1.2264005 1.209401 -1.0466645 -1.2276297 -1.403589 -1.0868386 1.5445197
-0.5554174 -0.6500116 -1.1143208 -1.4195133 0.96016437 -1.3268702 -1.1682985 1.1858231
-1.405085 -1.5311848 -1.579564 -1.3901353 -1.2839286 -1.461148 1.0559826 -1.4188874
-0.9703728 -1.0038303 -1.1864016 -0.89686406 -1.7306873 -1.2345017 -1.2553774 -0.9067786
-0.070279196 1.1657351 0.94668025 1.3429476 -0.6520764 -1.3841786 -1.2414199 -1.4971151
-1.360065 -1.7379475 1.207814 -1.2493753 -1.5326742 0.0699593 1.1393766 -1.4633197
-1.3891507 -1.4083582 2.0771847 -2.0634692 -1.198536 -1.3359271 -1.4034783 -0.05879223
0.108933866 -1.1715214 -1.14769 -1.2947466 -1.5037082 -1.1148279 -1.2086376 1.265232
-1.4528551 -1.4257706 1.0777969 1.2211342 -1.522399 -1.4050529 -1.3694295 -1.2930185
-1.3220009 -1.418455 1.4667219 -1.2087729 1.2763299 1.3798382 1.295633 -1.4469995
-1.3183705 -1.0172156 -0.90664375 -1.1794307 -1.1818339 -1.2622436 -1.1343464 -1.7269391
-1.4089123 -1.4020009 -1.4487995 -1.4323254 -1.7658412 -1.3480254 -1.2357539 1.3321582
-1.9964712 1.1404872 -1.2551495 1.3506215 -0.5181546 -1.369894 -1.3600917 -1.4486068
-1.2029269 -1.3265574 1.1439388 -1.2741796 0.3376759 -1.1522455 1.4022062 -1.3868327
-1.1834192 -1.2087201 -0.03367635 -1.2612339 -1.1822371 -1.3708539 -1.4110489 -1.792545
-1.8793713 -1.303925 -1.2859138 -1.200095 -1.421024 -1.2806479 -1.501816 1.3123199
-1.3800758 -1.3216182 -1.3041989 -1.1568512 -1.3377421 -1.2590531 -1.3742187 -1.4937341
-1.358059 -1.2143319 -1.2676771 -1.4584872 -1.2305384 1.1919479 1.3839256 -1.4829131
-1.2862191 -1.3733622 -1.4211689 -1.4667479 -1.2142979 -1.3890649 -1.4208819 -1.3534386
-1.3937997 -1.152406 -1.2760229 -1.1584479 -1.3200411 -1.1685319 -1.4064378 1.4246511
00000000: 1978 afbf 2027 a7bf 1da1 7d3f 20bb a33f
00000010: f898 58be fa42 98bf db50 9ebf 695d 9dbf
00000020: aa4e babf 3b04 a3bf 70b1 9e3f 65b7 b2bf
00000030: 9153 94bf 39bf a0bf 5dfd b43f f3f3 a8bf
00000040: 7011 b1bf 2cc8 b7bf cee3 7cbf 92d1 99bf
00000050: 5edf adbf 09a8 97bf 8593 91bf 4289 a3bf
00000060: 9c27 b5bf 37a8 9bbf 7152 9fbf 0ded c1bf
00000070: c3e0 b7bf 14cd 99bf f794 adbf b5a0 a83f
00000080: ee7e 48bf c34a ba3f 1af0 ad3f 498f 9e3f
00000090: ceaa 1e40 9d85 bbbf 2f75 993f 9ee5 ecbf
000000a0: daf2 a7bf 080b a0be 9924 4a3f fe8b a4bf
000000b0: 1b8c db3f eaad a73f b65e b5bf bad1 bebf
000000c0: e5ef c6bf 7fa8 c9bf 7c73 6e3f b18a 87bf
000000d0: e4fb 93bf a1b7 a7bf f182 9bbf b7f9 973b
000000e0: 8d34 0d3e 7637 a4bf db96 b2bf 4775 0fbf
000000f0: 45cd 61bf de7b a7bf 2adc a3bf fec1 21bf
00000100: 93c8 babf 22c7 93bf d650 b5bf cae9 863f
00000110: f09a a8bf 65a7 bcbf e2c4 9fbf 87f2 c1bf
00000120: f4c6 aabf 8dd4 a3bf ce36 a93f 8c79 babf
00000130: 1256 aabf 9017 99bf a2d2 a93f 14e6 92bf
00000140: ec3f a6bf 0c1b a6bf 60be 96bf 31e8 c2bd
00000150: dbe2 98bf 5668 a8bf 6927 98bf ebc0 a4bf
00000160: dbc9 9fbf 1ede a9bf a8c7 92bf 3a04 acbf
00000170: c163 b8bf 47b3 b4bf db72 96bf 531f 85bf
00000180: 24d8 b3bf b1fa 9c3f a7cd 9a3f 1af9 85bf
00000190: f822 9dbf cea8 b3bf 871d 8bbf d2b2 c53f
000001a0: d62f 0ebf 2967 26bf 10a2 8ebf 9db2 b5bf
000001b0: 55cd 753f e2d6 a9bf ce8a 95bf 0dc9 973f
000001c0: d3d9 b3bf ddfd c3bf 272f cabf f4ef b1bf
000001d0: c657 a4bf e606 bbbf 702a 873f 1a9e b5bf
000001e0: 5a6a 78bf 837d 80bf 02dc 97bf e298 65bf
000001f0: 2987 ddbf 2704 9ebf 35b0 a0bf a422 68bf
00000200: 8aee 8fbd cf36 953f a359 723f b5e5 ab3f
00000210: 7bee 26bf c42c b1bf d9e6 9ebf 78a1 bfbf
00000220: 9c16 aebf 1075 debf a699 9a3f 88eb 9fbf
00000230: ab2e c4bf d246 8f3d 18d7 913f 0f4e bbbf
00000240: b1cf b1bf 1545 b4bf 98f0 0440 e10f 04c0
00000250: a169 99bf a9ff aabf 2da5 b3bf 1fd0 70bd
00000260: b818 df3d 6af4 95bf 82e7 92bf 42ba a5bf
00000270: 8379 c0bf aeb2 8ebf a3b4 9abf 1ff3 a13f
00000280: 28f7 b9bf a77f b6bf 40f5 893f 204e 9c3f
00000290: f8dd c2bf c6d8 b3bf 7749 afbf a181 a5bf
000002a0: 5337 a9bf ef8f b5bf 8bbd bb3f 12b9 9abf
000002b0: c75e a33f 8a9e b03f 4dd7 a53f 4837 b9bf
000002c0: 5dc0 a8bf 1f34 82bf ce19 68bf 96f7 96bf
000002d0: 5546 97bf 3391 a1bf 4332 91bf 570c ddbf
000002e0: 3d57 b4bf c474 b3bf 4372 b9bf 7056 b7bf
000002f0: 1607 e2bf 198c acbf 2f2d 9ebf 2984 aa3f
00000300: 5e8c ffbf 7cfb 913f bda8 a0bf 2ae1 ac3f
00000310: c8a5 04bf b058 afbf 7c17 aebf f36b b9bf
00000320: 82f9 99bf a2cc a9bf 966c 923f 5118 a3bf
00000330: dbe3 ac3e c87c 93bf 7e7b b33f bc83 b1bf
00000340: 487a 97bf 57b7 9abf 36f0 09bd 1d70 a1bf
00000350: 8c53 97bf 2478 afbf 409d b4bf 1d72 e5bf
00000360: 3d8f f0bf 04e7 a6bf d398 a4bf b79c 99bf
00000370: 1de4 b5bf 45ec a3bf 823b c0bf 19fa a73f
00000380: 53a6 b0bf c92a a9bf fdef a6bf b313 94bf
00000390: 223b abbf a728 a1bf 66e6 afbf ae32 bfbf
000003a0: e1d4 adbf 3a6f 9bbf 3e43 a2bf b5af babf
000003b0: 4882 9dbf c091 983f 7924 b13f 19d0 bdbf
000003c0: d4a2 a4bf 55ca afbf dde8 b5bf 65be bbbf
000003d0: 1d6e 9bbf e1cc b1bf 75df b5bf 7a3d adbf
000003e0: 0768 b2bf 0a82 93bf b854 a3bf 0548 94bf
000003f0: 1bf7 a8bf 7492 95bf 2706 b4bf f85a b63f

post_mp.0.bias f4 [16]
-1.2837946 -1.1364757 -1.1507921 -1.0272013 -1.3177754 -1.4061078 -1.3598288 -1.3905039
-1.2567632 -1.1122704 -1.2731204 -1.3330995 -1.2350446 -1.3812412 -1.8544061 -1.438207
00000000: 6253 a4bf 0978 91bf 284d 93bf 557b 83bf
00000010: ddac a8bf 57fb b3bf df0e aebf 08fc b1bf
00000020: 9edd a0bf e05e 8ebf 9cf5 a2bf 01a3 aabf
00000030: f115 9ebf 83cc b0bf 2e5d edbf 2b17 b8bf

post_mp.3.weight f4 [2, 16]
-0.7864972 0.9804209 -1.4625477 0.50573397 -1.1895647 -1.0190257 -1.1036018 0.9390463
1.1424044 -1.0685469 -1.0765901 -1.2895279 0.52330893 -1.4260033 0.5843418 -1.3761704
0.7017935 -1.3063315 1.1186485 -0.50285697 1.314162 1.1963317 1.3081222 -1.3679928
-1.0498359 1.0266466 1.4041375 1.1575465 -0.8234688 1.0734247 -0.66267675 1.1654441
00000000: e157 49bf ddfc 7a3f c334 bbbf c877 013f
00000010: a843 98bf 6f6f 82bf d342 8dbf 5765 703f
00000020: 4f3a 923f 25c6 88bf b4cd 89bf 400f a5bf
00000030: 93f7 053f 4787 b6bf 6d97 153f 5a26 b0bf
00000040: bda8 333f df35 a7bf e02f 8f3f 3cbb 00bf
00000050: 7636 a83f 6621 993f 8c70 a73f 631a afbf
00000060: 0661 86bf 2869 833f c7ba b33f 7c2a 943f
00000070: dace 52bf fb65 893f 2fa5 29bf 462d 953f

post_mp.3.bias f4 [2]
0.06676521 -0.00049008627
00000000: 33bc 883d 2279 00ba
