src/saved_models/GNN/multi_GNN_offline_16.07.2021-10:12.pt (torch, 6743 bytes, 6 tensors)

convs.0.weight f4 [18, 32]
00000000: ee83 023f 57f3 a83e 1b35 16c0 0550 a73d
00000010: 4285 983f a094 153e b541 4540 1106 a2bf
00000020: d3e6 983e 1598 da3f b60b 40c0 43f6 d43d
00000030: e406 773f 57d8 853e 016e 8e3e 54ad 43bf
00000040: ca55 b03e 088a cebe cb69 9dbd 6f42 753e
00000050: 5fa9 72bf 5636 24c0 77f5 d2bf 1e8d abbe
00000060: 5121 8a3e a017 98bf 7475 51bd 29fb 54be
00000070: d33b 0140 63bc 0d3f 1c1e 8dbf 60b7 183f
00000080: 8109 05be b39b dbbe 7a0b 28bf cb69 fc3c
00000090: cbd1 67bd 3e48 b23e c1a1 43bf 49ef d6be
000000a0: 1444 003f b15f afbf cdf9 00bf 87c4 61bd
000000b0: 4278 5d3e eb42 d6be d807 f0be 8a52 dabe
000000c0: 3f21 c13e e69e 033f 16cb e5be a9ac 94bd
000000d0: d6a3 923f cd96 54bf 7794 5fbf 4de2 65bf
000000e0: 73ae 7fbe 78f6 5f3f f16e f3bd 2043 25bf
000000f0: 2e33 9abf ab93 b1be 1edd 243f aaae e13d
00000100: b864 0d3f 35fa 023e bf94 583f a503 0abe
00000110: 4838 a83b 5bad c23f eb6a c3bf d1b0 493f
00000120: 7bcd c23f 534a 15c0 45da bb3f 67ee 973e
00000130: a68c e43e 03d8 7f3f 90a2 013f e879 843f
00000140: c286 3c3e c239 9c3e 0ad3 773f 05dd 2a3b
00000150: 65e0 173f b08f ab3f 737c e2be db08 d13d
00000160: 6696 6fbf f102 62bf 4071 50be 3fd6 46bf
00000170: b42b 14c0 0790 573e b1bc ca3e 5a5b 61bf
00000180: 9512 263f 7156 cbbe 7c26 64c0 ce73 713e
00000190: bb2d 0c3f 431a 61bf 108a 7a3f 1dd1 45c0
000001a0: a4e5 a0bf eb0b fa3e 9829 d4bf a589 d93c
000001b0: 45b9 9c3e 7322 553e 8f7e 7d3e f107 76bf
000001c0: 5cf5 513d b1e9 aa3d c16e 8cbd bed2 023f
000001d0: 3a47 d7be 07bf e7bd 27c3 e83d 777e 2f3f
000001e0: 90fb be3e b8fa 683f 6965 bb3d d8b9 523f
000001f0: b226 3c3f 3b71 b23e ae76 22bf f4f0 e43d
00000200: 2280 963e fc77 553d 1f97 4cbf 6db3 753e
00000210: f7c1 d23d 554b 7bbd 8c74 54bf f4d2 22bf
00000220: ac7c d23e d5c4 e2be da4a d93e 3a07 e8be
00000230: 33be 54be 74a0 013f 575b 023c ac3d 53bc
00000240: 3c1f 513f 3f79 ff3e 0728 d83d 05c3 c33e
00000250: 844a 7b3e ae15 063f 3f88 903e 27f5 4d3d
00000260: a34b 19be 6dc5 02be 718c 4a3e 6ee5 f93e
00000270: c6e1 c1be e8fd de3e 6578 903e 4ba7 7f3d
00000280: 15d2 20be a1c8 fc3e 0e67 e1be bdd1 b5be
00000290: 6319 10be 80cd 1abd 6919 18bf a43b d4be
000002a0: 0824 cc3d bb2c c1be 38d2 8e3e d380 32bf
000002b0: b2ca 903d a8aa e43d 5db0 6bbe 8264 e6bb
000002c0: f432 dd3e 8320 283f f556 cf3d 60d4 533e
000002d0: d826 673e 208d a83e f801 d1bc bad2 b73e
000002e0: 1696 5abd 7ae0 dabe 6369 803b 833f e5bd
000002f0: cf1f e8be 0b70 8ebd 49e2 203f 42ba 8bbe
00000300: 1a87 703f 83f8 be3f 9515 77bf ec98 b1bf
00000310: a953 283e fb19 393f 158f c43f 414a 43bf
00000320: a6ee b23e 95a5 d93f aaf0 ebbf 86e6 303c
00000330: 6e5d 193f d487 853e 1acd b2be 06bd d6bd
00000340: a172 333e ae6e 24bf 0064 333f 247c 8bbf
00000350: 0325 edbf a941 5ebf a2d0 b0bd e55c b43d
00000360: 202f 41bf 4a0d 52bf 61a8 05be c509 183f
00000370: fc9d ae3f 770c 6f3e 2eae 7cbf 3f22 dbbf
00000380: 5da8 80be 2b7e a03e dce1 a33e 220d 28bf
00000390: c3e5 45bf 541c b4bc 740c fdbf 222b 623e
000003a0: 84f1 e43e 3244 0ec0 ea24 863e 4f1b 68be
000003b0: 07fa 79be 7890 aebe c551 4ebf c97d 233e
000003c0: 8199 243f 5e76 f23e 74cf 90be 1ea1 5fbf
000003d0: 29c4 493f 25b3 1cbf 6680 383f c075 b8be
000003e0: 2e56 2fc0 1fa5 643f 0cef 71bd f171 9bbc
000003f0: 043a 02c0 b1b8 61be cfe0 c63e 2209 3ec0
0.5098256 0.32998154 -2.3469913 0.081695594 1.1915667 0.14607477 3.0821354 -1.2658101
0.29863605 1.7077662 -3.0007148 0.10398533 0.9649489 0.26141617 0.278183 -0.7643635
0.34440452 -0.40339684 -0.07686194 0.23951124 -0.9478969 -2.5658164 -1.648116 -0.335061
0.26978543 -1.188221 -0.051137403 -0.20798935 2.0192764 0.5536558 -1.1024814 0.5965481
-0.12991907 -0.42892227 -0.6564251 0.030812165 -0.05659656 0.3482074 -0.7641869 -0.41979435
0.5010388 -1.3701078 -0.50381166 -0.055119064 0.21627906 -0.4184793 -0.46880984 -0.42641097
0.37720677 0.51414335 -0.44881505 -0.07259495 1.1456249 -0.83042604 -0.87335914 -0.8979843
-0.24968891 0.87485456 -0.11886395 -0.6455555 -1.2046869 -0.34682974 0.643999 0.11019643
0.5523181 0.12790759 0.8460197 -0.13477953 0.0051336624 1.5209154 -1.5267004 0.78785425
1.5218958 -2.3326614 1.4675986 0.29674074 0.44638556 0.9993898 0.50638676 1.0349703
0.18410781 0.30512816 0.96806395 0.002607168 0.59326774 1.3403225 -0.44235572 0.10206767
-0.93588865 -0.8828574 -0.20355701 -0.77670664 -2.3151674 0.21051036 0.39597085 -0.88030016
0.64872104 -0.39714387 -3.564849 0.23579332 0.5475728 -0.879307 0.97866917 -3.0908883
-1.2570081 0.48837218 -1.6575193 0.026554892 0.306101 0.20813923 0.2475531 -0.9610587
0.051259384 0.08345354 -0.06857062 0.5110282 -0.4204653 -0.113157324 0.11365347 0.68552345
0.37301302 0.91007566 0.09150202 0.82314825 0.73496544 0.34852013 -0.6346234 0.11178771
0.29394633 0.05211638 -0.7991809 0.23994227 0.10290902 -0.06135114 -0.82990336 -0.6360314
0.41110742 -0.44290796 0.4243992 -0.45318013 -0.2077568 0.5063546 0.007956347 -0.012893122
0.81688285 0.4989719 0.105545096 0.38234726 0.24540144 0.5237683 0.28228948 0.050282624
-0.1497026 -0.12770624 0.19780137 0.48807853 -0.37867564 0.4355309 0.28216854 0.062415402
-0.1570514 0.49371818 -0.44023937 -0.3551158 -0.14072184 -0.037793636 -0.5941377 -0.41451752
0.0996781 -0.3772944 0.2789476 -0.6972782 0.07069911 0.111653626 -0.23016496 -0.0070310244
0.43202937 0.6567461 0.101240076 0.20686483 0.22573411 0.3292017 -0.025513634 0.3590296
-0.05336579 -0.42749387 0.003918813 -0.111937545 -0.45336768 -0.06954964 0.62845284 -0.2729054
0.9395615 1.491959 -0.96517307 -1.3874793 0.16438164 0.7230527 1.5356165 -0.7628518
0.349477 1.7003657 -1.843282 0.010797149 0.5990819 0.2608019 -0.34922105 -0.10485272
0.17524196 -0.64231384 0.7007446 -1.089726 -1.852692 -0.8681894 -0.086335436 0.08806781
-0.7546253 -0.8205153 -0.13052513 0.5938991 1.3641963 0.23344599 -0.9870328 -1.7119826
-0.2512845 0.3134626 0.32008255 -0.6564504 -0.77303714 -0.021986164 -1.9769425 0.22086766
0.44715512 -2.2229123 0.26200038 -0.22666667 -0.24411784 -0.34094596 -0.8059352 0.15965952
0.6429673 0.47355932 -0.28283274 -0.8735522 0.7881494 -0.6121085 0.7207092 -0.36027336
-2.739635 0.89314455 -0.059065863 -0.01897523 -2.034791 -0.2204311 0.3884339 -2.9693074

convs.0.bias f4 [32]
00000000: fc41 273d d39f 393f 7391 12c0 f0eb 01bf
00000010: 6c65 4a3f 7bc2 3bc0 ba16 a73f 9d0f 22c0
00000020: 3726 4dc0 7a8f f93e be1b 5ec0 22a4 b23e
00000030: a3f4 023e 6bfa c4bd 2e0a 21be 4e9e 4cc0
00000040: bff4 3bc0 4956 d4bf 995a 74be db92 e13d
00000050: c1a0 3abf 4858 9cbf ab77 c63c cd27 e93c
00000060: 262c b73e 6bf6 213f a577 133e c577 4b3f
00000070: 55c6 c93d 081d 0c3e 4221 8ebf 53ef 6fbd
0.040834412 0.725095 -2.2901275 -0.5075064 0.7906101 -2.9337451 1.3053811 -2.532203
-3.2054574 0.48742276 -3.4704432 0.34890848 0.12788634 -0.09618076 -0.1572654 -3.1971622
-2.936813 -1.6588832 -0.23862685 0.110143386 -0.7290154 -1.2214441 0.024226984 0.028461361
0.3577587 0.6326663 0.1440111 0.7947963 0.09852282 0.1368295 -1.11039 -0.058577847

post_mp.0.weight f4 [16, 32]
00000000: b575 e83e 2411 a53e ef5c 87be d8f8 d7bf
00000010: 19dd f03d 87d3 283e 6496 f23d 1a15 c8be
00000020: c1de 0d3e 7db8 093e 41ab 8bbe 963f 0b3f
00000030: 83d1 1c3f 4a1b 32be 4119 83bf d0ac 323e
00000040: d957 b63e 38f5 36be b78d ea3d 69a0 89bf
00000050: 1932 bebe 5d0f a0be 52d1 bd3d 70a2 b73e
00000060: 0ab5 f0be 2aaf 453f 04e0 95bc 5e88 803e
00000070: 9772 0f3f b52f 753d 755f 86bf de28 c1be
00000080: 2add b93e 2bfd ffbf ae7d 4e3f be8d fc3d
00000090: 7b2d 9b3e f467 dd3d d1c2 13bf 1397 953e
000000a0: 07d3 fb3e 045c cabe 2490 113f 29ac f4be
000000b0: 33d1 8c3d 1e92 5f3e 4207 5bbb db0b 003f
000000c0: b844 3ebf ae1a 28bf c100 2e3e 9598 2cbd
000000d0: 563b 88be 0764 843e 1d94 9b3e 7423 423e
000000e0: 9320 863f 36a2 8d3f 89ab 4c3e b3e7 6f3e
000000f0: b635 2dbf 573a 873e 92e0 2abe d7a8 b23f
00000100: 01e2 363e 87fb 563e ad6e 3abe 16bb a2bf
00000110: e7ce 5dbc 2735 00be 3581 a2bf a5cb 08be
00000120: e994 833d 067a 80bf e47f 89bd 61a7 353f
00000130: 0327 0b3f 8917 f9be 74b2 aabf b310 03bf
00000140: d9b3 1e3d 8c12 c8be e067 76bb 216e afbe
00000150: 331e afbf 7c2f 2ebf f42b 363f b495 ac3e
00000160: f40d 35be 0265 e73e a50b 183e db6c ae3e
00000170: 16aa 4fbf c214 3d3d 20d2 debf 3e1f 193e
00000180: 5c5e 383e 9f2e 073f fb26 22bf 115a 4dbf
00000190: e920 45be 2c3b e43d 52bd 103f 93b1 08bf
000001a0: 6fe4 e4bd 17c0 513f e7fd ccbd b29b d93e
000001b0: 82e3 0c3f 26ad 043e 7967 85be 7b6e a43e
000001c0: 2471 023f c96d 0abe b3a1 163e 5001 7abf
000001d0: 9dbd 8bbd f21f a93d 2b13 b13c 017c 2b3e
000001e0: 10c6 cbbe a0fc 363e cac6 d3bd 5727 863e
000001f0: 5afa 153f 0260 d9bc a35b 9bbf 2760 bebe
00000200: 304d c2bd 02dc 87bf cf9b 2fbf 60f1 33be
00000210: 08a7 683f e683 dd3c 3995 15bf 2f3e edbe
00000220: 1b12 d93e 3436 8bbf ce91 243f c7f3 1fbf
00000230: cb07 1b3f e966 e2be 5579 90bd 8ec2 ac3e
00000240: 3651 ddbf 8611 b4bf bfbc 383d f3a9 a23d
00000250: ec89 8dbf d2eb 773f aa6f 813f a604 dd3e
00000260: 538b 803f 2b7f 763f 79a4 28be e43a f33d
00000270: e4b5 92bf 6413 1439 e3d2 07c0 20c0 9b3f
00000280: c724 6dbd b938 0b3f c840 80bf 0116 813e
00000290: 9006 e1be c4a2 033f ebbf 5fc0 be76 77bf
000002a0: c37a 173e 36d5 16c0 81f0 34bf 4b7d c9be
000002b0: 3ace 97be 65b0 fc3d 609d 68bf fdc3 833e
000002c0: d734 c13e ae3b 1cbe 5e51 0bbf e6b9 dbbe
000002d0: 8d63 31be 9ea3 b8be 65c5 dd3e 4d46 373f
000002e0: cf24 15bf 6065 603f 79af 6fbf 2a74 ecbd
000002f0: df9a fcbf 341d 96be ebd4 49bf 2314 e93d
00000300: cd37 b23d 9120 37bf e95b 483f bcf2 903e
00000310: d409 e63e 28cc 8f3e 7836 fbbe 5bfb d93e
00000320: 0000 193f c96b 03bf 951a 3a3f 02d7 1abf
00000330: cef7 2f3e bb74 b7be 67e0 543d a69b c63e
00000340: cc26 bebf 277c bdbf 9419 a13e 8944 703d
00000350: 3249 9ebf b84b e03e b730 203f a81b 943e
00000360: faec 5e3f 291d 603f b424 1b3e c2b3 ca3e
00000370: be39 19bf 5998 9f3d 1f66 89bf e336 9f3f
00000380: cd7f b93d 5df3 5fbf b6da 0c3f 1aa5 28be
00000390: 72c6 0c3f 317d a13e 8e55 70be dbcd 083f
000003a0: e5ae 373f 19ea 98be b832 443f 645f babe
000003b0: 1564 123e e4b9 25be 2913 b63d 99b8 b23e
000003c0: 7f65 ccbf c76e d9bf b30c 843e fb27 463d
000003d0: 21f9 9cbf 0274 3d3e d43b 003f 5027 d73e
000003e0: 25a1 8a3f 5f9f 5b3f ffc2 253e b01c a03e
000003f0: 54b1 37bf b0ee 663e 8e46 7ebf e7bd 993f
0.45402303 0.3223964 -0.2643809 -1.6872816 0.11760921 0.16486941 0.11845091 -0.390786
0.13854505 0.13449283 -0.27279094 0.543939 0.6125719 -0.17393222 -1.0242082 0.17448735
0.35613897 -0.17866981 0.11452811 -1.0752078 -0.37147596 -0.3126172 0.0926844 0.35866117
-0.47013122 0.77220404 -0.018295296 0.2510404 0.56034225 0.05985995 -1.0497881 -0.37726492
0.36301547 -1.9999136 0.8066052 0.12331723 0.30308136 0.10810843 -0.5771914 0.29216823
0.4918444 -0.39523327 0.56860566 -0.47787598 0.06875839 0.21833083 -0.0033421074 0.5001809
-0.74323606 -0.6566571 0.16992475 -0.0421377 -0.2660777 0.25857565 0.3038644 0.18958837
1.0478691 1.1065128 0.1998731 0.2342823 -0.6766008 0.26411697 -0.1668723 1.3957776
0.17859651 0.20994388 -0.18206282 -1.2713344 -0.013538099 -0.12520276 -1.2695681 -0.13358934
0.06424887 -1.0037239 -0.06713846 0.70958525 0.543564 -0.48650768 -1.333571 -0.51197356
0.038745735 -0.3907665 -0.0037598535 -0.3426371 -1.3681091 -0.68041205 0.7116082 0.33707964
-0.17681104 0.4519425 0.14848192 0.34067425 -0.81118906 0.046162374 -1.7407875 0.14953324
0.18004745 0.52805513 -0.6334073 -0.80215555 -0.19250835 0.11144099 0.5653888 -0.53395957
-0.11176383 0.8193373 -0.100093655 0.425016 0.5503465 0.12956676 -0.26055506 0.3211554
0.5095389 -0.13518442 0.14710121 -0.9765825 -0.06823275 0.08258046 0.021615585 0.16746522
-0.39799547 0.17869806 -0.103406504 0.2620189 0.5858513 -0.026535038 -1.213734 -0.37182733
-0.094873786 -1.0614016 -0.6859712 -0.17572546 0.9087987 0.027040433 -0.5843082 -0.46336505
0.42396626 -1.0875916 0.6428498 -0.6248135 0.60558766 -0.4421914 -0.07054392 0.33742183
-1.7290409 -1.4067848 0.045101877 0.079425715 -1.1057715 0.9684421 1.0112202 0.4316761
1.0042518 0.9628779 -0.16468991 0.11876467 -1.1461759 0.00014121603 -2.1222465 1.2168007
-0.0578964 0.54383427 -1.001977 0.252121 -0.4395032 0.51420236 -3.4960887 -0.9666556
0.14792924 -2.3567634 -0.7067948 -0.39353403 -0.29649526 0.12338332 -0.90865135 0.25735465
0.37735626 -0.15257141 -0.5442103 -0.42915267 -0.17323132 -0.3606233 0.43314663 0.71591645
-0.5825929 0.87654686 -0.93627125 -0.11545594 -1.9734763 -0.29319155 -0.7884051 0.11380794
0.087020494 -0.7153407 0.78265244 0.28310192 0.44929373 0.28085446 -0.49064994 0.42574582
0.59765625 -0.5133634 0.7269681 -0.60484326 0.17184374 -0.35831246 0.05197182 0.38790625
-1.485559 -1.4803513 0.31464827 0.05865911 -1.2366087 0.4380777 0.6257433 0.2892735
0.8708035 0.87544495 0.1515072 0.3959027 -0.5985373 0.0779273 -1.073429 1.2438625
0.09057579 -0.8748072 0.55021226 -0.16469231 0.54990304 0.31540826 -0.23470137 0.5343911
0.7175124 -0.29866102 0.7663989 -0.36400902 0.14295991 -0.16184193 0.08890373 0.34906462
-1.5968474 -1.6986932 0.2579094 0.048377972 -1.2263528 0.18501285 0.5009129 0.4202218
1.0830427 0.85790056 0.16187666 0.31271887 -0.71754956 0.2255199 -0.9932641 1.2011079

post_mp.0.bias f4 [16]
00000000: 43fd 373f efcc 3a3f 0bef f73f b81a cf3e
00000010: ec05 893e 3361 1bbf 3f68 d73e 53c6 263f
00000020: ceee 8cbf 3755 2bbf 53ce 703f c63d b23e
00000030: bdae 1a3f 2ed2 5fc0 40b3 7cbd a852 443f
0.7187082 0.72968954 1.9369825 0.40450072 0.2676233 -0.6069519 0.4207172 0.6514637
-1.1010377 -0.669269 0.94064826 0.34812754 0.6042288 -3.4972034 -0.061694384 0.76688623

post_mp.3.weight f4 [2, 16]
00000000: 511f 203f 12d9 c4be 66d8 553f 62bc ec3e
00000010: b0c2 6ebf 665f 64bf 1983 67be ca2e 85be
00000020: 9db7 3bbf c63e 78bf f092 18be 71bd f6be
00000030: 338d 7cbe eed0 a1bf 4c74 6bbf 5bbe d6be
00000040: 34af 24bf f9f4 9f3e c8cc 28bf 713b bebe
00000050: 0601 583f 6dee 0f3f c33e c53e 9532 e03e
00000060: 43c7 683f 60cb 513f 12d9 f73e 8aec 5f3e
00000070: b0d4 843e bb12 b63f dbb3 413f 0f62 9e3e
0.62547785 -0.38446862 0.8353332 0.46237475 -0.9326582 -0.89208066 -0.22608604 -0.2601226
-0.73327047 -0.96970785 -0.14899802 -0.48191407 -0.24663238 -1.2641885 -0.9197433 -0.41942105
-0.6432984 0.31241587 -0.6593747 -0.37154725 0.8437656 0.56223184 0.38524446 0.4378859
0.9092905 0.8195095 0.484078 0.21867576 0.25943518 1.4224466 0.7566506 0.30934188

post_mp.3.bias f4 [2]
00000000: 3536 e6bf 2dcc 0d40
-1.7985293 2.215587
