src/saved_models/GNN/multi_GNN_offline_demo.pt (torch, 6743 bytes, 6 tensors)

convs.0.weight f4 [18, 32]
0.24746521 -0.11674437 0.028899152 -0.010003311 -0.2640525 0.032594 -0.020742921 -0.12695713
-0.16188212 0.3029996 -0.06357503 0.17400451 0.2449944 -0.021264333 -0.34329617 -0.34388775
0.18329431 -0.18842518 0.016522868 -0.225569 0.127394 -0.25975376 -0.24382617 0.046025805
-0.24924624 0.36529076 0.026992895 -0.15508088 0.3202238 0.33084393 -0.16601098 0.26841322
0.19163698 0.34344324 -0.32429767 -0.032526787 -0.17124225 -0.023149297 0.035305846 -0.20802453
-0.115774915 0.05085085 -0.18669517 -0.17544505 -0.37047517 -0.41093943 -0.44660664 -0.19558682
-0.3407594 -0.21872571 0.29847124 -0.06434256 -0.13862193 -0.32578805 -0.15999977 0.32207045
-0.006758925 -0.005268898 -0.14934342 -0.019235678 0.34344232 0.035362847 -0.05591778 -0.068117924
-0.15288314 -0.076265514 -0.27287558 -0.29986963 0.032653414 0.30130392 -0.37574282 0.007007691
-0.2858416 -0.027290577 -0.33388326 0.14462717 0.028887395 -0.017615974 -0.055290043 -0.04631347
0.15009287 -0.065654196 0.27924392 0.14259319 0.0588636 -0.06440271 0.17721319 0.15237783
-0.07606107 0.20802152 -0.3854084 -0.39943627 0.37431982 -0.32182118 -0.024896007 0.41936448
-0.01700854 -0.2909849 0.09251703 -0.3450803 -0.4147157 -0.011544357 0.116704 0.077182144
-0.44819048 -0.0018666879 0.29074374 -0.43678334 0.13099036 -0.18369177 0.0547065 -0.13912229
-0.36420956 0.06674647 -0.40254667 -0.13222548 -0.24137938 0.14098853 0.22964521 -0.32330513
-0.18720968 -0.29385048 -0.4126424 0.003356999 -0.09620728 -0.27353838 -0.18520005 -0.14304508
0.09998281 0.2410411 -0.08229546 -0.23800954 -0.39914247 -0.18535805 -0.08973993 0.12871994
-0.015260598 -0.17376362 -0.18857822 0.029171996 0.070454836 0.06076982 -0.019284908 -0.3663154
0.16796514 0.2885798 0.21244703 -0.37618604 0.22087976 0.15700112 0.20558865 0.32783145
-0.050888706 0.1576554 -0.12540995 -0.13410784 0.14742875 -0.094187595 -0.15036416 0.26835635
-0.3382384 -0.2391575 0.015539542 0.111888014 -0.24351662 -0.30077612 -0.2682737 -0.0062800343
-0.324428 0.06772708 0.10544445 0.11430365 -0.21148475 -0.033016667 0.107007444 0.08678817
0.15958169 -0.13890699 -0.3052928 0.23413299 0.26395503 0.3144852 -0.17795351 0.076763034
0.20608129 0.13022332 -0.14140692 -0.0842805 -0.023142213 -0.15913847 -0.33026505 0.28535402
0.32069892 -0.029357765 -0.157811 -0.2673584 0.24200033 -0.07301805 -0.10432084 0.017063951
-0.10115486 -0.14609814 -0.23288985 -0.08209741 -0.25506014 -0.11646131 -0.2817697 -0.19094796
0.22367537 0.29288888 -0.23563199 -0.16583107 -0.3471111 -0.040791996 -0.09804351 0.037083503
-0.34173933 -0.33383262 -0.19428451 -0.014443378 0.26008934 -0.07916788 0.095481165 -0.07110335
-0.2721129 -0.059799045 -0.12938581 0.1577499 -0.32928622 -0.10877849 -0.29286167 -0.22405171
-0.27248704 0.24977717 -0.29300013 -0.10228218 0.058264792 -0.2948303 -0.22369926 0.13541563
-0.26425108 0.11655342 -0.08583445 -0.05807037 0.059148666 -0.059698287 -0.06260639 0.17256111
-0.3434245 0.23559283 -0.04852648 -0.45267347 0.44932675 -0.39771536 0.02491569 -0.0908827
00000000: 8567 7d3e ac17 efbd eabd ec3c ede4 23bc
00000010: e431 87be 4981 053d 0fed a9bc 0d01 02be
00000020: 6dc4 25be c322 9b3e a033 82bd 3d2e 323e
00000030: d0df 7a3e 8a32 aebc 84c4 afbe 0e12 b0be
00000040: 81b1 3b3e 88f2 40be f75a 873c 8ffb 66be
00000050: 9373 023e 72fe 84be 91ad 79be 8e85 3c3d
00000060: 683a 7fbe 6407 bb3e 3420 dd3c 86cd 1ebe
00000070: 60f4 a33e 6064 a93e c8fe 29be 756d 893e
00000080: 7c3c 443e cbd7 af3e 580a a6be cf3a 05bd
00000090: 215a 2fbe 98a3 bdbc dd9c 103d 6204 55be
000000a0: 661b edbd fb48 503d 052d 3fbe dea7 33be
000000b0: ecae bdbe a766 d2be a0a9 e4be e947 48be
000000c0: 0478 aebe a2f9 5fbe 39d1 983e 08c6 83bd
000000d0: e8f2 0dbe b1cd a6be fbd6 23be 6be6 a43e
000000e0: f979 ddbb b8a6 acbb 7bed 18be 2494 9dbc
000000f0: acd7 af3e a2d8 103d 0b0a 65bd 6981 8bbd
00000100: 668d 1cbe 1831 9cbd 59b6 8bbe 8388 99be
00000110: 96bf 053d 8244 9a3e 5d61 c0be c6a0 e53b
00000120: d559 92be 7d90 dfbc bff2 aabe 2519 143e
00000130: 42a5 ec3c 604f 90bc d077 62bd 31b3 3dbd
00000140: f2b1 193e b575 86bd 0ff9 8e3e f303 123e
00000150: f51a 713d 91e5 83bd 6077 353e ef08 1c3e
00000160: e8c5 9bbd 9803 553e 4054 c5be e982 ccbe
00000170: d9a6 bf3e bfc5 a4be b6f2 cbbc f1b6 d63e
00000180: 7e55 8bbc f9fb 94be 9279 bd3d 5dae b0be
00000190: 9e55 d4be 8b24 3dbc 8202 ef3d ac11 9e3d
000001a0: 3979 e5be a7ab f4ba 5ddc 943e 11a2 dfbe
000001b0: 5622 063e b219 3cbe ec13 603d 1376 0ebe
000001c0: ad79 babe 60b2 883d 991a cebe 1e66 07be
000001d0: 282c 77be 4c5f 103e 1d28 6b3e 4088 a5be
000001e0: e5b3 3fbe 9273 96be dd45 d3be 1901 5c3b
000001f0: 5308 c5bd 390d 8cbe 15a5 3dbe 697a 12be
00000200: cac3 cc3d 7ad3 763e 868a a8bd c6b8 73be
00000210: 675c ccbe 80ce 3dbe 92c9 b7bd 29cf 033e
00000220: 9607 7abc 17ef 31be a61a 41be 1cfa ee3c
00000230: a04a 903d c6e9 783d 62fb 9dbc b18d bbbe
00000240: 0eff 2b3e bbc0 933e b78b 593e 759b c0be
00000250: 4e2e 623e e7c4 203e d585 523e 86d9 a73e
00000260: ad70 50bd 6b70 213e 776b 00be 9153 09be
00000270: 90f7 163e 6de5 c0bd 10f9 19be 0166 893e
00000280: 952d adbe b4e5 74be 9099 7e3c 8b25 e53d
00000290: 6c5c 79be 54ff 99be 2c5b 89be bfc8 cdbb
000002a0: 6d1b a6be 7fb4 8a3d 43f3 d73d 0818 ea3d
000002b0: 758f 58be 7c3c 07bd b826 db3d ffbd b13d
000002c0: 6269 233e a23d 0ebe 564f 9cbe 8fc0 6f3e
000002d0: 1d25 873e 3404 a13e 7239 36be f035 9d3d
000002e0: f906 533e 4359 053e facc 10be 419b acbd
000002f0: bd94 bdbc 32f5 22be 8018 a9be ec19 923e
00000300: a632 a43e b27f f0bc 3599 21be 33e3 88be
00000310: efce 773e 7d8a 95bd 2aa6 d5bd b3c9 8b3c
00000320: 472a cfbd c09a 15be ad7a 6ebe b022 a8bd
00000330: 3e97 82be 4483 eebd 1e44 90be dd87 43be
00000340: 280b 653e 88f5 953e 8349 71be 9fcf 29be
00000350: 8cb8 b1be 8215 27bd 09cb c8bd dfe4 173d
00000360: 75f8 aebe 1cec aabe 85f2 46be eba3 6cbc
00000370: 6e2a 853e c522 a2bd a18b c33d a29e 91bd
00000380: 6252 8bbe d8ef 74bd b77d 04be 3189 213e
00000390: 3498 a8be 42c7 debd f7f1 95be d06d 65be
000003a0: 6c83 8bbe 96c5 7f3e 1d04 96be 5279 d1bd
000003b0: 10a7 6e3d fff3 96be 6b11 65be 65aa 0a3e
000003c0: eb4b 87be 8fb3 ee3d f9c9 afbd 32db 6dbd
000003d0: df45 723d 3186 74bd c737 80bd dcb3 303e
000003e0: 56d5 afbe 3f3f 713e b4c3 46bd d1c4 e7be
000003f0: 280e e63e 59a1 cbbe fd1b cc3c b620 babd

convs.0.bias f4 [32]
0.034705214 0.18165067 0.14446436 0.089426056 -0.0025309913 0.041209776 0.093562156 0.122039795
0.0046344805 0.14225128 0.1252071 0.011267896 -0.050773818 0.035209898 0.11367092 -0.007192922
0.084850766 0.12237214 0.117876865 0.103773676 0.11840118 0.16233 0.11330329 0.08880651
0.11492822 0.13336128 0.0193596 0.11823677 -0.00029147 0.063639924 0.12504607 0.18303601
00000000: 0e27 0e3d a202 3a3e 77ee 133e 0225 b73d
00000010: fdde 25bb 95cb 283d 849d bf3d 00f0 f93d
00000020: d7dc 973b 52aa 113e 4a36 003e fb9c 383c
00000030: 35f8 4fbd 4138 103d 4dcc e83d 9ab2 ebbb
00000040: 3dc6 ad3d 3f9e fa3d 6d69 f13d 4b87 d43d
00000050: 517c f23d d639 263e 8e0b e83d 30e0 b53d
00000060: 7d5f eb3d dc8f 083e 0698 9e3c 1f26 f23d
00000070: 71d0 98b9 a655 823d 140c 003e cb6d 3b3e

post_mp.0.weight f4 [16, 32]
-0.024450144 -0.09457694 0.0625219 0.2071414 0.008374627 -0.19783944 0.07803278 0.23036703
0.13063173 0.20721222 0.07783617 -0.025897628 0.019008279 0.0119212335 0.11970552 0.008687526
0.07948697 0.005642953 0.05026835 0.15246733 0.22662592 0.20129883 0.16734052 0.06968145
0.15723285 0.13279565 0.09057288 0.02343334 -0.22431105 0.2619252 0.34197345 0.14776039
0.15490077 -0.25940165 0.07371941 -0.014291176 0.24910557 0.021039108 0.26273873 0.112184584
0.057675567 0.088013716 0.23542811 0.24249792 -0.021904506 0.06503218 0.023695823 0.105236985
0.22114465 0.17420055 -0.15419538 0.073466524 0.0040852474 0.12836666 0.19393231 -0.06283932
0.0038211665 0.030873649 0.16287102 0.16585368 -0.17944793 -0.031797424 0.1364833 0.031592205
0.14372458 0.020166658 -0.18450029 -0.09386686 0.079291716 0.0057114363 -0.103036895 -0.0577032
0.07222547 -0.09183852 0.06323685 0.043442387 0.14288683 0.11815928 -0.084208824 -0.07294089
-0.1837686 -0.18144712 0.20907922 -0.06967395 -0.114592806 -0.114034034 -0.016177159 0.042182323
0.04342879 -0.137031 -0.13742135 -0.041229863 0.10081563 -0.024775602 -0.06703497 0.1424813
0.011369406 -0.009087567 -0.1355798 -0.18068996 -0.10310284 -0.01464039 0.058767647 -0.09176461
0.10724471 -0.19568825 0.08344083 -0.08035167 -0.01832062 -0.03156112 0.10189509 0.009593915
0.091859505 0.001965469 0.0015538558 -0.013401241 -0.027669014 0.058384627 -0.066662714 -0.13626997
0.09538662 0.06924334 0.09100453 -0.14686047 -0.23445368 -0.1305468 -0.056715947 0.011581758
-0.16066907 -0.052878227 -0.2093258 0.018156676 0.09640695 -0.11070319 0.10881247 -0.11777586
0.055147734 0.039770827 -0.03627279 0.0706648 -0.0021027862 -0.2010552 0.059709836 -0.21130766
-0.06660358 0.12710717 0.10121025 0.027521443 -0.15684396 0.040575966 -0.07197617 0.08753021
-0.013962146 0.025557145 0.022921536 -0.13178374 0.098378904 -0.058016393 -0.07812341 -0.24206549
-0.065295056 -0.06999862 -0.10567875 -0.0046419054 -0.050460055 -0.082208306 0.030541496 -0.0801832
0.010481501 -0.0887568 -0.09755422 -0.09514314 0.047493447 0.17008209 0.16547865 0.029127574
0.037961435 -0.090808176 -0.15065856 -0.12512895 0.067962706 -0.07124388 -0.06925576 0.13552631
-0.0114887515 0.035804115 0.050703883 -0.17650875 0.23465456 0.06489819 -0.098735236 -0.038215548
-0.18765987 -0.18685849 -0.015932774 0.20150927 0.23999873 -0.013499575 0.091626115 0.2267113
0.21723711 -0.0027741967 -0.034210477 0.025641747 -0.020312553 0.027612092 -0.03504474 0.11818736
0.22278452 0.18646728 0.12191972 0.27205315 0.25296056 0.04131936 0.1799401 0.1603638
0.13294758 0.15513875 0.34021908 0.119625136 0.00078642386 0.23788212 0.3522969 0.19205491
-0.13151085 -0.15180735 0.15018308 0.24908157 0.04386511 -0.07622514 0.26544553 0.22176376
0.055643566 0.1276049 -0.051328063 -0.06313804 -0.07195639 0.05781602 0.07407026 0.28186736
0.09521109 0.037395556 -0.18174551 0.1905718 0.07897726 0.033317585 0.19834588 0.04840265
0.21886338 0.15622537 0.12868024 0.05417329 0.0260284 0.059121307 0.2747011 0.26599526
00000000: ab4b c8bc 8eb1 c1bd 7b0b 803d e01c 543e
00000010: bb35 093c 6c96 4abe a6cf 9f3d 56e5 6b3e
00000020: 53c4 053e 712f 543e 9268 9f3d 4327 d4bc
00000030: 40b7 9b3c 4751 433c 2b28 f53d 2056 0e3c
00000040: 11ca a23d 85e8 b83b 2fe6 4d3d 6520 1c3e
00000050: a010 683e 4821 4e3e 505b 2b3e 26b5 8e3d
00000060: a601 213e 95fb 073e 467e b93d 47f7 bf3c
00000070: ccb1 65be 0f1b 863e 2517 af3e 804e 173e
00000080: 4f9e 1e3e 4bd0 84be 34fa 963d 8925 6abc
00000090: 8815 7f3e 355a ac3c b185 863e 08c1 e53d
000000a0: 373d 6c3d 8940 b43d 1114 713e 6051 783e
000000b0: 1471 b3bc 972f 853d be1d c23c 7d86 d73d
000000c0: be73 623e a161 323e 65e5 1dbe 9e75 963d
000000d0: 8add 853b 8d72 033e 3196 463e e7b1 80bd
000000e0: 896c 7a3b bcea fc3c a9c7 263e 8cd5 293e
000000f0: 33c1 37be 043e 02bd 47c2 0b3e d466 013d
00000100: 892c 133e 8c34 a53c a5ed 3cbe 453d c0bd
00000110: b263 a23d 0027 bb3b 0205 d3bd 315a 6cbd
00000120: f2ea 933d d515 bcbd 5282 813d a5f0 313d
00000130: ed50 123e 7efd f13d ad75 acbd 0962 95bd
00000140: d62d 3cbe 46cd 39be dd18 563e 37b1 8ebd
00000150: a2af eabd ad8a e9bd f685 84bc 5fc7 2c3d
00000160: 63e2 313d db51 0cbe 2fb8 0cbe a5e0 28bd
00000170: 6d78 ce3d 34f6 cabc a149 89bd 9ee6 113e
00000180: bf46 3a3c 05e4 14bc 6ed5 0abe ca06 39be
00000190: 9527 d3bd 3fde 6fbc 58b6 703d 15ef bbbd
000001a0: 1da3 db3d 8062 48be 07e3 aa3d 6b8f a4bd
000001b0: 2015 96bc 3c46 01bd 5fae d03d cc2f 1d3c
000001c0: d620 bc3d 19cf 003b c0aa cb3a e190 5bbc
000001d0: 21aa e2bc b824 6f3d 7686 88bd 5b8a 0bbe
000001e0: 0f5a c33d 74cf 8d3d 9560 ba3d 9762 16be
000001f0: a014 70be 0fae 05be fb4e 68bd 6ac1 3d3c
00000200: 6f86 24be d796 58bd 8159 56be 4fbd 943c
00000210: 0271 c53d 5bb8 e2bd 13d9 de3d 7834 f1bd
00000220: 97e2 613d bce6 223d c792 14bd b5b8 903d
00000230: e6ce 09bb 6ae1 4dbe 4d92 743d 0961 58be
00000240: 7567 88bd 6228 023e 5247 cf3d a674 e13c
00000250: b49b 20be fc32 263d 3e68 93bd 0a43 b33d
00000260: 7cc1 64bc 385d d13c f2c5 bb3c 51f2 06be
00000270: e17a c93d 99a2 6dbd 2bff 9fbd 04e0 77be
00000280: 6ab9 85bd 705b 8fbd 1a6e d8bd 201b 98bb
00000290: 34af 4ebd d45c a8bd 2932 fa3c 1737 a4bd
000002a0: 9aba 2b3c 20c6 b5bd 82ca c7bd 68da c2bd
000002b0: 7d88 423d 002a 2e3e 3c73 293e f39c ee3c
000002c0: 737d 1b3d a3f9 b9bd 3d46 1abe ce21 00be
000002d0: 0830 8b3d 50e8 91bd f7d5 8dbd 69c7 0a3e
000002e0: 513b 3cbc 56a7 123d e0ae 4f3d b6be 34be
000002f0: 4949 703e 58e9 843d b335 cabd e887 1cbd
00000300: e929 40be d557 3fbe 7385 82bc 7258 4e3e
00000310: 3ac2 753e 522d 5dbc 79a6 bb3d 0227 683e
00000320: 6873 5e3e 4ccf 35bb 4920 0cbd a40e d23c
00000330: 8366 a6bc c132 e23c 138b 0fbd 370c f23d
00000340: a021 643e 47f1 3e3e 0cb1 f93d 8d4a 8b3e
00000350: 0c84 813e 7d3e 293d 3842 383e 6836 243e
00000360: 6923 083e b1dc 1e3e 3231 ae3e 06fe f43d
00000370: 0328 4e3a 5f97 733e 4260 b43e 0baa 443e
00000380: c8aa 06be 6373 1bbe 98c9 193e 3d0f 7f3e
00000390: e7ab 333d ed1b 9cbd 7ae8 873e 0a16 633e
000003a0: 82ea 633d dcaa 023e 603d 52bd 844e 81bd
000003b0: df5d 93bd 7ed0 6c3d 26b2 973d eb50 903e
000003c0: 08fe c23d 152c 193d 7f1b 3abe 4125 433e
000003d0: d4be a13d 0578 083d 2f1b 4b3e db41 463d
000003e0: b91d 603e 8bf9 1f3e c1c4 033e d0e4 5d3d
000003f0: 8339 d53c 2f29 723d 9fa5 8c3e 8830 883e

post_mp.0.bias f4 [16]
-0.038645927 0.22374338 0.035008382 -0.03688992 0.0025798606 0.061464872 0.081052415 -0.039710864
0.13309875 0.21342114 0.15732402 -0.063902535 0.062883265 0.06201562 0.18933584 -0.051032074
00000000: 314b 1ebd fc1c 653e f364 0f3d e219 17bd
00000010: e112 293b 97c2 7b3d cffe a53d dca7 22bd
00000020: 0a4b 083e 128b 5a3e 8c19 213e 55df 82bd
00000030: f1c8 803d 1704 7e3d 41e1 413e 0207 51bd

post_mp.3.weight f4 [2, 16]
-0.3077012 -0.31394336 0.0146899335 0.18374637 0.15870088 -0.053161453 -0.20892766 -0.31601617
-0.14937747 0.066058084 -0.1372409 0.20837502 -0.055623446 -0.15403956 -0.24711122 0.0955806
0.1767733 0.3268805 -0.067418 0.022622801 0.046565477 0.23560485 0.10784913 0.093088284
0.12934563 0.3178122 0.1541444 0.13108087 0.20612258 0.13571745 0.18930042 0.08322071
00000000: 038b 9dbe 2fbd a0be 0cae 703c 0228 3c3e
00000010: 7c82 223e d3bf 59bd 22f1 55be dfcc a1be
00000020: 68f6 18be 7649 873d e188 0cbe 4360 553e
00000030: 69d5 63bd 8cbc 1dbe b90a 7dbe c3bf c33d
00000040: 0f04 353e e25c a73e 7312 8abd 7453 b93c
00000050: 71bb 3e3d 6642 713e 01e0 dc3d 12a5 be3d
00000060: 2e73 043e 48b8 a23e 08d8 1d3e 103a 063e
00000070: cc11 533e 84f9 0a3e f8d7 413e 9f6f aa3d

post_mp.3.bias f4 [2]
-0.14585723 0.14375085
00000000: 995b 15be 6c33 133e
