src/saved_models/GNN/multi_GNN_offline_15.07.2021-19:17.pt (torch, 6743 bytes, 6 tensors)

convs.0.weight f4 [18, 32]
-0.23743057 -0.10364337 0.9110751 1.0031476 0.4514009 -0.52472395 0.6325706 0.65374756
-0.15788063 0.9829408 0.0867543 0.6028539 0.46196765 0.5759598 0.5696496 0.11141796
0.38316968 0.33734104 0.6578417 0.73984975 -0.516957 -0.52865845 -0.96934927 0.3705893
0.086690016 0.6120627 0.98098284 -0.58860177 -0.18409668 1.1523627 0.45755962 1.3098154
0.037763853 -0.49777085 -0.16478807 -0.576441 -0.52410495 0.18785845 0.16422203 0.00393829
0.09759082 -0.5670229 -0.3290105 0.06376758 -0.91130286 -0.286783 0.3973903 0.19455265
-0.30451417 -0.4583556 -0.10834446 -0.43759447 0.19254272 0.35359082 0.2665764 -0.41671005
-0.38958982 0.47750926 0.036886875 0.33503985 -0.0983825 0.13577318 -0.3769125 0.068171576
0.040333863 -0.2069614 -1.1170143 -0.042107563 -0.3340811 0.23960829 -0.18333341 -0.050558124
0.113418564 -0.04206494 -0.2879147 -0.12975052 -0.7460436 -0.41879112 -0.19197178 -0.14225797
0.20248887 -0.8282504 0.06166499 -0.727872 0.12513687 0.31647775 0.10172384 -0.41784358
-0.48230502 0.46108592 -0.5193763 0.2475338 -0.10972963 -0.5154801 -0.53474396 0.071098015
-0.20440963 0.20658559 -0.3555068 0.15792634 -0.063366815 -0.567271 -0.46105945 -0.41716307
-0.21335463 -0.29259464 -0.027685076 -1.5389255 0.1621864 0.21476163 -0.74494344 -0.97903377
0.093511984 0.060912054 -0.35206643 -0.08804987 -0.45984998 -0.438317 -0.1529155 0.36252454
0.45938042 -0.40741315 -0.001619595 -0.22435029 0.066736564 -0.023472367 0.438969 -0.16021848
0.117965296 0.21779159 0.08473524 -0.054417435 0.35494524 -0.3226689 -0.038269516 -0.0056838035
-0.026334908 0.062016368 -0.28329524 -0.49496463 -0.20811705 0.07921482 0.20937447 -0.6425162
0.04501177 0.25399595 0.21408208 0.19672246 -0.4897163 -0.45732972 0.090270504 0.2336459
0.02652302 -0.2730067 -0.17528525 0.076132424 0.17414922 0.1534406 0.049551167 -0.101536
-0.0686017 0.13304089 -0.23255235 -0.22536722 0.15824065 0.26568547 0.36921495 0.18145378
0.14131063 -0.099440604 -0.0430896 0.6077067 -0.12840192 0.14234921 0.17249209 0.46362934
-0.021835675 0.30385062 -0.06430181 0.5366348 0.12914148 0.1807867 -0.3843081 -0.12925315
-0.0014711865 -0.42450163 -0.33379143 0.13282439 0.18898743 -0.32370695 0.05058628 0.15792643
-0.073521435 -0.08431706 -0.19854653 0.51459485 -0.43621868 -0.59668165 -0.72508234 -0.72952414
-0.50366837 0.24534439 -0.2778078 -0.38149667 0.10609886 -0.26161656 0.054403584 -0.045651842
-0.24380328 -0.060613696 -0.3424513 -0.39430586 -0.7337325 -0.7666493 -0.38025355 -0.1257563
0.10708939 0.24315731 0.30689597 -0.76415116 -0.2701595 0.26476574 -0.34925312 0.3737425
0.012772626 0.10445061 1.1994647 0.31986803 -0.08935708 -0.5929921 -0.26436386 0.09883793
-0.0886216 0.2111255 0.17956802 0.23197836 -0.010611973 0.012444804 0.36119264 -0.92647964
0.13756573 -0.28926152 -0.3944908 -0.29720914 -0.946254 -1.0940648 -0.49591115 -0.122600034
-0.21072912 -0.05342179 0.074016646 -0.3575936 -0.47960183 -0.08938099 -0.2789152 0.10786309
00000000: 0021 73be fa42 d4bd 383c 693f 2467 803f
00000010: 051e e73e 4f54 06bf 26f0 213f 005c 273f
00000020: 76ab 21be 02a2 7b3f 3dac b13d a254 1a3f
00000030: 0687 ec3e 1a72 133f 8ed4 113f 192f e43d
00000040: d12e c43e f7b7 ac3e 5068 283f cb66 3d3f
00000050: 4b57 04bf 2956 07bf 4627 78bf e1bd bd3e
00000060: 898a b13d 24b0 1c3f b121 7b3f 9bae 16bf
00000070: d783 3cbe 9f80 933f 4145 ea3e 08a8 a73f
00000080: 45ae 1a3d d2db febe 34be 28be a391 13bf
00000090: be2b 06bf f75d 403e d229 283e c50c 813b
000000a0: b2dd c73d 6a28 11bf 1074 a8be 9498 823d
000000b0: 254b 69bf 39d5 92be be76 cb3e cf38 473e
000000c0: 48e9 9bbe 96ad eabe b3e3 ddbd 620c e0be
000000d0: eb29 453e db09 b53e b47c 883e 055b d5be
000000e0: 5178 c7be 187c f43e b116 173d 588a ab3e
000000f0: c47c c9bd 2008 0b3e adfa c0be 8a9d 8b3d
00000100: 1f35 253d b0ed 53be 53fa 8ebf fb78 2cbd
00000110: ae0c abbe e05b 753e c1bb 3bbe 0916 4fbd
00000120: fe47 e83d 494c 2cbd 8e69 93be 52dd 04be
00000130: b7fc 3ebf ca6b d6be 4094 44be 13ac 11be
00000140: 3e59 4f3e 3808 54bf 6e94 7c3d d255 3abf
00000150: e123 003e 5f09 a23e 9754 d03d 98ef d5be
00000160: aff0 f6be 7413 ec3e d8f5 04bf 8079 7d3e
00000170: eeb9 e0bd 81f6 03bf fbe4 08bf d69b 913d
00000180: c250 51be 2c8b 533e fd04 b6be 71b7 213e
00000190: 76c6 81bd ac38 11bf fc0f ecbe 6696 d5be
000001a0: a379 5abe f7ce 95be d0cb e2bc 83fb c4bf
000001b0: 3114 263e 79ea 5b3e 9db4 3ebf f5a1 7abf
000001c0: 3683 bf3d eb7e 793d 0d42 b4be 7e53 b4bd
000001d0: 7571 ebbe 166b e0be e195 1cbe d19c b93e
000001e0: e933 eb3e 7598 d0be 9748 d4ba 15bc 65be
000001f0: 2ead 883d 1f49 c0bc 8bc0 e03e 5010 24be
00000200: ca97 f13d c204 5f3e ab89 ad3d d1e4 5ebd
00000210: 62bb b53e dc34 a5be 7fc0 1cbd 333f babb
00000220: 4ebc d7bc e004 7e3d 130c 91be 016c fdbe
00000230: a31c 55be 613b a23d 4366 563e f17b 24bf
00000240: 435e 383d c20b 823e 5538 5b3e 9d71 493e
00000250: 18bc fabe 1f27 eabe bedf b83d df40 6f3e
00000260: ce46 d93c 89c7 8bbe fa7d 33be 51eb 9b3d
00000270: 2c54 323e 881f 1d3e 2af6 4a3d 1bf2 cfbd
00000280: 0c7f 8cbd df3b 083e 3422 6ebe aac6 66be
00000290: d609 223e ed07 883e be09 bd3e 05cf 393e
000002a0: bcb3 103e 84a7 cbbd b87e 30bd ab92 1b3f
000002b0: cb7b 03be fec3 113e c4a1 303e d360 ed3e
000002c0: bbe0 b2bc 4f92 9b3e abb0 83bd e660 093f
000002d0: aa3d 043e 2620 393e 08c4 c4be f05a 04be
000002e0: d4d4 c0ba 4758 d9be b6e6 aabe 1e03 083e
000002f0: ec85 413e ebbc a5be 8f33 4f3d 77b7 213e
00000300: 6892 96bd 6cae acbd c84f 4bbe 7dbc 033f
00000310: 0e58 dfbe 21c0 18bf ff9e 39bf 18c2 3abf
00000320: 69f0 00bf 8f3b 7b3e d33c 8ebe 8853 c3be
00000330: 5c4a d93d 9bf2 85be 4bd6 5e3d 6dfd 3abd
00000340: 91a7 79be 1146 78bd c755 afbe 75e2 c9be
00000350: e5d5 3bbf 2143 44bf 98b0 c2be 42c6 00be
00000360: af51 db3d 3bfe 783e 7821 9d3e 699f 43bf
00000370: 5952 8abe 608f 873e 4ed1 b2be 2d5b bf3e
00000380: 4744 513c 34ea d53d 0f88 993f bec5 a33e
00000390: d800 b7bd 55ce 17bf b35a 87be 8a6b ca3d
000003a0: 3e7f b5bd 4831 583e aee0 373e bc8b 6d3e
000003b0: d7dd 2dbc 4be5 4b3c 3eee b83e c52d 6dbf
000003c0: 08de 0c3e 161a 94be b3fa c9be cc2b 98be
000003d0: b43d 72bf 510a 8cbf 11e8 fdbe ba15 fbbd
000003e0: 60c9 57be cfd0 5abd 0a96 973d 8216 b7be
000003f0: 5f8e f5be 610d b7bd f9cd 8ebe 53e7 dc3d

convs.0.bias f4 [32]
2.874316 1.4578468 0.862658 1.5866809 0.60069543 -0.62436813 2.2359557 1.4317273
2.6916857 0.7716299 -0.08035053 0.6657606 0.9433843 2.0291672 1.3389082 0.08067112
2.2059972 1.594965 2.0167327 0.6812164 -0.39501768 -1.4521724 0.17356259 1.5453988
1.6983318 0.7158048 1.9249793 0.98481536 2.3331044 3.310103 1.976363 0.5521693
00000000: cbf4 3740 b99a ba3f 28d7 5c3f 5c18 cb3f
00000010: 2dc7 193f 97d6 1fbf e619 0f40 d742 b73f
00000020: 9444 2c40 8a89 453f d28e a4bd 496f 2a3f
00000030: a281 713f e0dd 0140 5861 ab3f e636 a53d
00000040: 0f2f 0d40 d027 cc3f 2612 0140 3364 2e3f
00000050: c23f cabe c9e0 b9bf 64ba 313e a1cf c53f
00000060: f062 d93f fc3e 373f b965 f63f dc1c 7c3f
00000070: 9551 1540 bad8 5340 76f9 fc3f f85a 0d3f

post_mp.0.weight f4 [16, 32]
-2.1753786 0.07349243 0.07221975 0.1813901 0.11250288 -0.18469365 -3.483719 -2.7107222
-4.615792 -0.21462756 0.03515945 0.054210152 0.08430578 0.073491275 0.19244309 -0.9259442
-0.21826893 -2.399762 0.027118387 -0.22977531 -0.4870292 -1.166138 -0.21477523 -0.00033912735
-0.02171827 0.22869515 0.2953804 -1.8341477 -0.91556 0.40639856 -1.812525 -0.1803162
-0.11772283 0.26981887 0.5669284 0.11908426 -0.95763975 0.09781655 -0.08242968 -0.35300332
0.06612008 -0.20381057 0.078859374 0.37270433 0.28620446 -0.15137018 0.11107159 -1.5787321
-0.109501556 -5.754293 -0.188093 -1.92213 -2.9903553 -0.42910272 0.22787493 0.2189996
0.15704264 0.5374718 -0.082479894 0.020268654 -0.090931356 -0.022615084 -4.173263 0.3262472
-0.86339206 -0.021879446 0.11138328 -0.047424052 -0.40615878 0.46610487 -1.6898663 -3.1116118
-0.3512053 0.06448777 -0.059555575 0.05484725 -0.050385293 0.03233252 -0.27490655 -1.1368167
-0.53961957 -4.402195 -0.68683165 -0.5125664 -0.52622294 -2.0334134 -0.23355758 0.16367722
0.08792197 0.1471304 0.036245897 -0.17957376 -0.11800685 0.09251315 -2.6541412 0.0960294
0.11980398 0.21823128 0.40071282 -0.0976306 -0.5473765 -3.884745 0.14723675 -0.196043
0.09866882 -0.22498162 0.029581808 -3.1670964 0.11630497 0.22975853 -0.55786586 -4.9778433
0.08534565 0.20018372 0.029562993 -0.34580445 -6.0454626 -9.6733055 -0.010315823 0.2951196
0.29130304 -0.39135236 0.021600079 -0.102003485 0.15219936 0.12985954 0.20614645 -0.2456326
-0.11785217 0.120425545 0.096500054 0.04216363 -1.074044 -0.65829664 -0.11312859 -0.83433753
-0.047609832 0.00061639544 -0.025663184 -0.55262554 -0.0068897256 0.13380413 -0.24019085 -1.8995616
-0.011191873 -7.339126 -0.077243656 -2.1857646 -2.0050805 -3.9021695 -0.067041904 0.14226395
0.13914049 -0.04840693 0.06398 -0.1470304 0.029019665 -0.034179352 -5.7390604 -0.0014107358
-0.22937681 -0.30898407 -0.07215261 -0.20506522 -0.10103516 0.02241283 -0.06152776 0.16699633
0.012633117 -0.1648998 0.025642227 -0.16234879 -0.16626723 -0.032983072 -0.13048811 -0.02652358
-0.03732681 -0.07183367 -0.122641936 -0.21458603 0.12989064 -0.14992638 -0.15437537 0.024516413
-0.062388882 -0.106975295 0.028487256 -0.03107125 -0.1890011 -0.26282808 -0.07668288 -0.024486622
-0.113369316 0.69103914 2.1333852 -0.16114582 -0.3085671 -0.5698736 -0.21259616 -0.123248704
-0.07568094 -0.15853682 0.016715627 1.6931204 0.052718606 0.11725723 0.36218476 -0.1949267
-0.23736012 -0.6072651 -0.08724898 -0.46860853 -0.77999586 -1.0321398 -0.08090758 0.49983904
0.42979398 0.8043607 0.013491805 -0.034966264 -0.015038712 0.034489423 -0.78968036 -0.13716418
-0.08851538 0.096797936 0.43552825 0.17073171 -1.14301 -0.20479992 -0.13475592 -0.62134004
-0.06413755 0.011669423 -0.058553793 -1.2292175 0.1396831 0.12046123 -0.77887195 -0.28893343
-0.051410686 -6.3119793 -0.10711313 -2.1071293 -0.040643226 0.061859895 0.426532 0.05703123
0.11676896 0.2198372 0.033329576 -0.07602446 -0.029940406 -0.07570562 -4.1911697 0.01689998
00000000: 6739 0bc0 3383 963d f3e7 933d 54be 393e
00000010: e967 e63d 5520 3dbe 41f5 5ec0 797c 2dc0
00000020: 91b4 93c0 54c7 5bbe 5b03 103d 770b 5e3d
00000030: 82a8 ac3d 9882 963d cd0f 453e ae0a 6dbf
00000040: e481 5fbe b395 19c0 6127 de3c 384a 6bbe
00000050: e45b f9be 0344 95bf 0aee 5bbe e7cc b1b9
00000060: 83ea b1bc 102f 6a3e 1a3c 973e 5ac5 eabf
00000070: 2462 6abf 7913 d03e d200 e8bf cfa4 38be
00000080: ab18 f1bd b325 8a3e 3822 113f 73e2 f33d
00000090: e127 75bf 0b54 c83d e4d0 a8bd dabc b4be
000000a0: f769 873d b8b3 50be 0681 a13d 1ad3 be3e
000000b0: 6489 923e c900 1bbe 8079 e33d e513 cabf
000000c0: 5a42 e0bd 2b23 b8c0 749b 40be 5b08 f6bf
000000d0: fb61 3fc0 5ab3 dbbe 0c58 693e 6e41 603e
000000e0: c9cf 203e c097 093f 38eb a8bd 730a a63c
000000f0: 383a babd 4543 b9bc 5f8b 85c0 df09 a73e
00000100: 4307 5dbf 863c b3bc eb1c e43d b93f 42bd
00000110: 0bf4 cfbe 4ca5 ee3e 8a4d d8bf a624 47c0
00000120: 2ed1 b3be 2a12 843d 8cf0 73bd 83a7 603d
00000130: cf60 4ebd 1b6f 043d 8dc0 8cbe 3683 91bf
00000140: 8224 0abf c8de 8cc0 33d4 2fbf 8d37 03bf
00000150: 8cb6 06bf 7223 02c0 b829 6fbe 009b 273e
00000160: 6f10 b43d 5aa9 163e 9476 143d 2fe2 37be
00000170: 93ad f1bd 8977 bd3d 73dd 29c0 10ab c43d
00000180: ca5b f53d 0578 5f3e 3b2a cd3e 8df2 c7bd
00000190: de20 0cbf a99f 78c0 3bc5 163e 7fbf 48be
000001a0: e112 ca3d 9561 66be 8c55 f23c b5b1 4ac0
000001b0: 4d31 ee3d d245 6b3e 4cd0 0ebf 7e4a 9fc0
000001c0: b3c9 ae3d f6fc 4c3e 172e f23c 480d b1be
000001d0: 6e74 c1c0 dcc5 1ac1 b303 29bc eb19 973e
000001e0: ac25 953e 565f c8be a6f2 b03c 34e7 d0bd
000001f0: 26da 1b3e e6f9 043e 0e18 533e 1d87 7bbe
00000200: 7a5c f1bd aba1 f63d d2a1 c53d c5b3 2c3d
00000210: 467a 89bf 2186 28bf f6af e7bd 2597 55bf
00000220: 8702 43bd 9995 213a 993b d2bc de78 0dbf
00000230: 35c3 e1bb f303 093e 97f4 75be d624 f3bf
00000240: 1e5e 37bc 1fda eac0 ec31 9ebd 91e3 0bc0
00000250: 3d53 00c0 25bd 79c0 444d 89bd a4ad 113e
00000260: d87a 0e3e 5846 46bd f207 833d 238f 16be
00000270: a6ba ed3c a6ff 0bbd 62a6 b7c0 70e8 b8ba
00000280: c1e1 6abe 2933 9ebe bfc4 93bd 9efc 51be
00000290: 86eb cebd 1c9b b73c 8804 7cbd 1601 2b3e
000002a0: 22fb 4e3c 7edb 28be a60f d23c c33e 26be
000002b0: f541 2abe 4219 07bd ad9e 05be fb47 d9bc
000002c0: ffe3 18bd 881d 93bd b22b fbbd 71bc 5bbe
000002d0: 0d02 053e 4d86 19be 9414 1ebe a5d6 c83c
000002e0: 7c8b 7fbd dd15 dbbd 1b5e e93c 2289 febc
000002f0: 8189 41be 6791 86be ea0b 9dbd 2b98 c8bc
00000300: 2c2e e8bd f1e7 303f 6289 0840 6903 25be
00000310: 82fc 9dbe 3ce3 11bf cfb2 59be d169 fcbd
00000320: 9cfe 9abd 7a57 22be 36ef 883c 2bb8 d83f
00000330: 77ef 573d 8f24 f03d 4870 b93e dd9a 47be
00000340: 880e 73be ba75 1bbf 98af b2bd 75ed efbe
00000350: cfad 47bf 281d 84bf e0b2 a5bd e7ea ff3e
00000360: f50d dc3e 95ea 4d3f bb0c 5d3c c938 0fbd
00000370: ee64 76bc c844 0d3d 7e28 4abf c474 0cbe
00000380: 8d47 b5bd ff3d c63d 8ffd de3e 4bd4 2e3e
00000390: 274e 92bf 12b7 51be 75fd 09be 2410 1fbf
000003a0: 8c5a 83bd 1c31 3f3c 1ad6 6fbd 0057 9dbf
000003b0: 1609 0f3e 61b4 f63d 2764 47bf 15ef 93be
000003c0: 0394 52bd bcfb c9c0 215e dbbd 35db 06c0
000003d0: 8379 26bd cd60 7d3d 6762 da3e 9499 693d
000003e0: 9124 ef3d 011d 613e 9884 083d b6b2 9bbd
000003f0: 9545 f5bc 8c0b 9bbd 101e 86c0 d471 8a3c

post_mp.0.bias f4 [16]
2.741299 1.7239059 3.1798403 1.402147 2.8347955 -0.2874056 1.666339 2.7141247
0.50834763 2.4968076 3.0172637 1.588836 2.6153657 2.6332726 2.965897 2.8474233
00000000: 7171 2f40 f3a8 dc3f 8182 4b40 8e79 b33f
00000010: 4a6d 3540 d426 93be 994a d53f 38b4 2d40
00000020: 1223 023f b2cb 1f40 d91a 4140 fa5e cb3f
00000030: 2762 2740 8a87 2840 42d1 3d40 2f3c 3640

post_mp.3.weight f4 [2, 16]
1.0171167 0.70819825 0.8890701 -1.5080454 0.8387005 0.013975148 -0.65092766 0.56542283
0.20592807 0.86609167 0.6851891 0.671349 0.8871949 0.65296245 0.7771831 0.57550496
-0.7124296 -1.0321411 -0.55140173 1.4975679 -0.6966435 0.061416548 0.6131845 -0.5843489
-0.23897354 -0.9409622 -0.77374864 -0.6656394 -0.77614224 -0.8242426 -0.6444076 -0.6059965
00000000: e130 823f 7b4c 353f 199a 633f a207 c1bf
00000010: 13b5 563f 05f8 643c 32a3 26bf 8dbf 103f
00000020: cfde 523e 2fb8 5d3f 8e68 2f3f 87dd 2b3f
00000030: 341f 633f 8c28 273f 79f5 463f 4b54 133f
00000040: c961 36bf 331d 84bf aa28 0dbf 4eb0 bf3f
00000050: 3a57 32bf eb8f 7b3d a9f9 1c3f e497 15bf
00000060: 7bb5 74be e6e2 70bf 6414 46bf 5867 2abf
00000070: 42b1 46bf 9001 53bf e5f7 24bf 9622 1bbf

post_mp.3.bias f4 [2]
1.9987923 -1.7931675
00000000: 6dd8 ff3f 8386 e5bf
