src/saved_models/GNN/multi_GNN_offline_14.07.2021-21:18.pt (torch, 6743 bytes, 6 tensors)

convs.0.weight f4 [18, 32]
0	0x42dc5134	110.1586
1	0xbe804446	-0.25052088
2	0xc2dbaa88	-109.83307
3	0xc2ce6a9f	-103.208244
4	0xc2db77ae	-109.73375
5	0xc2dc00d2	-110.0016
6	0xc2dc4e9d	-110.15354
7	0xc2dc5544	-110.166534
8	0xc2db7437	-109.72698
9	0xc2db49df	-109.64428
10	0xc2dc6ef5	-110.21671
11	0xc2db3785	-109.60844
12	0xc2da6bd2	-109.21059
13	0xc2dc7478	-110.22748
14	0xc2dbfafe	-109.99022
15	0xc2db8332	-109.75624
16	0xc2db9192	-109.78432
17	0xc2dc8f28	-110.2796
18	0xc2d03105	-104.09574
19	0xc2db6b89	-109.71003
20	0xc2dc2667	-110.075005
21	0xc2dc72af	-110.22399
22	0xc2db93fc	-109.78903
23	0xbe7ccc0b	-0.24687211
24	0xc2db8a5b	-109.770226
25	0xc2dab305	-109.34965
26	0xc2db4731	-109.639046
27	0xc2dcb7af	-110.35876
28	0x42dd2816	110.57829
29	0xc2dbf7c7	-109.98394
30	0xc2dc0c8e	-110.02452
31	0xc2dc2f17	-110.09197
32	0xc2dbdcdb	-109.93136
33	0xc2dc0f50	-110.02991
34	0xc2dbaef2	-109.84169
35	0xc2db884c	-109.766205
36	0xc2dc522c	-110.16049
37	0xc2dc6893	-110.20425
38	0xc2db6f70	-109.71765
39	0xc2db7f8e	-109.74913
40	0xc2dba79a	-109.82735
41	0xc2db9393	-109.78823
42	0xc2dc123f	-110.03564
43	0xc2dc4045	-110.12553
44	0xc2db4301	-109.63087
45	0xc2dbd772	-109.92079
46	0xc2db3f7c	-109.62399
47	0xc2dc8068	-110.25079
48	0xc2dc196f	-110.049675
49	0xc2dc6b80	-110.20996
50	0x42cbccb9	101.89985
51	0xc2dc16e9	-110.04475
52	0xc2db7ec1	-109.74757
53	0xc2dcc392	-110.38197
54	0xc2dba082	-109.81349
55	0xc2db57ea	-109.67171
56	0xc2dc07b6	-110.01506
57	0xc2dc5aa8	-110.17706
58	0xc2db5ca7	-109.68096
59	0xc2dc0e72	-110.02821
60	0xc2db9c8d	-109.80576
61	0xc2dbbd92	-109.870255
62	0xc2dc51c8	-110.15973
63	0xc2db6d39	-109.713326
64	0xc2de2b62	-111.08473
65	0xc2db7f95	-109.74918
66	0xc2dbd795	-109.92106
67	0xc2db09c5	-109.51908
68	0xc2dc1aa7	-110.052055
69	0xc2dc715e	-110.22142
70	0xc2dca84b	-110.3287
71	0xc2dbacb7	-109.83733
72	0xc2db8802	-109.76564
73	0xc2dbf8b2	-109.98573
74	0xc2dbe836	-109.95354
75	0xc2dc5e92	-110.18471
76	0xc2db203d	-109.562965
77	0xc2dc3ab9	-110.11469
78	0xc2db7e9c	-109.747284
79	0xc2dcafea	-110.34358
80	0xc2dbf1b0	-109.972046
81	0xc2dbc6bc	-109.88815
82	0x42ca358f	101.10461
83	0xc2dc0b7c	-110.02243
84	0xc2dbd26e	-109.910995
85	0xc2dbd56e	-109.916855
86	0xc2dc40ac	-110.12631
87	0xc2dbb2c5	-109.84916
88	0xc2dc2c75	-110.08683
89	0xc2db0409	-109.50788
90	0xc2db47e1	-109.64039
91	0xc2dbf15d	-109.97141
92	0xc2db288f	-109.579216
93	0xc2db77df	-109.73412
94	0xc2dbdec8	-109.93512
95	0xc2dc4d8f	-110.15148
96	0xc2dba458	-109.820984
97	0xc2dc7370	-110.225464
98	0xc2dbdcf8	-109.93158
99	0xc2db708e	-109.71983
100	0xc2db5804	-109.671906
101	0xc2dc3b36	-110.11565
102	0xc2dc7de4	-110.24588
103	0xc2dc0288	-110.004944
104	0xc2db982f	-109.79723
105	0xc2db634c	-109.69394
106	0xc2dbe81d	-109.95335
107	0xc2dc74ca	-110.2281
108	0xc2dba33a	-109.8188
109	0xc2dbea41	-109.95753
110	0xc2db7d47	-109.74468
111	0xc2dbcbe0	-109.89819
112	0xc2dc4ce9	-110.150215
113	0xc2db864b	-109.76229
114	0x42c5f6d2	98.98207
115	0xc2dc624b	-110.19198
116	0xc2dc7abb	-110.23971
117	0xc2db8b28	-109.77179
118	0xc2db94cf	-109.79064
119	0xc2dc413c	-110.12741
120	0xc2dc8a55	-110.27018
121	0xc2dbfc13	-109.99233
122	0xc2dc6ffe	-110.218735
123	0xc2dcaae2	-110.333755
124	0xc2dc779f	-110.233635
125	0xc2dc7116	-110.22087
126	0xc2dc64a9	-110.1966
127	0xc2dbf798	-109.98358
128	0xc2dc4993	-110.1437
129	0xc2dc10f2	-110.0331
130	0xc2dbae00	-109.83984
131	0xc2db9682	-109.79396
132	0xc2dbe53a	-109.94771
133	0xc2dbc155	-109.8776
134	0xc2dc89eb	-110.26937
135	0xc2dc8df4	-110.27725
136	0xc2dc4407	-110.132866
137	0xc2dc3277	-110.098564
138	0xc2db9895	-109.79801
139	0xc2dbf546	-109.97905
140	0xc2dbc873	-109.8915
141	0xc2db9975	-109.79972
142	0xc2dc2879	-110.07905
143	0xc2dbf05a	-109.96944
144	0xc2dc327c	-110.0986
145	0xc2dc5d97	-110.18279
146	0x42c865e9	100.19904
147	0xc2db90f4	-109.78311
148	0xc2db6de8	-109.71466
149	0xc2dc7214	-110.22281
150	0xc2dc4a1f	-110.14477
151	0xc2dccd88	-110.40143
152	0xc2dc49ce	-110.14415
153	0xc2db3a5b	-109.613976
154	0xc2db687e	-109.70409
155	0xc2dbaf29	-109.84211
156	0x42c6ed08	99.46295
157	0xc2dbb386	-109.85063
158	0xc2dbee44	-109.96536
159	0xc2dbbaec	-109.86508
160	0xc2dc9d1e	-110.30687
161	0xc2dc89cd	-110.26914
162	0xc2dba15c	-109.815155
163	0xc2db1514	-109.54117
164	0xc2dba662	-109.82497
165	0xc2dc28d2	-110.07973
166	0xc2db85d0	-109.76135
167	0xc2dc8804	-110.265656
168	0xc2dba6a2	-109.825455
169	0xc2dc1f66	-110.061325
170	0xc2dc4f00	-110.1543
171	0xc2dc495b	-110.14327
172	0xc2db19a2	-109.550064
173	0xc2dbd10f	-109.90832
174	0xc2db27a5	-109.57743
175	0xc2dbd8dd	-109.92356
176	0xc2dc3d23	-110.11941
177	0xc2dbc11a	-109.87715
178	0x42cb6f49	101.717354
179	0xc2dc3477	-110.10247
180	0xc2dc350d	-110.103615
181	0xc2dc7124	-110.22098
182	0xc2dc5330	-110.162476
183	0xc2dba645	-109.824745
184	0xc2db3bf2	-109.61708
185	0xc2dc33d9	-110.101265
186	0xc2dc2cd3	-110.08755
187	0xc2dba679	-109.82514
188	0xc2d93cf8	-108.61908
189	0xc2db9c1c	-109.8049
190	0xc2dbcede	-109.90404
191	0xc2dba37e	-109.81932
192	0x42db3968	109.61212
193	0xbd34d1b5	-0.044145305
194	0xc2dc2d2c	-110.08823
195	0xc2dbf4c4	-109.97806
196	0xc2db78c5	-109.73588
197	0xc2dbc545	-109.88529
198	0xc2dc5e26	-110.18388
199	0xbe271ab0	-0.16318774
200	0xc2dc78db	-110.236046
201	0xc2dbbe25	-109.871376
202	0xc2dc89bf	-110.269035
203	0xc2dc44b5	-110.13419
204	0xc2dc29e7	-110.08184
205	0xc2dc3a8b	-110.11434
206	0xc2dbe5e4	-109.949005
207	0xc2dc3faf	-110.12438
208	0x3e9b2213	0.30299434
209	0xc2dc974d	-110.29551
210	0xc2d7d1bb	-107.90963
211	0xc2dc8cd6	-110.27507
212	0xc2db495e	-109.643295
213	0xc2dc684d	-110.20371
214	0xc2db6416	-109.69548
215	0x3dadb881	0.08482457
216	0xc2dba4a9	-109.8216
217	0xc2dc18b5	-110.048256
218	0xc2dbfc6f	-109.993034
219	0xc2dbff90	-109.999146
220	0x3e7a6c20	0.24455309
221	0xc2dc8d89	-110.276436
222	0xc2dc9cd6	-110.30632
223	0xc2dbd087	-109.90728
224	0x42dc1098	110.03241
225	0xc2dc7a43	-110.23879
226	0xc2db2dd9	-109.58955
227	0xc2db87f0	-109.7655
228	0xc2dc15a8	-110.0423
229	0xc2dbac46	-109.83647
230	0xc2dbb809	-109.85944
231	0xc2dc4e3b	-110.152794
232	0xc2dbb734	-109.85782
233	0xc2dba7ce	-109.82774
234	0xc2dc8504	-110.259796
235	0xc2db47ca	-109.64021
236	0xc2dbede4	-109.96463
237	0xc2dbfb06	-109.99028
238	0xc2db2784	-109.57718
239	0xc2dc2b41	-110.08448
240	0xc2dc5eae	-110.18492
241	0xc2dc0422	-110.00807
242	0xc2d7e7cf	-107.95275
243	0xc2dc733b	-110.22506
244	0xc2db2625	-109.5745
245	0xc2dcb366	-110.35039
246	0xc2dc0262	-110.004654
247	0xc2db4f99	-109.655464
248	0xc2dbaffa	-109.843704
249	0xc2db5906	-109.673874
250	0xc2db7062	-109.7195
251	0xc2db8580	-109.76074
252	0xbe8f8023	-0.28027448
253	0xc2dc10ff	-110.033195
254	0xc2dc830b	-110.25594
255	0xc2dbfc7d	-109.99314

convs.0.bias f4 [32]
0	0xc2de0344	-111.00638
1	0xc2dc101b	-110.031456
2	0xc2db6463	-109.69607
3	0xc2db14c7	-109.54058
4	0xc2dbdc38	-109.930115
5	0xc2dc09b1	-110.01893
6	0xc2dc0223	-110.00417
7	0xc2dbfa7b	-109.98922
8	0xc2dc2251	-110.067024
9	0xc2dbb664	-109.85623
10	0xc2dbd722	-109.92018
11	0xc2dbd3e6	-109.913864
12	0xc2db938f	-109.7882
13	0xc2dbcf27	-109.904594
14	0xc2dbba2c	-109.86362
15	0xc2dc2a53	-110.082664
16	0xc2dbdcd5	-109.93131
17	0xc2dbf1f8	-109.972595
18	0xc2b81d45	-92.05717
19	0xc2dbc668	-109.88751
20	0xc2dbba7e	-109.86424
21	0xc2dc1a4a	-110.051346
22	0xc2dbd5d4	-109.91763
23	0xc2dc7202	-110.22267
24	0xc2dbc197	-109.878105
25	0xc2dbad9c	-109.83908
26	0xc2dbb85f	-109.8601
27	0xc2dc07eb	-110.015465
28	0xc2ddf610	-110.98059
29	0xc2dbcf64	-109.90506
30	0xc2dbd815	-109.922035
31	0xc2dba73c	-109.82663

post_mp.0.weight f4 [16, 32]
0	0xc2dc51e0	-110.15991
1	0xc2dc1e47	-110.059135
2	0xc2dc3bf5	-110.1171
3	0xc2dc0e86	-110.028366
4	0xc2dc0efc	-110.02927
5	0xc2dbab0c	-109.834076
6	0xc2dc489c	-110.141815
7	0xc2dbe3a0	-109.94458
8	0xc2dc432a	-110.13118
9	0xc2dba408	-109.82037
10	0xc2dc0bc9	-110.02302
11	0xc2dc0fc7	-110.030815
12	0xc2dc352e	-110.10387
13	0xc2dbc308	-109.88092
14	0xc2dc11a4	-110.034454
15	0xc2db9704	-109.79495
16	0xc2dc3d80	-110.12012
17	0xc2db9b39	-109.80317
18	0xc2dbb849	-109.85993
19	0xc2dba712	-109.82631
20	0xc2dbf3d6	-109.97624
21	0xc2dbe74b	-109.951744
22	0xc2dbfe59	-109.99677
23	0xc2dbfee9	-109.99787
24	0xc2dbfdcc	-109.9957
25	0xc2dc1744	-110.04544
26	0xc2dbc4a2	-109.88405
27	0xc2dbc238	-109.87933
28	0x42de2c22	111.0862
29	0xc2dc0e63	-110.0281
30	0xc2dc241c	-110.070526
31	0xc2dbe8a6	-109.95439
32	0x42dbc14d	109.87754
33	0x42dbaf2f	109.842155
34	0xc2dbe6bb	-109.950645
35	0xc2dbb018	-109.84393
36	0xc2dbba0d	-109.86338
37	0x42dbf996	109.98747
38	0x42dc104d	110.03184
39	0x42dc2c6b	110.086754
40	0x42dc509b	110.15743
41	0xc2dbef50	-109.96741
42	0xc2dc3721	-110.10767
43	0xc2db80eb	-109.75179
44	0xc2dc2ee5	-110.09159
45	0xc2dba4ab	-109.82162
46	0xc2dc0682	-110.01271
47	0x42dc0be1	110.0232
48	0xc2dbfea4	-109.997345
49	0x42dba785	109.82719
50	0xc2d837ff	-108.10937
51	0xc2dbea80	-109.95801
52	0xc2dbe488	-109.94635
53	0xc2dbee72	-109.96571
54	0xc2dc278a	-110.077225
55	0x42dc52e2	110.16188
56	0xc2db7f39	-109.74848
57	0xc2dbb8d6	-109.86101
58	0xc2dbd160	-109.908936
59	0x42dbb4bd	109.853004
60	0xc2d78f7f	-107.780266
61	0xc2dbb969	-109.86213
62	0xc2dc33c7	-110.10113
63	0xc2dbcfc9	-109.90583
64	0x42dbab5e	109.8347
65	0x42dbcdc5	109.90189
66	0xc2db7d58	-109.74481
67	0xc2dbc26d	-109.87974
68	0xc2dc1954	-110.04947
69	0x42dbbe32	109.871475
70	0x42dc0475	110.008705
71	0x42dc09f6	110.019455
72	0x42dbd668	109.91876
73	0xc2dbd5cd	-109.91758
74	0xc2dbda98	-109.92694
75	0xc2dc0178	-110.00287
76	0xc2dba09f	-109.81371
77	0xc2dc28ee	-110.07994
78	0xc2db83a3	-109.7571
79	0x42dbadbe	109.83934
80	0xc2dc0a73	-110.02041
81	0x42dc3562	110.10426
82	0xc2d872cb	-108.224205
83	0xc2dba7c2	-109.82765
84	0xc2dc0845	-110.01615
85	0xc2dbedd8	-109.96454
86	0xc2dbed8c	-109.96396
87	0x42dbf0a3	109.96999
88	0xc2dbd3a5	-109.91337
89	0xc2dbf87b	-109.98531
90	0xc2db7bb1	-109.741585
91	0x42dbed8b	109.96395
92	0xc2d7c957	-107.89324
93	0xc2dbe41e	-109.94554
94	0xc2dbba47	-109.86382
95	0xc2db9106	-109.78325
96	0xc2dc11f3	-110.03506
97	0xc2dc1f28	-110.06085
98	0xc2dc2989	-110.08112
99	0xc2dc248f	-110.0714
100	0xc2dc3914	-110.11148
101	0xc2dbeabd	-109.95847
102	0xc2dbde4c	-109.93417
103	0xc2dba644	-109.82474
104	0xc2dba6f3	-109.82607
105	0xc2dbbd5d	-109.86985
106	0xc2dc4f2a	-110.15462
107	0xc2dbdb27	-109.92803
108	0xc2dc0d6c	-110.026215
109	0xc2dc3455	-110.10221
110	0xc2dbb484	-109.85257
111	0xc2dbcc96	-109.89958
112	0xc2dba4e4	-109.82205
113	0xc2dba76c	-109.826996
114	0xc2dbdc90	-109.930786
115	0xc2dc1e6a	-110.0594
116	0xc2dbd720	-109.920166
117	0xc2dc0a7e	-110.02049
118	0xc2dbf6f7	-109.98235
119	0xc2dc41d7	-110.12859
120	0xc2dc4446	-110.13335
121	0xc2dbea9d	-109.95823
122	0xc2dbf6f5	-109.98234
123	0xc2dc2d6e	-110.08873
124	0xc2dbcab8	-109.895935
125	0xc2dbf032	-109.96913
126	0xc2dc300f	-110.093864
127	0xc2dbc7dd	-109.89036
128	0x42dba5d3	109.823875
129	0x42dbc94b	109.89315
130	0xc2db80d5	-109.751625
131	0xc2db61d3	-109.69106
132	0xc2dc10cf	-110.03283
133	0x42dbe11a	109.93965
134	0x42dbca74	109.89542
135	0x42dbc2e2	109.88063
136	0x42dbd077	109.90716
137	0xc2dc2068	-110.06329
138	0xc2db977d	-109.795876
139	0xc2dbb4bb	-109.85299
140	0xc2db7c36	-109.7426
141	0xc2db938a	-109.78816
142	0xc2db7bfe	-109.74217
143	0x42dbb65d	109.85618
144	0xc2dbe5eb	-109.94906
145	0x42dbaffa	109.843704
146	0xc2d7ada4	-107.83914
147	0xc2db8958	-109.76825
148	0xc2dbdd60	-109.93237
149	0xc2dbafde	-109.84349
150	0xc2dbfe65	-109.996864
151	0x42dba5d1	109.82386
152	0xc2dc02d6	-110.00554
153	0xc2db8320	-109.7561
154	0xc2db90e7	-109.78301
155	0x42dbb019	109.84394
156	0xc2d81581	-108.042
157	0xc2dbebdc	-109.96066
158	0xc2dbce8c	-109.90341
159	0xc2dc1b6a	-110.05354
160	0x42dbcb99	109.89765
161	0x42dbf843	109.984886
162	0xc2dbdea3	-109.93484
163	0xc2db5d48	-109.68219
164	0xc2dbe209	-109.941475
165	0x42dbc345	109.881386
166	0x42dbb7da	109.859085
167	0x42dbb1f6	109.84758
168	0x42dc2607	110.07427
169	0xc2db8ce3	-109.77517
170	0xc2db9a22	-109.80104
171	0xc2dbe7df	-109.95287
172	0xc2dba964	-109.83084
173	0xc2dbf72d	-109.982765
174	0xc2dbfad5	-109.98991
175	0x42dbfb2f	109.99059
176	0xc2dbaf4a	-109.84236
177	0x42dbb34f	109.85021
178	0xc2d8f362	-108.47536
179	0xc2db91a4	-109.784454
180	0xc2dbe5e4	-109.949005
181	0xc2dbc380	-109.881836
182	0xc2dbb953	-109.86196
183	0x42db76f7	109.73235
184	0xc2dbc765	-109.88944
185	0xc2dc13dc	-110.03879
186	0xc2dc00a6	-110.00127
187	0x42dbd526	109.916306
188	0xc2d82515	-108.072426
189	0xc2dba700	-109.82617
190	0xc2db92db	-109.78683
191	0xc2db91ec	-109.785
192	0x42dc1c11	110.05482
193	0x42dc02f0	110.00574
194	0xc2dbce0f	-109.90246
195	0xc2dbc913	-109.89272
196	0xc2dbcbbf	-109.89794
197	0x42dbb0e2	109.845474
198	0x42dc0f0a	110.02937
199	0x42dbdd7d	109.932594
200	0x42dbbbdc	109.86691
201	0xc2dbd346	-109.91264
202	0xc2dbeabf	-109.95849
203	0xc2db965f	-109.79369
204	0xc2db92a9	-109.786446
205	0xc2dbabd3	-109.835594
206	0xc2dbc507	-109.88482
207	0x42dc2cb1	110.08729
208	0xc2dbd51d	-109.91624
209	0x42dbd89f	109.92309
210	0xc2d7c14a	-107.87752
211	0xc2dbad6b	-109.83871
212	0xc2db893c	-109.768036
213	0xc2dbe58e	-109.94835
214	0xc2dc2a1a	-110.08223
215	0x42db98d3	109.798485
216	0xc2dc14fd	-110.04099
217	0xc2db752c	-109.72885
218	0xc2db9e18	-109.80878
219	0x42dc212f	110.06481
220	0x42dbbff7	109.87493
221	0xc2dc307a	-110.09468
222	0xc2dc1491	-110.04017
223	0xc2dbd100	-109.9082
224	0x42dc0713	110.01382
225	0x42dbbacf	109.86486
226	0xc2db696b	-109.705894
227	0xc2db71e1	-109.72242
228	0xc2dba9f0	-109.83191
229	0x42dbf5e4	109.980255
230	0x42dbc31b	109.881065
231	0x42dbfbdf	109.991936
232	0x42dbb25e	109.84837
233	0xc2dbad94	-109.83902
234	0xc2dbfd91	-109.99525
235	0xc2dc13c4	-110.038605
236	0xc2dbbb03	-109.86526
237	0xc2dc35aa	-110.10481
238	0xc2db91b0	-109.784546
239	0x42dba8e7	109.82989
240	0xc2db9414	-109.789215
241	0x42db9bdf	109.804436
242	0xc2d45460	-106.164795
243	0xc2dc2888	-110.07916
244	0xc2db92a9	-109.786446
245	0xc2dbbc43	-109.8677
246	0xc2dbdf30	-109.93591
247	0x42dba74c	109.82675
248	0xc2db8ccf	-109.77502
249	0xc2db9c82	-109.80568
250	0xc2db96a5	-109.79423
251	0x42dbf3a8	109.97589
252	0xc2dafecc	-109.49765
253	0xc2dba581	-109.82325
254	0xc2dbb8f9	-109.861275
255	0xc2dbbe8a	-109.87215

post_mp.0.bias f4 [16]
0	0xc2dbbefc	-109.87302
1	0xc2dbfb70	-109.99109
2	0xc2dbef84	-109.967804
3	0xc2dbde17	-109.93377
4	0xc2dbe692	-109.95033
5	0xc2db9a41	-109.80128
6	0xc2dbd1e3	-109.909935
7	0xc2db7686	-109.73149
8	0xc2d2f5a3	-105.47976
9	0xc2dc1b75	-110.05363
10	0xc2dc1686	-110.04399
11	0xc2dc286b	-110.07894
12	0xc2dc250a	-110.07234
13	0xc2dbf8e3	-109.98611
14	0xc2c9f080	-100.96973
15	0xc2dbfb55	-109.99088

post_mp.3.weight f4 [2, 16]
0	0x42db8afe	109.77147
1	0xc2db9831	-109.79725
2	0xc2dbcea2	-109.90358
3	0x42dc2e71	110.090706
4	0xc2db7394	-109.72574
5	0xc2db7b2c	-109.74057
6	0xc2db9621	-109.79322
7	0xc2db25bf	-109.57372
8	0xc2db76e2	-109.73219
9	0x42db8574	109.76065
10	0xc2dc4fcd	-110.15586
11	0x42dbf016	109.96892
12	0x42dbef52	109.96742
13	0x42dbd3e7	109.91387
14	0xc2da8af4	-109.27139
15	0xc2db4dea	-109.652176
16	0xc2dbfd1a	-109.99434
17	0x42dbc225	109.87919
18	0x42db7bbf	109.74169
19	0xc2db9672	-109.79384
20	0x42dbcc81	109.89942
21	0x42db291c	109.58029
22	0x42db5bc1	109.67921
23	0x42db2c00	109.58594
24	0x42db94e0	109.79077
25	0xc2db735b	-109.7253
26	0x42db59db	109.6755
27	0xc2dbbff5	-109.874916
28	0xc2dbf20f	-109.97277
29	0xc2dbba42	-109.863785
30	0x42da7e3d	109.24656
31	0x42dc2ab4	110.083405

post_mp.3.bias f4 [2]
0	0x40917f0d	4.546759
1	0xc09396c4	-4.612154
