src/saved_models/GNN/multi_GNN_offline_15.07.2021-15:06.pt (torch, 6679 bytes, 6 tensors)

convs.0.weight f4 [18, 32]
000000 58 31 54 3f 25 24 24 3f 4c 5d 30 3f e8 8c 95 be
       0.8288779 0.6411765 0.6889236 -0.29209065
000010 02 7a 6c 3f de 0c 5b 3f 32 52 4c 3f dc 72 86 be
       0.9237367 0.8556651 0.7981292 -0.26259506
000020 10 bb 86 3f c6 e5 07 bf 16 83 ae 3f fa 67 7f 3f
       1.0525837 -0.5308498 1.3633754 0.9976803
000030 97 87 20 bf 6a 6d c8 3f 02 8c c6 bf c6 eb 7a 3f
       -0.62706894 1.565839 -1.5511477 0.9801601
000040 0d 38 c5 3d 0a 7d 46 be b3 e9 8c 3f 5f 77 4f 3f
       0.096298315 -0.19383636 1.1008819 0.8104152
000050 47 a2 b3 3d 42 67 08 3f e1 50 27 3e 35 67 3c 3f
       0.08771186 0.5328256 0.16339447 0.7359498
000060 69 66 67 be a2 e9 b8 be 40 53 0b 3f 19 cc da 3e
       -0.2259766 -0.36115748 0.54423904 0.4273384
000070 9c c1 80 3f dc 37 e1 3d 11 e0 97 3f 7c 27 71 3f
       1.0059085 0.109969825 1.1865255 0.94200873
000080 53 e1 a9 3c dd 72 6e be ff 9f 02 3f 58 ce bb be
       0.020737326 -0.23286004 0.51025385 -0.36680865
000090 1e 84 66 3d a1 94 b2 bd af cb 03 3d 69 69 bb bf
       0.05627834 -0.08719755 0.03217667 -1.4641544
0000a0 ff a3 6d be 80 fe 66 3a 04 8c 80 be a9 2a 23 be
       -0.23207091 0.0008811727 -0.25106823 -0.15934242
0000b0 2c a3 03 c0 d0 3d 1c 3e 8d 43 91 bf 59 87 68 be
       -2.0568342 0.15257955 -1.134874 -0.22707881
0000c0 89 25 25 3e 90 77 ed 3e a3 94 4e 3e ee 1a 01 be
       0.161276 0.4638028 0.20173888 -0.12607929
0000d0 86 5c c3 bc 36 f9 dc 3d 21 ef 61 3e 7d ca 83 3e
       -0.02384783 0.10789721 0.22063877 0.25740424
0000e0 88 f5 84 3e c4 b8 95 be 19 2b 6f 3d 3d f9 d4 3d
       0.25968575 -0.29242527 0.05839071 0.10399101
0000f0 ba 01 45 be 84 89 4d bc 24 bb bc be 58 21 6b 3e
       -0.1923894 -0.012544993 -0.36861527 0.22961938
000100 49 12 1a be 14 e4 6c bc 1f 5a 90 be e9 e0 84 bd
       -0.15046038 -0.014458675 -0.28193757 -0.06488211
000110 fd df 9c be a0 19 e5 3d d5 30 78 bc 49 11 ad bf
       -0.3063964 0.11186528 -0.015148361 -1.35209
000120 3a 9b 29 3e 80 53 17 3f 85 e4 b0 be 0b 08 f7 bd
       0.1656312 0.59111786 -0.34549347 -0.12062081
000130 0f b2 02 c0 4a 70 47 bc ec fb a9 bf 5e a7 89 be
       -2.0421178 -0.012172768 -1.3280005 -0.26885504
000140 4f bb a3 be 31 0c c7 3b 5b 51 37 3e 28 84 83 3d
       -0.31978843 0.0060744514 0.17902128 0.06421691
000150 d0 45 8c bd 8e 36 e9 bd 81 46 e0 3d e0 c1 54 3c
       -0.06849253 -0.113873586 0.109509476 0.0129856765
000160 13 82 6d 3e f0 f4 1e be 47 ef 56 3d 70 3a 61 bd
       0.2319415 -0.15523124 0.052474286 -0.05498737
000170 12 2d 98 be 1c f1 94 bb 7f 1b ce be e9 8a fa 3c
       -0.29721886 -0.004545344 -0.40255353 0.030583816
000180 70 19 e4 be b0 3d 52 3e e8 71 be bf d3 47 14 bf
       -0.44550657 0.20531344 -1.4878511 -0.57922095
000190 07 ec df bd 7f d2 88 be 94 d7 be bf 8d ec 43 3d
       -0.109336905 -0.26723096 -1.4909539 0.047833014
0001a0 ee 93 a7 3e 07 77 5d be 74 03 92 3d 1c fb 1f 3e
       0.3273005 -0.21627437 0.07129565 0.15623134
0001b0 62 1b 67 3e 9b f1 0c be 80 40 e7 3d 84 92 75 3e
       0.2256904 -0.1376404 0.11291599 0.23981673
0001c0 a4 f9 94 3b 79 bc 99 be 89 c3 a0 be 80 0e db be
       0.004546361 -0.30026606 -0.3139918 -0.427845
0001d0 43 c2 64 be 4b 0c d9 be 15 dc 72 be 60 c4 62 be
       -0.2233973 -0.4239219 -0.23716767 -0.22145224
0001e0 7f 0d 46 bf 6d c2 90 be 2b 52 21 bf 9c 0b 4e bf
       -0.77364343 -0.28273335 -0.63016003 -0.80486465
0001f0 54 6a ac be 14 88 ee be b2 e7 2a 3e d1 b2 39 bf
       -0.33674872 -0.46588194 0.16689947 -0.7253848
000200 bf f0 f9 bd dc 86 e6 3b a8 f3 9f bf 19 fa cb bc
       -0.12204122 0.0070351195 -1.2496233 -0.02489953
000210 77 7f 85 be 14 8a 07 3e 0c c7 1e 3e f5 a3 9b bd
       -0.2607381 0.13236266 0.15505618 -0.07599632
000220 9f 03 80 be 1f 6e a4 be ca 26 1b be 0a a9 8f be
       -0.25002763 -0.32115266 -0.15151516 -0.28058654
000230 59 a6 21 bf f5 4e d1 3d c0 9a 94 3a 46 8f 1a 3e
       -0.6314445 0.10220138 0.0011337623 0.15093717
000240 da 84 32 3e 70 35 e4 3d ad 7a 3c 3e d5 8f b3 be
       0.17433491 0.11143005 0.18406172 -0.35070673
000250 54 1c 4e 3d e9 b1 41 3d 85 77 0c 3d 5d 02 99 3d
       0.050319985 0.04728881 0.03429367 0.07471154
000260 15 15 3e bd c9 3b 02 3e c5 e9 2e 3e 20 e4 6b 3e
       -0.046406824 0.12718119 0.17081363 0.23036242
000270 7c 2d cb 3b 5a 6f b8 3d b8 4f 81 be d3 7d 94 be
       0.0062004905 0.090056136 -0.25256133 -0.29002246
000280 69 88 bd 3e 28 87 75 bd ad 48 7b 3e 0d 72 ed be
       0.37018135 -0.05994335 0.24539442 -0.46376076
000290 a1 94 f4 3c a3 a4 03 be 40 55 9f 3e 42 aa c2 be
       0.029856028 -0.12855773 0.31119728 -0.3802052
0002a0 58 8c f9 bd 5e d7 3f bf 50 26 67 bd 1b ef b9 bd
       -0.121849716 -0.74938 -0.056433022 -0.09078809
0002b0 db ad 27 bf 44 e2 42 3d 9c 16 7c be a3 1d 5e be
       -0.6549966 0.047579065 -0.24618 -0.21690993
0002c0 1a 25 41 bd 2e 15 03 bf f9 40 6c bc 7e 16 4f bd
       -0.047154523 -0.5120419 -0.014419788 -0.05055856
0002d0 9c 6f 9f be 5d 2a 3e be 66 bb 38 3e 2f aa d4 be
       -0.3113984 -0.18570848 0.18040237 -0.4153609
0002e0 33 92 4b 3e b1 6d a9 be 1a 98 88 3e f9 ea b3 3e
       0.1987999 -0.330915 0.26678544 0.35140207
0002f0 46 af cc be 3f 45 cd 3e 5f f3 3b 3d 2d 67 4f bf
       -0.39977473 0.40091893 0.045886394 -0.8101681
000300 71 bb 4a be 71 a6 8b 3d 22 c0 c6 be 71 7e 95 be
       -0.19798066 0.068188556 -0.3881846 -0.2919803
000310 d4 5b d0 3e b7 30 4b 3e b1 7e b6 be c7 43 0b be
       0.4069506 0.19842802 -0.35643533 -0.13600074
000320 93 24 df 3e 97 41 ca bd e3 a6 cc 3e b5 0f c7 3e
       0.4358259 -0.098757915 0.39971074 0.3887917
000330 93 42 12 bd ea 83 6f bf db 70 92 bd 8d e1 4a 3f
       -0.03570802 -0.9356066 -0.07150432 0.79250413
000340 61 dc 3a 3d 06 9b 83 b9 f1 06 9a bf cb c4 98 3e
       0.045620326 -0.0002510177 -1.2033368 0.2983764
000350 25 de 5a be 06 c4 89 bd 65 c0 56 bf 45 a4 0b 3e
       -0.21373804 -0.06726842 -0.8388732 0.13636883
000360 83 1f 29 be 2d b4 ba be e6 3c 27 bf 16 cb 87 be
       -0.16515927 -0.36465588 -0.653273 -0.2652213
000370 23 35 59 3c 9a c9 f5 be 61 3d 0e 3f 3d 17 21 bc
       0.013257298 -0.48005372 0.55562407 -0.009832201
000380 29 36 33 bd e3 b1 37 3d ab 07 8a 3f b2 62 eb bc
       -0.043752823 0.04484738 1.078359 -0.028733585
000390 57 c5 57 be 3b 7f 0b bd 2e 76 41 3f ae 9e 8a bf
       -0.21071373 -0.034056883 0.7557095 -1.0829675
0003a0 25 12 ab 3d 48 15 a1 3e 30 47 90 be 12 3a 1f 3e
       0.0835307 0.3146155 -0.28179312 0.15549496
0003b0 43 b2 38 bf 0e 95 48 bf 00 0c a3 be 26 14 8f 3c
       -0.72147006 -0.7835244 -0.31845093 0.017465662
0003c0 dd f7 06 be 14 ee a7 3e 96 0b 8d bf 2e c9 1d be
       -0.1318049 0.32798827 -1.1019161 -0.15408775
0003d0 12 fc 98 bd 30 11 61 3e 26 38 0b bf 07 f7 12 be
       -0.074699536 0.21979213 -0.5438255 -0.14352046
0003e0 c8 c9 08 3f 7b 7f 71 be 8c 8b d1 bd c2 be 09 3e
       0.53432894 -0.23583786 -0.102316946 0.13451675
0003f0 4b 71 5d 3e 2c ae 49 bd 24 79 15 bd f5 57 ed 3e
       0.21625249 -0.04923837 -0.03649248 0.46356168

convs.0.bias f4 [32]
000000 30 18 07 40 3d 20 05 bf 4f dd 21 3f ea 93 4a 3e
       2.1108513 -0.52002317 0.63228315 0.19782987
000010 e3 06 b2 3f e4 fa 01 40 45 a2 16 3f e8 6a 8e 3f
       1.3908352 2.0309381 0.58841354 1.1126375
000020 4d 38 7d 3f 88 83 bd 3d 58 89 23 40 df 9b f3 3f
       0.98914033 0.09253603 2.5552578 1.9031943
000030 26 3e 8b 3f 96 8a e2 3f 12 3d 04 3f b8 59 a5 3e
       1.0878341 1.7698543 0.51655686 0.32295012
000040 e5 b0 2b 3f 89 96 3d bd 69 cb 7d 3f 69 05 c6 3f
       0.67066795 -0.04628614 0.99138504 1.5470401
000050 66 09 2d bd 9d 9f cc 3f 66 97 fe 3f 91 96 7a 3f
       -0.04224529 1.598621 1.9889953 0.97885996
000060 f7 e0 14 3f b8 a9 f1 be 71 34 f6 3e 98 4c 0a 3f
       0.5815577 -0.47199798 0.48086885 0.5402312
000070 c3 7d 79 3f 3f 3d 87 3f 63 ea d8 3e aa c5 b4 3f
       0.9745752 1.0565566 0.42366323 1.4122822

post_mp.0.weight f4 [16, 32]
000000 1e ff 40 bf ed e4 ca 3d 62 7f f5 3c ad 75 dd bd
       -0.7538928 0.099069454 0.029967967 -0.108134605
000010 0b 64 8b 3d 40 63 93 be 5f 76 15 3d 90 61 84 bd
       0.06806191 -0.2878666 0.03648984 -0.06463921
000020 3a 14 00 3e 60 e1 9c be eb 79 95 bd 30 74 ad 3d
       0.12507716 -0.30640697 -0.07298645 0.08469427
000030 93 f0 20 be 78 37 12 bf 11 38 b0 ba ec 5f 0a 3e
       -0.15716772 -0.5711589 -0.0013444443 0.13513154
000040 30 7f 0f be 8e 76 84 be c2 4a 80 3e 1d d6 98 3d
       -0.14013362 -0.258717 0.25057036 0.07462714
000050 54 db 88 3d 20 80 26 bf 50 cd 09 bf f5 5b d6 bb
       0.066824585 -0.65039253 -0.53828907 -0.006541724
000060 71 d9 66 bc 85 71 7b bd d5 02 ff bb 92 38 0d 3f
       -0.014089928 -0.061387558 -0.00778232 0.55164444
000070 1c 87 86 3c 5e 93 e4 be 32 cc 3d 3e bf b2 45 bf
       0.016421847 -0.44643682 0.18534926 -0.7722587
000080 4f 4c ea 3d ad 8e a3 3e c3 a7 2c c0 21 d4 86 bf
       0.11440336 0.3194479 -2.6977394 -1.0533487
000090 ac 29 5f bd 8c 9a 85 3d 1f 90 b5 bf c0 15 6b 3e
       -0.0544831 0.06523618 -1.4184607 0.22957516
0000a0 87 da 02 3e 0f 97 7e 3e 59 fa 8a bd d9 43 e6 bb
       0.12778674 0.24862312 -0.06786031 -0.007027131
0000b0 d8 0a 08 3f 72 7c b2 bb d8 f8 92 3d d9 51 73 3d
       0.53141546 -0.005446964 0.071763694 0.059404228
0000c0 5c 6d ca bc 64 b8 8a 3e e7 eb 55 3d 69 de ec 39
       -0.02471035 0.27093804 0.052226927 0.00045179136
0000d0 9f 49 35 3c 18 fb 63 be da d0 28 be 23 fe 97 be
       0.011064916 -0.22263753 -0.1648592 -0.29686078
0000e0 06 bb a9 3d 4b 05 27 be 28 0b dc be fc 57 61 be
       0.08287625 -0.16310613 -0.42977262 -0.2200622
0000f0 23 4f 25 be 80 24 dd bd ab 69 eb 3d b0 a1 f7 be
       -0.1614347 -0.107979774 0.11494764 -0.48365545
000100 0f 77 80 bb 39 93 cb bd 42 c9 23 3d 3c 14 e4 3d
       -0.003920443 -0.0994019 0.039986856 0.11136672
000110 f9 67 45 be b3 70 a2 bd d5 a3 fd bd 95 e0 f6 bc
       -0.19277944 -0.07931652 -0.12384764 -0.030136386
000120 63 99 b6 bd b4 e4 0b be 00 29 26 be ef a6 aa bd
       -0.08915975 -0.13661462 -0.16226578 -0.08332621
000130 ce d3 3b be ff 5b 63 bd 38 a8 d7 3d 9d de 80 be
       -0.18342516 -0.055507656 0.10530132 -0.2516984
000140 89 f2 67 be 62 02 c5 3d 5a 68 03 be 6d b0 4e bd
       -0.22651114 0.09619595 -0.12832776 -0.05046122
000150 cf 16 da bc a7 be 11 bd ea b2 46 be 36 4a 1a bd
       -0.026622204 -0.03558221 -0.19404188 -0.03766843
000160 98 7c a8 3b 64 d6 37 bc 24 9a 9a 3d 3b b1 63 be
       0.005141806 -0.011220548 0.07548931 -0.22235577
000170 53 16 06 be 28 09 01 bd 69 a0 b6 bd 4f 73 03 be
       -0.13094454 -0.031502873 -0.089173146 -0.12836955
000180 4f 86 c1 bd 62 ca c5 3e f3 bb bc bd d0 d2 10 be
       -0.094494455 0.38630968 -0.09215536 -0.14142919
000190 82 66 dc 3c af 18 9b be 4e f8 6b bb b6 f1 c8 bd
       0.026904348 -0.3029227 -0.0036006155 -0.09811728
0001a0 21 20 34 3e 65 03 f5 be 10 37 15 3c d4 7a 8d bd
       0.17590381 -0.47854152 0.009107366 -0.06908193
0001b0 d6 b0 3c be 1e be d7 3c 68 98 77 3d 31 2e e4 be
       -0.18426833 0.026335772 0.06044808 -0.4456649
0001c0 e7 1b 0c be a9 dd 67 3e 3c e4 cd bd 70 10 e7 bd
       -0.13682519 0.2264315 -0.10053298 -0.11282432
0001d0 05 5c 01 be 19 82 24 bd bf 6a 38 bd 0d ec 69 be
       -0.12632759 -0.040163133 -0.045023676 -0.22843952
0001e0 59 dd a2 be 46 8e 14 bd 7e 06 93 be a1 3d 10 3e
       -0.318095 -0.036268495 -0.2871589 0.1408601
0001f0 ed f4 a1 3c e3 16 d1 3d e0 8c b4 3d e7 1c 9e bd
       0.01977011 0.102094434 0.08815932 -0.077203564
000200 84 15 64 be 11 69 0d bd 60 0c 58 c0 9f 37 de be
       -0.22273833 -0.034524027 -3.3757553 -0.4340181
000210 63 c1 3b be c3 9d a8 3d 1e 1a 69 c0 3e 4e 3d 3f
       -0.1833549 0.08233216 -3.642219 0.73947513
000220 90 71 1a bd cf f0 fe bd ba 13 88 3d 06 d8 3a 3e
       -0.037705958 -0.12448274 0.066443875 0.18246469
000230 17 07 cc 3f 76 d3 8f be 15 ce a2 3e 5f 71 40 3d
       1.5939664 -0.2809102 0.31797853 0.04698312
000240 72 6b 1c c0 8b 2d 04 be 0e 7e 78 bf 54 68 1d 3e
       -2.444058 -0.12907998 -0.97067344 0.1537183
000250 a0 3e 83 3d 94 b6 e3 3e 24 e5 ab be 0f 35 04 3e
       0.06408429 0.44475234 -0.33573258 0.12910865
000260 6d 1c 8a c0 cd f8 f4 bc 28 d5 12 be 46 b4 bc bf
       -4.31597 -0.029903794 -0.14339125 -1.4742515
000270 5f 37 c2 3d 4d e2 39 bf 27 9a e4 3c f0 06 9d 3f
       0.094832174 -0.7261093 0.027905537 1.2267742
000280 5c 5c 7a be 51 ca ee 3d 6f c5 69 c0 8e db b7 be
       -0.24449295 0.116596825 -3.6526754 -0.35909694
000290 ec ca 36 bd 06 67 b3 be 91 72 83 c0 8e e6 04 3f
       -0.044627115 -0.35039538 -4.107735 0.519143
0002a0 d9 6f ff 3d ae 66 13 bf 0e 74 2e 3c b8 26 5b 3d
       0.12472505 -0.5757855 0.010647787 0.053503722
0002b0 58 ce ad 3f 38 93 47 be a8 96 93 3d 0a 5a 31 3e
       1.3578596 -0.19489753 0.0720647 0.17319503
0002c0 ac e3 90 3d 61 bd 3a be 22 f9 b5 bd 6a 8b 32 be
       0.07074675 -0.18236305 -0.08885409 -0.17435995
0002d0 85 58 90 bd b4 59 8a be 2b 9e db 3d f4 39 5a be
       -0.07048134 -0.27021563 0.107235275 -0.2131117
0002e0 ac c4 be bf c0 4b 57 3e 7c b7 1a bf bf 8f e2 be
       -1.490377 0.2102499 -0.60436225 -0.44250295
0002f0 7d 6b fc 3b 4a 26 3e bd c6 0a 0f 3e 02 db 33 3d
       0.0077032433 -0.046423234 0.13968953 0.043910034
000300 7b cd 91 3c 5d fa b5 3e 3f e6 7e c0 f0 ec 26 bf
       0.017798176 0.35542575 -3.982803 -0.6520529
000310 bc 4f fe bc b0 e4 26 be f2 61 52 c0 fc 46 e8 3e
       -0.03104388 -0.16298175 -3.287228 0.45366657
000320 6a e1 d6 bc 4b 8a 6f bc 08 08 e6 3d c8 53 ef bd
       -0.026230533 -0.014620374 0.112320006 -0.11685902
000330 24 a7 60 3f 02 89 6b bd 0b 52 b3 3d 47 37 cf 3d
       0.87755036 -0.057503708 0.08755883 0.10117965
000340 64 97 50 3d 69 76 c5 3d 4c e3 59 3d 40 04 95 be
       0.050925627 0.096417256 0.053195283 -0.29104805
000350 78 53 be 3d 64 bf 3f be 2a b8 e6 bb c6 c9 43 be
       0.09293264 -0.18725353 -0.007040997 -0.19119939
000360 37 d5 20 bf 3e 22 56 bd 5e f6 8f be 4f e1 a4 be
       -0.6282534 -0.05227875 -0.2811765 -0.32203147
000370 54 01 4f 3e 37 07 ec bd 2b 8b 69 3e 3a f9 56 be
       0.2021535 -0.115248136 0.22806995 -0.2099351
000380 cb 6e 2c bf 30 b2 7d 3c 9c 84 9f bf 6a e0 df bd
       -0.67356557 0.015484378 -1.2462344 -0.109314755
000390 45 e2 8d bd 0c 69 4e bf 6d 2e 19 c0 b3 cc 05 bf
       -0.06927923 -0.8062904 -2.3934586 -0.5226547
0003a0 5d a1 8f 3c 7c 21 d7 be af f2 4e be 3d 84 e7 3d
       0.017532999 -0.42017734 -0.20209764 0.11304519
0003b0 51 5c 42 be d5 a4 91 be 08 42 00 bf 21 28 b4 3d
       -0.18980528 -0.2844607 -0.50100756 0.087967165
0003c0 7c 2d 08 be 0f 48 7d be b7 2e 8e bf 07 5a 0e bf
       -0.13298601 -0.2473452 -1.1108006 -0.5560612
0003d0 57 5a 16 3d f2 f6 6e bf 7f 30 74 3d fc 05 ea bd
       0.03670725 -0.9334556 0.059616562 -0.11426923
0003e0 65 97 09 c0 fe 48 6c bd 83 34 89 be 53 1a 32 c0
       -2.1498654 -0.0576868 -0.26797876 -2.7828567
0003f0 b6 89 e4 be 07 bf a9 be 7a a1 16 3e 2f 47 20 bf
       -0.44636315 -0.33153555 0.14710036 -0.6260862

post_mp.0.bias f4 [16]
000000 e8 80 42 c0 ee de 2c 40 ad 3a 62 be f6 21 ff bc
       -3.0391178 2.7011065 -0.22092696 -0.031144124
000010 02 6f 41 40 79 47 33 40 12 a2 2e 40 f9 ba 47 40
       3.0224004 2.8012373 2.728642 3.120787
000020 3f 05 50 3f 1e 84 45 3f c0 1d 52 bf 67 41 2c 40
       0.81258005 0.7715472 -0.82076645 2.6914918
000030 2a d9 47 40 fd 86 60 40 bb 97 37 40 62 e3 54 40
       3.1226296 3.508239 2.868636 3.3263783

post_mp.3.weight f4 [2, 16]
000000 60 84 a0 3f 6c e5 9f be 9b d1 3f bd b8 f1 01 bf
       1.2540398 -0.31229722 -0.046830755 -0.5075946
000010 f0 60 06 bf ed 06 6c be 57 a9 ad be 51 86 03 bf
       -0.52491665 -0.23049517 -0.3391826 -0.51376826
000020 67 7d c7 be 5e 6f 91 be 67 82 fd bd 9f 50 d7 be
       -0.38962862 -0.2840528 -0.12378388 -0.42053697
000030 f5 c5 aa be 9f bc 44 bf 89 f4 f6 be 97 44 96 bf
       -0.33354154 -0.7685031 -0.4823344 -1.1739682
000040 2a 14 a2 bf 09 0d e0 3e a7 56 92 bc 48 46 1f 3f
       -1.2662404 0.43759945 -0.017863585 0.62216616
000050 fa d0 20 3f b1 39 fc 3e 0a 71 a1 3e 80 68 cd 3e
       0.6281887 0.49262765 0.31531554 0.4011879
000060 38 a6 03 3e ee 24 82 3e b2 ae 99 bd f4 bd 81 3e
       0.12856376 0.254188 -0.075040236 0.25340235
000070 76 52 43 3f c7 3d 5a 3f a8 ac f2 3e 75 0c a4 3f
       0.762977 0.85250515 0.4739735 1.2816302

post_mp.3.bias f4 [2]
000000 24 49 dc bf 46 67 ec 3f
       -1.7209821 1.8469017
