src/saved_models/GNN/multi_GNN_offline_14.07.2021-22:29.pt (torch, 6743 bytes, 6 tensors)

convs.0.weight f4 [18, 32]
000000 76 c2 65 c0 52 39 c0 3e 9b 44 b9 3e 1e 98 56 3f
       -3.589994 0.37543732 0.36185154 0.8382586
000010 5c 2a 68 3f f2 4e cb be 8f fe 36 3f 81 cf 6b 3f
       0.90689635 -0.39708668 0.71482176 0.921135
000020 b0 a5 56 3f a8 c9 7b 3d 8c 23 d0 3e 9e 29 14 3d
       0.8384657 0.06147161 0.4065212 0.0361725
000030 d8 8a 83 bd ff 8e 78 bc 7a 2c f0 bd 8e 40 0d 3f
       -0.06422967 -0.015170812 -0.11727233 0.5517663
000040 27 b6 82 3f c8 67 04 bd 6f cc 00 3e c1 22 68 be
       1.0211838 -0.032325536 0.12577985 -0.22669508
000050 82 e3 32 3f 64 bb a3 3f ff 36 88 3e c9 4d a8 3e
       0.698784 1.2791562 0.2660446 0.32871845
000060 69 ba d3 3e 5e 41 14 bf 91 be 95 3e 00 cc 36 3f
       0.41353157 -0.5791224 0.29246953 0.7140503
000070 f7 8e 94 3e 45 b4 80 bf 2f 0e 1a 3f 5b 57 fb 3f
       0.29015324 -1.0055014 0.6017789 1.9636034
000080 54 98 82 bf bf 6e 88 bd f1 34 b7 be 8f 91 29 3e
       -1.0202737 -0.06661748 -0.3578258 0.16559432
000090 25 ab bd be 56 11 c6 bc 89 7d bd be 7e 3c bc bd
       -0.37044635 -0.024178188 -0.37009838 -0.091912255
0000a0 ba 57 96 be 8d 40 bc be 50 39 07 3f 24 9b 12 3e
       -0.29363805 -0.36767998 0.52821827 0.14316994
0000b0 6b cd 25 bf 7e a1 cd 3e 94 10 8a 3e 45 1f e0 bd
       -0.6476657 0.4016227 0.26965773 -0.10943464
0000c0 b7 b4 bf 3d 29 7c 59 3d ed e9 c1 3d f1 2a fd 3d
       0.093606405 0.053096924 0.09468446 0.12361706
0000d0 a9 96 48 3e 80 21 0c 3f c3 85 91 be f6 da eb bc
       0.19588722 0.54738617 -0.28422365 -0.028790932
0000e0 83 c1 8e 3e 24 e0 90 3e b1 02 c6 be 21 68 15 3e
       0.27882013 0.28296006 -0.38673928 0.14590503
0000f0 ae 62 89 be 5c 5e 8d bf 55 13 66 be 60 87 07 be
       -0.268331 -1.1044421 -0.22468312 -0.13235235
000100 56 2a cd be 81 d1 ba 3e 00 e5 3c be 56 5d eb bd
       -0.40071362 0.36487964 -0.18446732 -0.11492412
000110 ee 6e ed 3d 67 f0 a6 be 49 22 c3 bc 81 a4 3e be
       0.11593424 -0.32605287 -0.02382006 -0.18617441
000120 20 ab 57 be ea 7f 36 3c 72 54 0e 3e 99 e8 61 be
       -0.21061373 0.0111388955 0.13899401 -0.22061385
000130 8a da 7e be 64 ee dd bd 31 3f c7 be 03 81 e4 be
       -0.24888054 -0.10836485 -0.389154 -0.44629678
000140 17 ec 63 3e 6c 2d e9 3d d2 68 49 be 30 40 b7 3d
       0.2225803 0.11385617 -0.19668892 0.0894779
000150 5f 55 ff 3e 97 e5 f1 bd 2f c7 7b bd 08 cb a4 be
       0.4986982 -0.11811369 -0.061469253 -0.3218615
000160 a5 49 bd 3e 61 80 a3 3e 17 cf 7d 3d f2 f0 21 be
       0.3697025 0.31933883 0.061965074 -0.1581457
000170 99 62 3f 3e f4 5b 1f bf 3b bc e4 bc 18 1e 37 3e
       0.18689956 -0.62249684 -0.027921787 0.17882574
000180 6d c0 03 3e 82 2d 03 3d 5f 81 8f be c4 52 2b 3e
       0.12866373 0.03202582 -0.2802839 0.16730791
000190 59 5d f3 bc 7f 96 61 bc f3 ad 90 3e 28 48 1b 3e
       -0.029707598 -0.013768791 0.28257713 0.15164244
0001a0 cf 9b 9b 3d f2 45 92 3e 9e 5e 99 be 6f 2f 24 3c
       0.075980775 0.2856899 -0.29955 0.010021075
0001b0 02 05 4e 3e 24 09 12 3f e1 e0 b6 3b 68 78 c5 3d
       0.20119098 0.570452 0.005581007 0.09642106
0001c0 75 f2 bb 3d 3e d7 aa bd 79 ee 4f bc 6d 38 ae be
       0.091771044 -0.083418354 -0.012691134 -0.34027424
0001d0 6b 32 d3 3d 34 30 41 bf 88 73 2e be 1c 01 56 bd
       0.10312351 -0.7546418 -0.17036259 -0.05224715
0001e0 47 e2 04 bf 6d e5 6e 3d ab e9 16 bd 43 fd 72 be
       -0.5190777 0.058324266 -0.036843937 -0.23729424
0001f0 59 8b 23 3e 58 5b 1a be 59 ac 11 3e c1 bf 10 bd
       0.15971126 -0.15073907 0.14225902 -0.03533912
000200 b5 71 93 3d a6 85 be be 23 2f 31 3e 93 d6 c4 3d
       0.07199422 -0.3721134 0.17303137 0.09611239
000210 93 3f 38 bd 3b 3a 26 be a3 9e 2d 3e 1c 14 a0 be
       -0.044982504 -0.1623315 0.16955046 -0.31265342
000220 38 b6 d2 bd 3c 06 16 3e 45 62 04 bd b1 9d 7b 3e
       -0.10288662 0.14650816 -0.03232028 0.24571873
000230 08 70 10 be ee 80 d2 bc 23 63 94 3e 37 7f b6 3c
       -0.14105237 -0.025696244 0.28981885 0.022277458
000240 61 ea 93 be 1f ac e4 bd 96 99 5d be 9e aa 73 3e
       -0.28889754 -0.11165642 -0.2164062 0.23795554
000250 7e 72 a0 be 6e cc 86 bd 47 0e 25 be 7d b5 a6 be
       -0.3133735 -0.065819606 -0.16118728 -0.3256034
000260 05 bb 44 3e fd 78 3b 3e 14 77 ce bd eb 51 b1 be
       0.19211967 0.18307872 -0.10081306 -0.3463281
000270 f7 ab 57 3d 6b 88 ad 3c c9 ce 42 bd d6 77 2d be
       0.052654233 0.021183213 -0.047560487 -0.16940245
000280 67 f9 ed bd 33 eb aa be 09 1b 01 3e 50 30 aa be
       -0.11619835 -0.33382568 0.1260797 -0.33239985
000290 05 08 1d bd 98 a2 fd bd 24 13 04 bf e3 3b 9d 3d
       -0.038337726 -0.12384528 -0.51591706 0.07677438
0002a0 b8 e2 bf 3c 8d bc 97 3d d4 bb 15 be bd 14 28 be
       0.023423538 0.0740901 -0.14622432 -0.16414161
0002b0 d5 34 b2 3d 8d a4 14 be 8a ba 73 be 0c 94 0e be
       0.08701483 -0.14515896 -0.23801628 -0.13923663
0002c0 2b 95 30 3d 8c 5f 3d 3e 70 19 8a 3e f3 5a ad 3d
       0.043111008 0.1849348 0.26972532 0.08464613
0002d0 34 90 c1 be 8a 8b d8 be 94 8f c1 bd 2e a4 bc 3d
       -0.3780533 -0.4229396 -0.094512135 0.09211002
0002e0 41 d4 24 3e 50 9d b6 3d e2 76 04 3c c6 b6 11 3e
       0.16096593 0.08916724 0.0080849845 0.14229879
0002f0 c9 f1 28 be da 5a 3c be b9 7d 17 bd 5c b4 28 3d
       -0.16498484 -0.18394032 -0.036985133 0.04118763
000300 c4 d0 0f 3f 19 e1 0d 3f 49 5c b3 3d fb 88 35 3f
       0.56177926 0.55421597 0.08757836 0.7091214
000310 e8 87 e9 3e f0 2e a7 3d 79 30 8a 3e 89 f8 3e 3e
       0.456115 0.081632495 0.26990107 0.18649496
000320 69 e1 b4 3e d2 6b df 3d 78 df ee be 95 9a ce 3d
       0.35328224 0.10909237 -0.46654868 0.10088078
000330 f9 5a 0f 3f 5e 36 be 3e 95 ed 56 3e da 7a 1c 3f
       0.5599819 0.37150854 0.20989068 0.61124957
000340 70 ec 6d 3e 7b 6b 9f bf bb c1 20 3e be 89 c2 be
       0.23234725 -1.2454675 0.15698902 -0.37995714
000350 ed 16 b2 3e a7 9b ac bd df b8 a7 3e 1e 48 8d 3e
       0.34783116 -0.08428126 0.32758233 0.27594084
000360 a0 59 57 bf 61 0b 7a be c7 92 45 be be 93 f3 3e
       -0.8412113 -0.24418403 -0.19294272 0.47573656
000370 e0 6e 3f 3f e4 eb 06 bf 2e 5e 46 3f 7d c1 f5 bf
       0.74778557 -0.5270369 0.77487457 -1.9199673
000380 60 02 d1 bd 55 12 5f 3e c9 2f e4 bd bc c5 01 be
       -0.10205531 0.21784337 -0.11141927 -0.12673086
000390 3c ce 83 3e 79 aa 9c 3d 32 a6 cb 3e b0 3a 05 3f
       0.25743282 0.076497026 0.39775234 0.52042675
0003a0 da fb 80 3e f1 93 b2 3e bb ae 34 be 7f a0 6b 3d
       0.25192147 0.34878495 -0.1764478 0.057526108
0003b0 a2 93 81 3e 45 9a 8d 3c a1 99 c5 3e cc d7 ad 3e
       0.25307947 0.017285476 0.38593772 0.33953702
0003c0 0c b6 98 3e 9f 48 19 bf 64 89 87 bd fe 80 82 3d
       0.2982639 -0.59876436 -0.06618002 0.063722596
0003d0 f5 be 03 3e 71 36 a8 3f 54 4a 73 3e 9a d9 a0 3e
       0.12865813 1.3141614 0.23758823 0.31416017
0003e0 be a1 f9 be 20 bb cb bd 5c e7 49 3b 05 94 57 3d
       -0.48756212 -0.09947801 0.0030808067 0.052631397
0003f0 ce 18 9c 3d 30 17 28 bf de 22 38 be 34 2c 52 bf
       0.076219186 -0.6566038 -0.17982051 -0.820987

convs.0.bias f4 [32]
000000 2f 20 82 3f 07 ec e2 3f 8f 2d 12 40 a9 c3 fb 3f
       1.0166072 1.772828 2.2840307 1.9669086
000010 ec 43 a7 3f 19 99 a7 3f d7 71 b8 3f 86 e7 f8 3f
       1.3067603 1.3093597 1.4409741 1.9445655
000020 be d0 0e 40 2c 4b 61 bc 6e db 2a c0 0a 51 94 c0
       2.2314906 -0.0137508325 -2.669643 -4.6348925
000030 28 0e 0c 3f af 70 64 bf 90 a9 98 c0 c2 1e 9b 3f
       0.547091 -0.8923444 -4.7706985 1.2118762
000040 b4 0c 81 3f c2 bf c1 3f c5 e7 97 c0 dd d7 b0 3f
       1.0082002 1.5136645 -4.747042 1.3815876
000050 97 78 7e 3f 4f 76 2b 3f 83 26 f0 3f 42 ee bb 3f
       0.99402755 0.669774 1.8761753 1.4682086
000060 0a af 46 3f ac ba 1c c0 85 6d 0c 40 4f 27 d8 3f
       0.7761084 -2.4488935 2.1941845 1.6886996
000070 9c 09 23 3e 13 5e 41 3f 76 46 af 3f da b3 a7 3f
       0.15921634 0.7553417 1.3693378 1.3101761

post_mp.0.weight f4 [16, 32]
000000 39 62 aa 3e 93 9d 40 3e 5c bb 1d be 5d bb 2b 3d
       0.33278063 0.1881011 -0.15403503 0.04192673
000010 a9 f9 5f 3e e7 b4 0d 3e c8 58 24 3d 44 bc 90 3d
       0.21872582 0.1383854 0.04012373 0.07067159
000020 36 41 d0 3d 76 27 dd 3e bd 6c 8e 3d 6c c1 22 3d
       0.10168688 0.4319417 0.06954334 0.039735243
000030 ec a1 2f 3e df 8b 4f 3e e5 76 c5 be a6 c4 28 3e
       0.17151612 0.202682 -0.38567272 0.16481265
000040 59 70 b1 3e 0e f0 4a bf f9 f6 55 be a5 50 04 bf
       0.34656027 -0.79272544 -0.20894994 -0.51685554
000050 3b ec 62 3d 4b fd b7 bf 67 cc d5 be 26 e0 a4 3c
       0.05540107 -1.4374174 -0.4175751 0.020126414
000060 e0 c3 c4 bf 8f d2 90 bd 1d bc 61 bf 53 e9 95 3b
       -1.5372276 -0.07071411 -0.88177663 0.0045749336
000070 45 9d ff 3d 5b dc 79 ba 05 65 42 3e 21 69 08 bf
       0.12481169 -0.0009531432 0.18983848 -0.53285414
000080 38 ec 29 be ac 3a 83 be 5c ef 5c be 2a 11 87 be
       -0.16594017 -0.256307 -0.21575683 -0.26380283
000090 23 99 ed bc fe e6 5f be a9 62 63 be 0b fb 93 be
       -0.029003685 -0.2186546 -0.22205605 -0.28902468
0000a0 73 e1 26 bd 1d c1 41 bd b9 bc 8a bc 63 71 34 bd
       -0.04074235 -0.047303308 -0.016935693 -0.044053447
0000b0 11 ac 28 3d e1 44 9a bd 63 11 a5 bd b5 a7 58 be
       0.04117972 -0.07532669 -0.08059957 -0.21157725
0000c0 93 7a 1e be 3d 1c fe 3c 8e 30 4a be e3 cf 25 be
       -0.15476446 0.031019324 -0.19745085 -0.16192584
0000d0 a6 7b d6 bd b9 c8 95 bc 39 40 73 bd ef f4 47 3d
       -0.10472803 -0.018284189 -0.05938742 0.04881757
0000e0 6d 21 d7 bd a3 cc 78 be 2b 7b 9b 3d bf 7e 2a be
       -0.10504422 -0.24296813 0.07591852 -0.16649912
0000f0 73 83 72 be 0a 2f 46 bd 5c 06 25 3d 27 9b 6e be
       -0.23682956 -0.048384704 0.040289268 -0.23301373
000100 b4 1d cf 3e 4c b1 90 3d be f3 bb be 76 3e d5 3e
       0.4045235 0.07065067 -0.36709398 0.41649216
000110 3e 2b 7b 3e 9b 22 88 bd 38 da ac 3c aa b0 56 3e
       0.24528214 -0.066472255 0.021100149 0.2096583
000120 0d 8e 79 3e 08 ff c9 be 63 fa 3d bc 41 3f 8a be
       0.24370594 -0.39452386 -0.011595341 -0.27001384
000130 7a 99 3c be b4 e8 d9 be 76 bf f9 be 76 76 2b bc
       -0.18417922 -0.4256035 -0.48778886 -0.010465255
000140 fd e4 97 3e 2a cf 02 c0 00 a7 07 bf 5e 02 69 bf
       0.29666892 -2.0438943 -0.52989197 -0.9101924
000150 67 aa c2 bc 87 01 2f c0 d8 7a 70 be c7 d6 3e 3e
       -0.023762895 -2.7344682 -0.23484361 0.18636619
000160 7e df a3 bb 54 be 48 3e f2 28 f2 bf af 2f ba 3d
       -0.0050010076 0.19603854 -1.8918746 0.09091126
000170 89 62 b5 bd 6f 63 12 be 74 83 8f 3e 1f 08 9c bf
       -0.08856685 -0.14295743 0.28029978 -1.2189978
000180 af 98 f8 3e e1 1a 55 3d 23 0a f2 be 88 bf 94 3c
       0.48553988 0.052027587 -0.4727336 0.018157735
000190 3d 0d 43 3e f1 6f 82 3e 4a 20 18 3e 0b 38 ea bb
       0.19048019 0.2547603 0.14856067 -0.007147794
0001a0 78 88 3d be c2 83 08 3f 5c 44 8b bd c9 87 39 be
       -0.1850909 0.53326046 -0.06800148 -0.18118204
0001b0 9c d9 b8 3e 02 ab a7 3e 93 e8 9e be 35 6e 73 3d
       0.36103523 0.32747656 -0.31036815 0.059431273
0001c0 4e c0 8f 3e 95 56 db be 7d 6d a8 be c1 0b cd be
       0.28076404 -0.42839494 -0.32896033 -0.4004803
0001d0 82 bb c7 bb 18 27 ca bf 65 17 b8 be 59 33 ed bb
       -0.0060953507 -1.579318 -0.3595535 -0.007238787
0001e0 b0 6b 56 bf 6a df e2 3d e8 c0 6f bf d1 1f 8d bc
       -0.8375807 0.11077769 -0.93653727 -0.017227085
0001f0 ef db 5f 3e 29 b9 84 bd 68 cd e3 3d f2 b1 69 be
       0.21861242 -0.06480629 0.111231625 -0.22821787
000200 db ab 97 3e 96 36 41 3d 5f de 85 be 37 f9 25 3e
       0.29623303 0.047171198 -0.26146218 0.16208349
000210 1d 4c 37 bc 88 0e 5f 3e 68 c0 80 3e 07 39 68 3e
       -0.01118758 0.21782887 0.25146794 0.22678004
000220 c8 82 9a 3d 9b c0 c9 be 73 1d e2 bd ad ad 3c bd
       0.07544476 -0.3940476 -0.11040773 -0.046064068
000230 80 ad 10 3e eb 62 5c bd 9f b8 ba be 93 44 bd 3d
       0.14128685 -0.053805273 -0.3646898 0.09241595
000240 7c dd 52 3e 8c 5a ab bf 2e ec 5a be f8 66 31 bf
       0.20592302 -1.3387008 -0.21379158 -0.6929774
000250 a5 c2 be 3c 94 12 3f c0 73 cf ea bd 7e 1c 81 bc
       0.023286173 -2.985509 -0.11465349 -0.015760656
000260 0d d5 1e be 5f f6 cf bd fb 5d ae bf 91 2c ab 3d
       -0.1551096 -0.101544134 -1.362243 0.0835811
000270 81 4f 14 3e c1 74 8d be 24 4b 85 3c 1a 2a 51 bf
       0.14483453 -0.2762814 0.016271181 -0.81704867
000280 44 94 8e 3e f2 94 96 3e f8 18 89 be aa 53 07 3e
       0.27847493 0.2941051 -0.26776862 0.13215509
000290 cf 6b 8b 3d 81 16 a5 3d 92 d3 0b 3d c3 65 39 3e
       0.06807672 0.08060933 0.034137316 0.18105225
0002a0 cb 59 0c 3d d2 c1 df 3e 73 1b 92 3d e8 0d 37 bd
       0.03426532 0.4370256 0.07134142 -0.044690996
0002b0 ec 74 9d 3e 88 cb 91 3e 84 58 98 be ba da 23 3e
       0.30753267 0.28475595 -0.29755032 0.16001406
0002c0 bf a2 88 3e 94 90 80 bf cd 27 f2 bd 32 38 81 be
       0.26686665 -1.0044122 -0.11823998 -0.25238186
0002d0 4c ac 07 be b6 28 ee bf 40 c3 c4 be 04 4c 59 3e
       -0.1324932 -1.8606174 -0.38430214 0.21220404
0002e0 8a 8e c5 bd e0 6d a5 3d 7a c4 2b bf db 30 3b 3e
       -0.09646328 0.080775976 -0.67096674 0.18280356
0002f0 a9 10 33 bd 14 d2 b6 be 90 97 f2 3c 05 f9 fe be
       -0.04371706 -0.35707152 0.029613286 -0.49799362
000300 11 ef 8e 3e 75 60 9b 3e 69 ea 63 be 3d fd cc bc
       0.27916768 0.30347028 -0.22257389 -0.025023097
000310 ff 60 7a 3d 92 da 6c 3e 86 de 0d bc be b7 0b bb
       0.06112766 0.23130253 -0.008659011 -0.0021319236
000320 95 8b 84 ba a3 32 01 3f b0 ed ae 3d b5 e6 ac bd
       -0.00101124 0.5046789 0.08541429 -0.084424414
000330 2e 51 0a 3f c6 4f 61 3e 95 b5 af be ef 43 1d bd
       0.5403012 0.22003087 -0.34318224 -0.038394865
000340 99 5b 97 3e 2a ed 35 bf 22 a5 e5 bd 9f e9 8a be
       0.2956207 -0.7106501 -0.11213137 -0.27131364
000350 6f 43 c8 be 93 c4 e5 bf fe ef 0c be 01 e0 00 3e
       -0.39113948 -1.7950615 -0.13763425 0.1258545
000360 85 46 36 bf ce e5 e3 3d 30 b9 3e bf 17 76 78 3e
       -0.71201354 0.11127816 -0.74501324 0.24263798
000370 96 d1 3c 3e f1 71 6e be 21 ff 24 3e 79 99 96 be
       0.18439326 -0.23285653 0.16112949 -0.29413965
000380 01 4a c0 3d fc c7 7c bd 12 4c 63 bd 72 66 90 3e
       0.09389115 -0.061714157 -0.05549247 0.2820316
000390 9f c8 df 3d cb a8 b1 3c 6c a6 4c 3e e0 8d ca 3d
       0.10926937 0.021686932 0.1998536 0.09890342
0003a0 42 be 8f 3e fc 75 a9 bf 12 da 50 bf 7d 66 9c bf
       0.28074843 -1.3239131 -0.8158275 -1.2218777
0003b0 78 5e 1e be 3f 62 df bd 3c f8 8c bf 10 0e a5 3c
       -0.15465724 -0.10907411 -1.1013255 0.020148307
0003c0 97 1e f4 bc 0d f9 f7 bf 36 29 9e bf 47 b8 0d c0
       -0.029799743 -1.9372879 -1.2356327 -2.2143724
0003d0 12 97 06 be 07 cc 20 c0 43 f5 72 be f2 29 67 3e
       -0.13143566 -2.5124528 -0.23726372 0.22574595
0003e0 5f c3 4a 3e 49 c6 98 be 48 b4 c6 bf 2e 10 b6 bd
       0.1980109 -0.2983878 -1.5523767 -0.08889805
0003f0 36 8d 15 3e 4e a4 97 be 54 57 93 3c 90 f7 f5 be
       0.14604649 -0.29617542 0.017985977 -0.48040438

post_mp.0.bias f4 [16]
000000 16 3d 40 40 e0 d5 50 be 01 78 4b 40 a6 6b 3d 40
       3.0037284 -0.20394087 3.1791995 2.9596953
000010 79 cd 47 40 db f8 32 40 3e 09 2e 40 b4 0a 31 40
       3.121916 2.796439 2.719314 2.7662783
000020 12 b9 13 40 c7 2d d0 3f 55 7d da 3f e3 0f 71 3e
       2.3081708 1.626397 1.7069498 0.23541217
000030 11 5b 3f 40 3b 94 9a be cb e4 0c 3e 03 8d 0e 3f
       2.9899333 -0.30191216 0.13759153 0.55683917

post_mp.3.weight f4 [2, 16]
000000 b1 c3 07 3f 24 8b de bc 82 91 d6 3e 9d 03 e3 3c
       0.53032976 -0.027165957 0.4190789 0.027711684
000010 d9 15 58 3e 59 5a 33 3e dc b6 35 3d fe 2d 04 3f
       0.21102084 0.17514934 0.04436384 0.5163268
000020 8d c3 68 3f bd 63 a7 bf 41 ed bd bf 8a 34 66 be
       0.90923387 -1.3077313 -1.4838029 -0.2248098
000030 99 4b 49 3e 42 c1 c5 3d b2 da d3 be 62 42 f1 3e
       0.19657744 0.096560016 -0.4137779 0.4712096
000040 a1 33 3f bd f4 18 a2 3c 91 a9 88 be a8 09 f4 be
       -0.046680097 0.01978729 -0.2669187 -0.47663617
000050 40 79 ea be a1 c6 c7 be 77 1c ed be 0e a4 1f bf
       -0.4579563 -0.3901873 -0.4631078 -0.623597
000060 2e 2a 0f bf 9c 56 8e 3f 4b 76 c2 3f 8d 4f b0 3e
       -0.55923736 1.1120181 1.519235 0.34435692
000070 d6 e4 d9 be 49 58 78 3d 59 25 c2 3e a4 18 83 be
       -0.425574 0.06063107 0.3791912 -0.25604737

post_mp.3.bias f4 [2]
000000 8a b2 5a 40 4e 9c 58 c0
       3.4171472 -3.38454
