src/saved_models/GNN/multi_GNN_offline_15.07.2021-15:57.pt (torch, 7141 bytes, 6 tensors)

convs.0.weight f4 [18, 32]
000000 94 da da 3e 61 19 77 3e 7a 0c 09 bd 3f fd 03 bf
       0.42744887 0.24130775 -0.033459164 -0.515583
000010 30 9e 8f 3e 67 a9 8b 3e 5b c6 82 3f 5d 33 bc 3e
       0.28050375 0.2727768 1.0216783 0.36757937
000020 14 9a 44 3f e6 4b c1 3e 85 d8 ff 3e 6c 29 81 3f
       0.76797605 0.37753218 0.4996988 1.0090766
000030 13 2e 48 3f d9 3b 3f 3f eb 14 69 3f e0 19 e7 3e
       0.78195304 0.74700695 0.91047543 0.4513693
000040 61 05 cb 3e e5 f1 5d 3f e1 84 08 3e 86 b3 a5 3f
       0.3965254 0.86697227 0.1333194 1.2945411
000050 1c bd 34 3f 85 08 ab 3f bc d1 1c 3f b7 45 0d 3f
       0.7060106 1.3361975 0.6125753 0.551845
000060 fd e2 9f 3e 9c e4 25 3f 60 00 7f 3e 33 d6 6d 3f
       0.31227866 0.64801955 0.24902487 0.9290497
000070 88 cd fa 3e 1e 5a 93 3e b4 31 54 3f 4f 35 d4 3e
       0.48984933 0.2877969 0.8288834 0.4144692
000080 ed 39 9d be dd 94 13 3f 9b 32 5c 3f 78 98 e9 bd
       -0.30708256 0.5764902 0.8601472 -0.11406034
000090 f7 64 ef bd 4e 9f 02 3e a8 05 f5 3d af dc c8 bd
       -0.116891794 0.12756082 0.119639695 -0.09807717
0000a0 f1 7b 82 be b1 33 f4 3e e6 c6 96 be d4 70 61 be
       -0.25485185 0.47695687 -0.29448622 -0.22015697
0000b0 e4 aa 85 3d f0 a3 cf bd a4 1b d4 be de af f7 be
       0.065267354 -0.101386905 -0.41427338 -0.48376364
0000c0 fe 74 2f bf c1 88 4f be 70 f7 03 3f f0 ae 64 bc
       -0.6853789 -0.20267011 0.51549435 -0.013957724
0000d0 6a 21 84 be ad 9c b4 3e 98 54 ef be de 1c 4d bd
       -0.25806743 0.35275784 -0.46744227 -0.050076358
0000e0 23 b0 c6 be 73 69 c7 be 98 d7 0a bf b2 ad be be
       -0.38806257 -0.3894764 -0.5423522 -0.37241894
0000f0 34 0b 09 3e 0e 1f d2 be d3 b1 78 bd e9 61 86 be
       0.1338318 -0.41039318 -0.06071646 -0.26246575
000100 4b 0a 4b be c4 30 f1 3e ee 7e 2a 3f cf b4 4d be
       -0.19828145 0.47107518 0.6659993 -0.20088504
000110 7e 40 8e 3e ae ef 85 be 22 ed 44 3e 91 a2 3c bd
       0.2778358 -0.26159424 0.19231084 -0.046053473
000120 94 cf 1b bf 2e 19 0c 3f 76 66 2b 3e d9 5a c6 bd
       -0.60863614 0.5472592 0.16738304 -0.096852966
000130 00 6a 54 be ec 48 3c be 16 d7 e2 3d ab e7 79 be
       -0.20743561 -0.18387192 0.11076181 -0.2440478
000140 7f bb 65 bf 01 e8 7d be 0c d9 0d 3f 4f 95 aa 3e
       -0.8973922 -0.24795534 0.5540931 0.33317038
000150 de 3e 1c 3d fd 3b 99 3e 51 b4 5e be 1e 02 1e 3d
       0.038145892 0.2992858 -0.21748473 0.038576238
000160 f9 1b 05 bd 48 74 da be e0 b5 86 bf 88 d9 a7 bd
       -0.03249738 -0.4266684 -1.0524254 -0.08195788
000170 fc 64 3d 3e 32 c7 11 bf 47 bb af bc 58 10 27 3e
       0.18495554 -0.5694457 -0.021451605 0.16314828
000180 35 79 e7 3e 3a bf 87 be 6f b9 88 be 1c 24 a7 bd
       0.4520966 -0.26513082 -0.26703975 -0.08161184
000190 40 ba 08 bd e8 b7 e3 be 2d 0b 81 3d 15 c4 87 3e
       -0.033380747 -0.44476247 0.0630096 0.26516786
0001a0 7a c5 80 3d cd ce 17 bf 8d fc 0b 3e a5 f4 8d be
       0.06287666 -0.5929993 0.13670559 -0.2772571
0001b0 c4 84 7c 3d 1b e1 13 be 7a ba 08 3b 34 67 d6 be
       0.061650053 -0.1444134 0.0020863102 -0.41875613
0001c0 8b 46 3c 3e 36 be 3d be 9b d7 ca be 71 3e d0 bf
       0.18386285 -0.18529591 -0.3961762 -1.6269056
0001d0 d1 4b 1d 3c 51 2d b6 be 23 9b 2c 3e 47 44 11 3e
       0.009600596 -0.3558145 0.16856055 0.14186202
0001e0 11 c4 66 3e 43 af 09 3e 8d 40 79 3e 9f 71 9c 3c
       0.22535731 0.13445763 0.2434103 0.019097148
0001f0 90 e1 92 be 3c 65 88 3e 9e a1 b5 3e d9 db 7b 3e
       -0.28687716 0.26639736 0.35474867 0.24595584
000200 16 47 87 3e dc 09 9d be fa 67 0f bf 9e 19 51 bd
       0.26421422 -0.30671585 -0.5601803 -0.05104982
000210 a2 3a 41 3e 8b 55 c5 bc 05 33 7d be 36 d8 19 3e
       0.18870023 -0.024088642 -0.24726494 0.15023884
000220 aa 24 7b 3e b6 1f ab be 41 82 81 be ff c8 3a be
       0.24525705 -0.3342263 -0.25294688 -0.18240736
000230 0c 08 9c be ab b5 85 3e 95 ed 95 3e 9e 09 5e 3d
       -0.3047489 0.26115164 0.29282823 0.05420839
000240 87 53 fb 3e 84 5b 27 be 03 af 2d 3e 92 ad e5 3e
       0.49087164 -0.16343504 0.16961293 0.44858986
000250 9a 3b 70 3e c2 cf 16 bd 50 9c fe bc 5c 4d 91 be
       0.23460236 -0.036819227 -0.031080395 -0.28379333
000260 fa ba 98 bd 8c 9e 48 be 77 89 02 3f 99 7b 1d 3e
       -0.07457538 -0.19591731 0.50991005 0.1537918
000270 9b 8a 0f 3e 51 04 c3 3d 1e dc 49 bd bd 06 95 3d
       0.14017718 0.09522308 -0.049282186 0.07276676
000280 8d 30 fd bd ed e7 20 be ea 0e c7 be 3d a2 de 3d
       -0.12362776 -0.15713473 -0.38878566 0.10870788
000290 f4 64 03 be d9 81 ac 3e 4d 8c 88 be 6b 31 8f be
       -0.1283148 0.33692816 -0.2666954 -0.2796739
0002a0 6f 3c fc bd 15 7b c0 be c7 74 44 3d b2 02 b0 be
       -0.12316214 -0.37593904 0.04796293 -0.34377056
0002b0 6c 27 7e 3e 47 3c 50 3e a7 99 e6 3c ac c9 5c 3e
       0.24819726 0.20335494 0.028149439 0.21561307
0002c0 3e 35 16 3f 48 b5 d1 3c f5 a0 d5 bd a6 de df 3e
       0.5867499 0.025599137 -0.10431091 0.43724555
0002d0 f8 d9 9d be b6 8b 31 be cf 99 ea 3d fe 91 2d 3e
       -0.3083036 -0.17338452 0.11455118 0.16950223
0002e0 58 af ad 3d 2e bc dd bc 2a 77 b9 3e 70 5e 49 3e
       0.0848071 -0.02706727 0.36223727 0.19664931
0002f0 84 8b 0a 3d 56 1e e3 3e a5 10 a3 be db 62 24 be
       0.03382446 0.44359082 -0.31848636 -0.16053335
000300 01 a9 c4 bd 58 e1 31 be ca f2 3e 3c 60 15 ab 3e
       -0.096025474 -0.17371118 0.011654565 0.33414745
000310 d6 bf c2 3e d8 11 c4 be 2e c5 fd 3e 4e 60 18 3e
       0.38036984 -0.38294864 0.495645 0.14880487
000320 83 27 79 3d 01 c0 0d 3e 03 38 20 3e 9e 6b 79 be
       0.060828697 0.13842775 0.15646367 -0.24357459
000330 11 02 43 3e 9b 1b b1 3e 3b 12 96 bf cd 3b d6 3d
       0.19043757 0.34591374 -1.1724313 0.10460625
000340 f3 f3 47 be 95 90 d1 3e 2e 53 c9 be 93 9d 67 be
       -0.19526653 0.4093062 -0.39321274 -0.22618704
000350 56 04 29 3e 33 d1 b4 3e a7 3d 98 3e 3b ca 76 3d
       0.1650556 0.35315856 0.29734537 0.060251456
000360 39 7b 94 bb 63 f4 e4 3e aa 2c c2 3e ef 06 9e 3e
       -0.004531291 0.44717702 0.379247 0.30864665
000370 44 b1 7a 3e 76 cd 2a be 8d fe 4f 3e 05 30 b5 3e
       0.24481684 -0.1667994 0.20311947 0.35388198
000380 85 e2 7d 3d ba c6 9b be e4 c2 92 3d 0d 9e 5f 3d
       0.061983604 -0.30425054 0.07166079 0.05459409
000390 80 40 44 be 56 58 82 bd 51 7b c9 bd 5d 02 42 3e
       -0.1916523 -0.06364505 -0.09837974 0.18946214
0003a0 b4 47 24 be 7b 9a 34 3e 32 a3 a6 be e1 9e 0d bf
       -0.16042978 0.17637055 -0.32546383 -0.55320555
0003b0 ba 74 80 be 4c 8c ff 3c a6 e6 29 bf d6 07 59 3d
       -0.25089055 0.031194828 -0.66367567 0.05298599
0003c0 9c f5 fe bd 12 92 a8 bd a5 c9 b4 be 2f 91 e7 3d
       -0.1244919 -0.08230986 -0.35310093 0.113069884
0003d0 08 06 a3 3d a2 d9 8a be c7 8d ff bd db 8a 58 3e
       0.07960135 -0.27119166 -0.12478214 0.21146719
0003e0 53 12 26 be 52 4c 36 bc 41 cb 90 bd c5 47 51 3b
       -0.16217928 -0.011126595 -0.070700176 0.0031933647
0003f0 9f da 7c be 32 85 99 be 6b aa b2 bc 34 02 08 be
       -0.24692772 -0.29984432 -0.021809777 -0.1328209

convs.0.bias f4 [32]
000000 3b 63 d4 3e e4 db e4 3f 4d 1d bc be 8b a2 45 3f
       0.41481957 1.7879605 -0.36741105 0.77201146
000010 73 60 44 3f 04 f8 04 40 d8 46 0d 3e 93 66 f4 3f
       0.7670967 2.0776377 0.13796556 1.9093803
000020 d2 f3 f9 3e b4 2f 0b 3e 4d ee dd 3f f4 9d a7 3f
       0.48818833 0.13592416 1.7338349 1.3095078
000030 e2 07 c5 3f 19 91 70 3f 34 c1 cd 3f 87 64 b6 3f
       1.5393031 0.939714 1.6074586 1.4249429
000040 ce ae 35 3f 0c 4b 92 3f 33 6b 07 40 5d fc 39 3f
       0.70969856 1.1429152 2.115918 0.726507
000050 4a 77 c9 3f 9b 42 5b 3f 9f 8e 9b 3f 39 39 cd 3f
       1.5739529 0.85648507 1.21529 1.6033088
000060 80 67 89 3f c3 ab de 3f f3 7a 8a 3f 8b 01 c0 3f
       1.0734711 1.7396168 1.0818771 1.5000471
000070 b6 f3 e5 3f 1b 34 96 3f d2 aa b8 3f 16 66 c2 3f
       1.7965 1.1734651 1.442713 1.5187404

post_mp.0.weight f4 [16, 32]
000000 b6 d0 da bd 41 f3 3d be 52 fe 57 bf a2 a7 86 3e
       -0.1068434 -0.18549825 -0.84372437 0.2629977
000010 2f 33 21 3d 29 8f b1 bf 80 34 9e 3d a4 4d 2f 3e
       0.039355453 -1.3871814 0.07724857 0.17119461
000020 d7 e8 01 3f 05 1a 60 bf 04 15 31 3f 95 cd cf be
       0.5074591 -0.875397 0.6917269 -0.40586534
000030 d7 e7 1c 3e 3e a3 06 bc 82 11 d7 bf b2 a0 57 bf
       0.15322815 -0.008217631 -1.6802218 -0.84229577
000040 e1 77 f9 bd b2 02 8f 3e d2 78 56 bf 53 cd 58 c0
       -0.12181068 0.27931744 -0.8377811 -3.387532
000050 9d 15 58 3e 51 19 db be 29 be ce 3d b9 e3 04 c0
       0.21101995 -0.42792752 0.10094864 -2.076399
000060 c3 a6 d9 3d 95 d3 19 3f fb 6f 1e 3d ac 74 8a 3d
       0.106275104 0.60088474 0.03868101 0.06760535
000070 42 d8 49 be d8 61 b6 bd 22 44 4e 3e 40 15 b8 3d
       -0.19711402 -0.08905381 0.20143178 0.08988428
000080 87 cb 97 bc 21 2a 5f bd 42 b0 bf bf 15 8f ed 3b
       -0.018529667 -0.054483537 -1.4975665 0.0072497227
000090 e1 de 43 3f 3e 32 f0 be cc 35 75 be 2b a3 3d 3e
       0.7651196 -0.46913332 -0.23946303 0.18519275
0000a0 64 e5 ba 3e 21 d9 bd bf 99 ca 73 bd 93 70 97 bd
       0.36503136 -1.4831887 -0.059519384 -0.07394519
0000b0 cc a3 53 3e b7 27 ba 3c ea bd b0 be ea 60 3a bf
       0.20667952 0.022724016 -0.34519893 -0.7280413
0000c0 d1 98 55 be 1e e0 66 3d 8c ac dd bc b0 23 82 c0
       -0.20859076 0.05636608 -0.027059816 -4.0668564
0000d0 28 b4 59 3e 69 ac 2c bf 48 60 1d 3d 67 32 4a bf
       0.2126013 -0.6745058 0.0384219 -0.7898316
0000e0 34 f4 a2 bd 67 e9 a7 3e b1 4b 58 3e ba 53 f6 3a
       -0.07956734 0.3279526 0.21122624 0.0018793263
0000f0 d9 d6 65 be bc 04 6e 3d 6d 02 68 3e 24 5c 8d bc
       -0.22445239 0.058109984 0.22657175 -0.01725585
000100 ad f6 65 3e e3 70 2c be 92 df f4 be 95 7a 72 3e
       0.2245738 -0.16839938 -0.4782682 0.23679574
000110 57 1f c4 3b 76 c4 ae bd 00 0b 66 bd c3 0c 73 3d
       0.0059851813 -0.08533566 -0.056162834 0.059338342
000120 b8 f4 99 3e 36 d9 b2 be d3 91 e8 bc 76 0e 5e bf
       0.30069518 -0.34931344 -0.028389847 -0.86740816
000130 b8 b3 9b 3d c3 97 82 3e 1c 81 a3 bd 4c db d2 be
       0.07602638 0.2550641 -0.0798361 -0.41182935
000140 7c f2 c0 3d 17 bd aa 3d e2 a4 3b 3e e0 ab 4b c0
       0.0942125 0.08336847 0.18324617 -3.1823654
000150 b7 81 69 3e 97 98 64 be 76 4d 80 3e 98 44 20 bf
       0.22803389 -0.22323833 0.25059098 -0.62604666
000160 e7 50 06 3e 01 2d a2 3e d7 f4 78 bd 43 3a 7a 3e
       0.131168 0.3167496 -0.060780372 0.24436288
000170 b1 d2 84 be 54 0d eb bd 27 9f 77 3e 2f cf c5 3e
       -0.25941995 -0.114771515 0.24181806 0.3863463
000180 d0 c9 b9 3d 60 fa 98 bc a3 fd 5d bd e4 4c af 3d
       0.09071696 -0.018674076 -0.054196965 0.085595876
000190 67 69 a3 3b 40 be 29 bd f1 8c 8f 3d ae 42 8a 3d
       0.00498693 -0.041441202 0.07009304 0.067509994
0001a0 22 85 05 3e 53 4f 28 bc c4 b7 37 bd f6 a2 85 be
       0.13039067 -0.010272819 -0.044852987 -0.26100892
0001b0 16 44 c6 bc c8 0a 96 3c 2f 05 35 be e9 b2 18 be
       -0.024202388 0.018315688 -0.17677759 -0.14911999
0001c0 f0 35 94 c0 a3 e9 4e bd b9 78 b3 bd f0 52 19 bf
       -4.631584 -0.050515782 -0.087632604 -0.5989218
0001d0 41 ca 0e 3e 8e b0 cd 3d bf 59 d0 3d e2 0d b9 be
       0.13944341 0.10043441 0.10173368 -0.36143404
0001e0 9d 58 e8 3b 18 29 0e 3d 6d da f2 c0 fb 6a 93 3d
       0.0070906417 0.03470716 -7.5891633 0.07198139
0001f0 4b 8d e5 bd 9b 70 a2 c0 24 d8 c0 3d 5e 43 92 3c
       -0.1120859 -5.076246 0.094162256 0.017854389
000200 34 98 9f 3d 16 9c 80 be 22 1a 2e bd cd 22 1b 3d
       0.07792702 -0.25119084 -0.04250539 0.037874985
000210 00 18 c9 3e 7e 3c 76 be 6f 8b 1a 3e b6 fc a4 bd
       0.39276123 -0.24046513 0.15092252 -0.08056013
000220 8f 60 fd 3d 43 24 09 3c 0f 80 5f bc 58 9c 90 bf
       0.12371933 0.008370462 -0.013641371 -1.1297712
000230 6d 30 91 3c 99 b7 7b 3c 36 a9 bd be 27 2b 14 bf
       0.017723287 0.015363597 -0.3704316 -0.57878345
000240 55 2b 8d c0 0f d8 1a bd 65 9a be bd b8 89 f9 bf
       -4.4115396 -0.037803706 -0.09306792 -1.9495153
000250 54 b5 dd 3d 35 78 6f 3d cc 99 a6 bd 44 15 00 bf
       0.10825601 0.058464248 -0.08134803 -0.5003245
000260 7e de b7 3d ed 8a fb 3c 60 f2 f3 c0 3d b1 1d 3e
       0.08977984 0.030705893 -7.623337 0.15399642
000270 af 88 bc bd fe 0c 7a c0 01 e5 92 3d 5f 83 2c 3e
       -0.09205758 -3.907043 0.07172585 0.16846989
000280 f0 a1 a6 bd 16 53 9f bf 8a 7f dc be d6 dd 80 3d
       -0.08136356 -1.2447231 -0.43066055 0.06292312
000290 e4 a3 d2 3e 71 f9 f6 bf c0 30 2e b6 a5 e5 e1 3d
       0.41140664 -1.9294873 -2.5956397e-06 0.11030129
0002a0 0b bb 10 3e b8 d9 ef be 99 0a a9 3e f4 66 e2 bf
       0.14133851 -0.46845794 0.33015898 -1.7687669
0002b0 e9 d6 47 3c 1e b7 53 bd 4b 10 29 c0 56 c1 de 3e
       0.012197235 -0.051688306 -2.6416194 0.4350688
0002c0 a4 e6 75 c0 a1 d9 97 3d c9 8c cb bf 2b 9c c4 be
       -3.8422022 0.07414556 -1.5902339 -0.38400397
0002d0 70 5a 5a 3e 6e 7e 15 3f cd f4 00 bd e7 08 af bf
       0.21323562 0.5839604 -0.03148346 -1.3674592
0002e0 3b b6 32 bd 1f 57 85 3e 58 0d cd c0 78 07 0d bd
       -0.04363082 0.2604303 -6.407879 -0.03443095
0002f0 a6 6f 81 3e 63 e8 51 c0 85 e2 f8 3d 62 7e 04 bc
       0.25280493 -3.2798088 0.1215258 -0.008086773
000300 71 28 df bd 3c 07 40 bd 1a 09 b6 bd 04 37 0f 3d
       -0.108963855 -0.0468819 -0.08888455 0.034964576
000310 3e ce 6c bd b9 42 07 3e be bc 83 be 78 18 f3 bd
       -0.057813875 0.13209046 -0.25729936 -0.118699014
000320 df 93 26 bd a4 6d 2d bd 6e fc 41 be a6 ae 01 3e
       -0.040668365 -0.04234089 -0.1894395 0.1266428
000330 5d f1 05 bd 3f 43 67 be ac 76 4c 3d bd 75 19 be
       -0.032700885 -0.22584246 0.04991786 -0.1498632
000340 04 2a bd bd 71 4c 78 bd 11 a9 ec bd 92 3f 44 3d
       -0.092365295 -0.060619775 -0.11555684 0.047912188
000350 11 78 d9 bd 2c 75 ec bb 6c 76 75 bd 5b db 28 be
       -0.10618604 -0.0072161164 -0.05992739 -0.16489927
000360 54 dc f0 bd 58 a6 c1 bc d0 dc aa 3d 5c c0 f4 3b
       -0.11760774 -0.02363889 0.08342898 0.00746922
000370 14 ef 29 be 7d 2d b1 bd 57 7d 5f be e4 1e a6 3c
       -0.16595107 -0.08651254 -0.21825157 0.020278402
000380 c9 69 17 3e 70 8a c7 bd c6 88 7e 3d 97 eb 83 3c
       0.14786448 -0.09743202 0.062142156 0.016103549
000390 ec 98 ed 3d 25 08 04 be 6a 9a 8c bc a4 fe 51 3d
       0.11601433 -0.12893732 -0.017163474 0.051268235
0003a0 80 8c 01 3e e4 a1 44 3d 08 7e 3a 3d a1 7f 83 bd
       0.12651253 0.048005953 0.04553035 -0.06420828
0003b0 88 ca 64 3d 14 a3 e5 3d ea 1f d2 bd 46 c6 34 be
       0.05585721 0.11212745 -0.102599934 -0.1765376
0003c0 50 38 9f c0 94 33 ce 3d e7 07 91 3c ee 5e 58 bf
       -4.975624 0.100684315 0.017703963 -0.8451985
0003d0 d5 83 2a 3c 1c 9b 70 3c 7d 20 a1 3d 1b 06 ef be
       0.010407408 0.014685418 0.07867525 -0.46684346
0003e0 ba db e2 bb 66 56 a7 bc f7 81 fe c0 d9 51 68 bb
       -0.006923166 -0.02042694 -7.953365 -0.0035449176
0003f0 d2 82 53 bd 07 92 af c0 66 c9 80 3d c3 53 90 3d
       -0.05163843 -5.4865756 0.06288414 0.07047226

post_mp.0.bias f4 [16]
000000 85 0c 1b 40 74 e4 35 40 31 8e 9c 3f ff ba 02 40
       2.4226391 2.8420687 1.2230893 2.0426633
000010 9d 6d 03 40 10 a2 09 40 b2 fb 66 be c8 38 f1 3f
       2.0535653 2.1505165 -0.22556952 1.8845453
000020 d5 e7 1a 40 e0 a7 f2 3f 58 9f 16 3f 80 ef 07 40
       2.4204 1.8957481 0.5883689 2.123993
000030 fc e0 f1 bd 20 23 0f 40 b9 67 c0 3f 5b f0 fe 3f
       -0.118104905 2.2365189 1.5031654 1.9917101

post_mp.3.weight f4 [2, 16]
000000 a7 28 70 bf 81 64 76 bf bb d8 9b be 86 ad 91 3f
       -0.9381203 -0.96247107 -0.3043879 1.138108
000010 ae 08 a5 3f 40 c8 15 40 e8 be ad bd 1d a2 80 3f
       1.2893274 2.3403473 -0.08483678 1.0049473
000020 3a 4a d9 3f f5 d5 ac 3f 62 61 26 3f 25 a9 87 3f
       1.6975777 1.3502795 0.64992344 1.0598494
000030 73 01 bb bd ea c5 e5 3f 3b b9 c1 be c8 06 74 3f
       -0.09131136 1.7951024 -0.37836632 0.9532285
000040 b3 56 8e 3f 4a 59 23 3f e7 4e 02 3f 12 a6 ac bf
       1.1120209 0.6380812 0.50901645 -1.3488181
000050 e7 a3 97 bf d4 a0 19 c0 d4 b4 3a bc 82 4b 76 bf
       -1.1846894 -2.4004412 -0.011395652 -0.96208966
000060 8e d3 a4 bf 7f d2 b3 bf 7b 73 1f bf cc a5 94 bf
       -1.2877061 -1.4048613 -0.62285584 -1.1613097
000070 89 31 40 bd 60 14 c3 bf e5 a7 21 3f 7d 0b 94 bf
       -0.04692224 -1.5240593 0.6314681 -1.1566006

post_mp.3.bias f4 [2]
000000 91 d6 32 c0 6c ab 2b 40
       -2.794346 2.6823378
