src/saved_models/GNN/multi_GNN_offline_14.07.2021-19:58.pt (torch, 6743 bytes, 6 tensors)

convs.0.weight f4 [18, 32]
000000 5e 13 db c2 38 3e db c2 0a 70 dc c2 d2 66 da c2
       -109.53783 -109.62152 -110.21883 -109.20082
000010 8b 5e dc c2 53 56 db c2 a8 af db c2 17 5b dc c2
       -110.184654 -109.6686 -109.84308 -110.17791
000020 ca 5e db c2 14 0d dc c2 a4 13 db c2 ab 10 db c2
       -109.685135 -110.02554 -109.53836 -109.532555
000030 f1 ff db c2 2e 3c db c2 88 6c cb ba 41 e2 db c2
       -109.999886 -109.61754 -0.0015520016 -109.9419
000040 44 5a dc c2 9c 20 db c2 1f 5a db c2 4f 0d db c2
       -110.1763 -109.56369 -109.67602 -109.52599
000050 7e ca da c2 74 cd db c2 62 bd da c2 ce c8 db c2
       -109.39549 -109.901276 -109.36989 -109.8922
000060 7d 85 db c2 10 de db c2 92 2f db c2 02 ec da c2
       -109.76072 -109.933716 -109.59291 -109.46095
000070 ce a9 db c2 c9 a6 db c2 79 07 dc c2 18 fe db c2
       -109.83165 -109.82575 -110.014595 -109.99628
000080 12 eb db c2 19 ac db c2 b5 23 db c2 b7 05 db c2
       -109.95912 -109.83613 -109.56974 -109.51116
000090 cf c8 db c2 89 07 dc c2 e7 32 dc c2 be 5e dc c2
       -109.892204 -110.01472 -110.09942 -110.18504
0000a0 82 fd db c2 14 8a db c2 6a 01 dc c2 5d 49 db c2
       -109.99513 -109.769684 -110.00276 -109.64329
0000b0 bf 61 db c2 51 bb db c2 11 07 77 be 3d 98 db c2
       -109.69091 -109.86585 -0.2412379 -109.79734
0000c0 84 01 dd c2 e2 04 dc c2 ef 4a db c2 24 2c db c2
       -110.50296 -110.00954 -109.646355 -109.58621
0000d0 51 b7 da c2 16 80 db c2 cc 26 db c2 36 9d db c2
       -109.35804 -109.75017 -109.575775 -109.80705
0000e0 72 5f c7 41 d9 d2 db c2 23 2c dc c2 27 e2 da c2
       24.921604 -109.91181 -110.086205 -109.4417
0000f0 88 b0 da c2 a0 9a db c2 bf 9e db c2 12 65 dc c2
       -109.34479 -109.802 -109.81005 -110.1974
000100 c8 f0 da c2 63 3e db c2 c6 22 d8 c2 6b 75 db c2
       -109.470276 -109.62185 -108.06792 -109.72933
000110 c7 90 db c2 d9 66 db c2 0d 3f dc c2 21 9c db c2
       -109.78277 -109.700874 -110.123146 -109.80494
000120 08 89 db c2 70 19 dc c2 91 a7 db c2 e2 f4 da c2
       -109.76764 -110.04968 -109.82728 -109.47829
000130 b1 6a db c2 04 1a dc c2 01 df 11 be 36 65 db c2
       -109.70838 -110.05081 -0.14245225 -109.69768
000140 d2 e9 dc c2 90 b5 db c2 dd 24 db c2 0a 70 db c2
       -110.45668 -109.854614 -109.572 -109.71883
000150 e6 fa da c2 5f 0c dc c2 4d f9 da c2 b9 50 dc c2
       -109.490036 -110.02416 -109.486916 -110.15766
000160 94 5f 9e 42 df 16 dc c2 8a 23 dc c2 41 e5 db c2
       79.186676 -110.04467 -110.06941 -109.94776
000170 b2 cc db c2 ac 75 db c2 ef dc da c2 9d 46 dc c2
       -109.899796 -109.72983 -109.43151 -110.13792
000180 57 82 db c2 76 b0 db c2 a6 78 da c2 6e f4 db c2
       -109.75457 -109.84465 -109.23564 -109.9774
000190 6c 53 dc c2 00 bf db c2 be 89 db c2 56 82 dc c2
       -110.16293 -109.87305 -109.76903 -110.25456
0001a0 50 34 dc c2 b3 23 db c2 33 12 db c2 78 71 db c2
       -110.10217 -109.569725 -109.535545 -109.72162
0001b0 18 12 dc c2 ff 03 db c2 a4 b0 db c2 e8 ed da c2
       -110.03534 -109.507805 -109.845 -109.46466
0001c0 11 ce dc c2 b4 27 dc c2 91 2b db c2 36 2c db c2
       -110.40247 -110.077545 -109.58509 -109.58635
0001d0 5a dc db c2 6a 9e db c2 48 ae db c2 c0 1d dc c2
       -109.930374 -109.8094 -109.84039 -110.058105
0001e0 72 3e 4a 41 dc bb db c2 f3 50 db c2 fb 07 db c2
       12.640245 -109.86691 -109.658104 -109.51559
0001f0 49 3b dc c2 4d ea d9 c2 e6 25 dc c2 25 8c dc c2
       -110.11579 -108.95762 -110.07402 -110.27372
000200 56 e4 db c2 62 36 dc c2 a2 d8 d9 c2 8f c4 db c2
       -109.94597 -110.10622 -108.92311 -109.8839
000210 30 0a dc c2 b7 d5 db c2 85 40 dc c2 66 63 dc c2
       -110.0199 -109.91741 -110.126015 -110.19414
000220 67 6c db c2 a1 36 dc c2 23 07 dc c2 66 4e db c2
       -109.71172 -110.1067 -110.01394 -109.65312
000230 71 3d db c2 55 cc da c2 20 45 dc c2 7e 1b db c2
       -109.62 -109.399086 -110.13501 -109.553696
000240 80 b1 dc c2 50 9f db c2 e1 e6 db c2 f2 b0 db c2
       -110.34668 -109.81116 -109.950935 -109.8456
000250 8b 3d db c2 1c 84 dc c2 43 11 dc c2 4f 21 dc c2
       -109.6202 -110.258026 -110.033714 -110.065056
000260 75 7b 6b 41 84 d3 db c2 50 f3 da c2 dc 01 db c2
       14.717641 -109.91312 -109.47522 -109.50363
000270 a0 0f dc c2 8e 13 db c2 28 ed da c2 65 5e dc c2
       -110.03052 -109.53819 -109.463196 -110.184364
000280 ae 8e db c2 dc f0 da c2 10 36 d9 c2 7b f3 da c2
       -109.77867 -109.47043 -108.60559 -109.47555
000290 a4 32 dc c2 50 a4 db c2 8c 57 dc c2 bc 69 dc c2
       -110.09891 -109.82092 -110.17099 -110.20651
0002a0 ae 1b db c2 d7 2d dc c2 67 30 dc c2 c4 d8 db c2
       -109.55406 -110.08953 -110.094536 -109.92337
0002b0 19 ee db c2 de ea da c2 ad 24 dc c2 d5 22 db c2
       -109.965034 -109.458725 -110.07163 -109.56803
0002c0 17 3b dc c2 aa 61 db c2 03 0c dc c2 2e 01 db c2
       -110.11541 -109.69075 -110.02346 -109.502304
0002d0 92 94 db c2 f0 89 dc c2 e5 c2 db c2 f1 52 dc c2
       -109.79018 -110.26941 -109.88065 -110.161995
0002e0 3b 49 8b 42 8c f0 db c2 94 9f db c2 38 dd db c2
       69.64303 -109.96982 -109.811676 -109.93207
0002f0 93 60 db c2 39 cf d9 c2 d4 f1 db c2 e2 72 dc c2
       -109.68862 -108.90473 -109.97232 -110.22438
000300 57 54 dc c2 a9 48 db c2 68 79 dc c2 de 6b da c2
       -110.16473 -109.641914 -110.23712 -109.21068
000310 d1 cd db c2 e1 34 db c2 27 52 dc c2 30 f5 dc c2
       -109.901985 -109.60328 -110.16045 -110.47888
000320 91 12 dc c2 04 9d db c2 d6 dc db c2 02 73 db c2
       -110.03626 -109.80667 -109.93132 -109.724625
000330 38 d0 db c2 df 1f dc c2 59 c6 93 3e 7f e8 da c2
       -109.90668 -110.06225 0.28862265 -109.454094
000340 40 52 dc c2 91 19 dc c2 45 fe db c2 2a ef db c2
       -110.160645 -110.049934 -109.99662 -109.96712
000350 4a fd da c2 1c 91 db c2 81 9b db c2 55 aa db c2
       -109.494705 -109.78342 -109.80372 -109.83268
000360 bd 3c db c2 58 df db c2 50 de da c2 76 f4 db c2
       -109.61863 -109.93622 -109.434204 -109.97746
000370 61 de da c2 fb b7 db c2 28 a7 db c2 a7 f1 db c2
       -109.43433 -109.85934 -109.82648 -109.97198
000380 1c 58 dc c2 34 d9 db c2 8e ea db c2 f7 31 db c2
       -110.17209 -109.924225 -109.958115 -109.59759
000390 ba 44 db c2 b7 c7 db c2 cc 0f dc c2 f1 82 dc c2
       -109.63423 -109.89007 -110.03085 -110.255745
0003a0 3c 19 db c2 1a 75 db c2 c2 9f db c2 3b e0 db c2
       -109.549286 -109.728714 -109.81203 -109.93795
0003b0 5e 88 db c2 a2 22 dc c2 fb 34 19 be ba 7e db c2
       -109.76634 -110.06764 -0.14961617 -109.74751
0003c0 98 40 dc c2 57 f6 db c2 1d d7 db c2 51 08 db c2
       -110.12616 -109.98113 -109.92014 -109.51624
0003d0 3d ae db c2 8c c8 db c2 15 b9 db c2 85 de db c2
       -109.84031 -109.89169 -109.86149 -109.93461
0003e0 c6 f0 db c2 c4 88 db c2 e2 22 db c2 03 28 db c2
       -109.97026 -109.76712 -109.56813 -109.57815
0003f0 e0 94 db c2 f5 e7 db c2 64 3f db c2 ba 7b db c2
       -109.79077 -109.95304 -109.62381 -109.74165

convs.0.bias f4 [32]
000000 31 65 dc 42 cb 67 d9 42 46 2e cc c2 0e fb d5 c2
       110.19764 108.70272 -102.09038 -106.99034
000010 17 b0 7b c2 b0 ab d8 42 12 dc db 42 e7 89 da 42
       -62.921963 108.33533 109.929825 109.26934
000020 43 c9 d6 42 e4 40 d3 c2 7c 79 d8 42 ae 1e dc 42
       107.39309 -105.62674 108.237274 110.05992
000030 e7 93 db 42 b3 70 df 42 9c a9 dd c2 83 ae d6 42
       109.78887 111.720116 -110.83127 107.34084
000040 df 3c d9 c2 82 ab d0 c2 53 2b d8 42 bf b2 d6 42
       -108.61889 -104.33498 108.08462 107.34911
000050 6e f5 d9 42 d6 50 d9 42 88 36 c9 c2 af 63 db 42
       108.979355 108.65788 -100.60651 109.694695
000060 30 ab e0 42 12 7d da 42 54 9b d9 c2 2e ee d6 c2
       112.33435 109.24428 -108.803375 -107.465195
000070 ef 73 d9 42 c6 ff e1 42 05 25 dd 42 93 b2 cf c2
       108.72643 112.99956 110.5723 -103.84878

post_mp.0.weight f4 [16, 32]
000000 6d 9a 8b 42 f6 b3 db c2 28 1f dc c2 dd dc db c2
       69.80161 -109.85149 -110.06085 -109.93137
000010 43 8a 1f be ec 3c b5 bd db c1 db c2 77 9d db 42
       -0.15580086 -0.088495106 -109.878624 109.80755
000020 57 e8 db c2 e9 8f db 42 1c 7d db 42 1a 1a dc c2
       -109.95379 109.781075 109.744354 -110.05098
000030 99 91 db c2 c9 eb db c2 ca b9 1d 3e d1 16 dc c2
       -109.78437 -109.96052 0.15402904 -110.04456
000040 af 64 db 42 dd e9 db c2 dc c7 db c2 91 27 dc c2
       109.69665 -109.956764 -109.89035 -110.07728
000050 9b 19 dc c2 f3 32 dc c2 9b c8 db c2 90 de db c2
       -110.05001 -110.09951 -109.89181 -109.93469
000060 63 cd db c2 05 1e dc c2 08 2f dc c2 f2 ea db c2
       -109.901146 -110.05863 -110.09186 -109.95888
000070 f8 d3 db c2 90 2d dc c2 07 19 dc c2 fe 82 db 42
       -109.914 -110.08899 -110.04888 109.755844
000080 00 a0 db c2 8a 65 db c2 06 d8 db 42 a1 4b db c2
       -109.8125 -109.69832 109.92192 -109.64771
000090 25 73 db c2 bb 95 db c2 29 a9 db c2 2d 10 d9 c2
       -109.72489 -109.79244 -109.83039 -108.53159
0000a0 6e 9d db c2 06 88 db c2 ee 90 db c2 4a 52 db c2
       -109.80748 -109.76567 -109.783066 -109.66072
0000b0 12 67 db c2 49 f0 db c2 91 18 dc 42 db 77 db c2
       -109.70131 -109.96931 110.04798 -109.73409
0000c0 7f 54 da c2 64 c4 db c2 83 fb db c2 c9 85 db c2
       -109.16503 -109.883575 -109.991234 -109.7613
0000d0 06 50 db c2 62 6b db c2 3b 7e db c2 6c f5 db c2
       -109.656296 -109.70973 -109.746544 -109.97934
0000e0 3b cd db c2 b8 8b db c2 9c 56 db c2 cc 7f db c2
       -109.90084 -109.77289 -109.66916 -109.7496
0000f0 da 9b db c2 87 9d db c2 60 98 db c2 92 73 db c2
       -109.8044 -109.80767 -109.79761 -109.72572
000100 82 ee db c2 d4 c4 db c2 31 e2 db 42 d5 1c db c2
       -109.965836 -109.88443 109.94178 -109.55631
000110 ac 93 db c2 06 5b db c2 81 06 dc c2 c9 dd db c2
       -109.78842 -109.67778 -110.0127 -109.933174
000120 18 9c db c2 c3 72 db c2 98 11 dc c2 30 38 db c2
       -109.80487 -109.724144 -110.03436 -109.60974
000130 53 a3 db c2 fe f7 da c2 b8 ee db 42 8d 4a db c2
       -109.81899 -109.48436 109.96625 -109.64561
000140 5e 2d da 42 8e a1 db c2 2c 44 db c2 51 6b db c2
       109.08861 -109.81554 -109.63315 -109.7096
000150 01 50 db c2 12 bd db c2 b9 98 db c2 72 dc db c2
       -109.65626 -109.86928 -109.79829 -109.93056
000160 3e 36 da c2 10 e7 db c2 83 3c db c2 54 3c d9 c2
       -109.10594 -109.951294 -109.61819 -108.61783
000170 04 cd db c2 be 74 db c2 01 3f db c2 0a d4 db c2
       -109.90042 -109.72801 -109.623055 -109.91414
000180 69 e4 db c2 f8 f0 db c2 29 f2 db c2 eb ef db c2
       -109.94611 -109.97064 -109.97297 -109.96859
000190 84 67 7d c2 65 ba db c2 21 2f dc c2 57 e0 db 42
       -63.35109 -109.86405 -110.09205 109.93816
0001a0 30 ba db c2 13 9c db c2 f2 21 dc c2 7d e7 db c2
       -109.86365 -109.80483 -110.0663 -109.952126
0001b0 83 1a dc c2 13 16 dc c2 80 4f cd 3d 8e d7 db c2
       -110.05178 -110.04311 0.10024929 -109.921005
0001c0 ea d7 db 42 03 be db c2 0f f7 db c2 49 f4 db c2
       109.92171 -109.87112 -109.98254 -109.97712
0001d0 54 b4 db c2 b5 b3 db c2 34 1c dc c2 d1 0d dc c2
       -109.8522 -109.85099 -110.055084 -110.026985
0001e0 f8 03 dc c2 30 e3 db c2 ef 16 dc c2 c0 05 dc c2
       -110.00775 -109.943726 -110.04479 -110.01123
0001f0 f9 ea db c2 5c ea db c2 a5 54 de c2 78 26 dc c2
       -109.95893 -109.95773 -111.16532 -110.075134
000200 b3 7d db c2 c3 6b db c2 b4 e1 db 42 a5 bf d4 42
       -109.74551 -109.71047 109.94083 106.374306
000210 3c 44 db c2 fc 67 db c2 30 26 dc c2 cf 9c db c2
       -109.63327 -109.703094 -110.074585 -109.80627
000220 c6 65 db c2 f0 ec db c2 e9 ec db c2 01 ba d9 c2
       -109.69878 -109.96277 -109.962715 -108.86329
000230 43 6e db c2 10 10 db c2 90 33 dc 42 40 48 db c2
       -109.715355 -109.53137 110.10071 -109.64111
000240 0a 10 d9 c2 e3 5a db c2 fe bf db c2 04 95 db c2
       -108.53133 -109.67751 -109.874985 -109.791046
000250 12 25 db c2 b5 74 db c2 cd 1a db c2 d7 9a db c2
       -109.5724 -109.72794 -109.552345 -109.80242
000260 d7 d4 da c2 25 40 db c2 c6 63 db c2 41 fc da c2
       -109.4157 -109.62528 -109.69487 -109.49268
000270 8f bb db c2 93 2d db c2 25 58 db c2 6a b3 db c2
       -109.866325 -109.58901 -109.67216 -109.85042
000280 b3 f1 db c2 fe ec db c2 3c e1 db 42 0d e9 db c2
       -109.97207 -109.962875 109.93991 -109.95518
000290 2f b9 db c2 4e b2 db c2 19 74 db c2 e3 96 db c2
       -109.86169 -109.84825 -109.72675 -109.7947
0002a0 01 ea db c2 f5 7a db c2 a8 c7 db c2 3c 69 db c2
       -109.95704 -109.74015 -109.88995 -109.705536
0002b0 32 8e db c2 0d b9 db c2 67 31 db c2 b8 98 db c2
       -109.777725 -109.86143 -109.59649 -109.79828
0002c0 f0 ce d6 c2 4f 85 db c2 b3 60 db c2 b4 8f db c2
       -107.404175 -109.76037 -109.688866 -109.78067
0002d0 a2 ac db c2 d6 b7 db c2 46 c5 db c2 53 c4 db c2
       -109.83717 -109.859055 -109.8853 -109.883446
0002e0 fd 52 db c2 17 7b db c2 7f 4b db c2 d3 4e db c2
       -109.66209 -109.74041 -109.64745 -109.65395
0002f0 97 ab db c2 9f ac db c2 9e 62 db c2 43 56 d8 42
       -109.83514 -109.83715 -109.69261 108.16848
000300 71 fc db c2 a5 e4 db c2 3d 1d dc 42 49 8b db c2
       -109.99305 -109.94657 110.057106 -109.77204
000310 87 67 db c2 e9 88 db c2 c9 d7 db c2 2b 97 db c2
       -109.7022 -109.7674 -109.921455 -109.79525
000320 5e 80 db c2 76 9f db c2 6c 71 db c2 b3 c6 db c2
       -109.75072 -109.81145 -109.72153 -109.888084
000330 7e 9e db c2 78 5a db c2 b3 b2 db 42 44 45 db c2
       -109.809555 -109.6767 109.84902 -109.635284
000340 33 47 d9 c2 7e a4 db c2 50 f9 db c2 30 cb db c2
       -108.63906 -109.82127 -109.98694 -109.89685
000350 1b 69 db c2 5e 9f db c2 3e ea db c2 04 01 dc c2
       -109.705284 -109.811264 -109.957504 -110.00198
000360 f4 59 db c2 f6 af db c2 f1 7a db c2 8d 3f db c2
       -109.67569 -109.84367 -109.74012 -109.62412
000370 2b 70 db c2 f8 d9 db c2 d5 dd db c2 75 a3 db c2
       -109.71908 -109.92572 -109.933266 -109.81925
000380 67 0f dc c2 5c 56 dc c2 fd 34 dc c2 1f 0c dc c2
       -110.03008 -110.16867 -110.10349 -110.023674
000390 7f 92 dc bd 9c 3e ff bd 48 0c dc c2 c8 c3 db c2
       -0.107701294 -0.12463114 -110.02399 -109.882385
0003a0 52 54 dc c2 04 4d dc c2 88 ae db c2 7f ec db c2
       -110.16469 -110.15042 -109.84088 -109.96191
0003b0 22 d2 db c2 3e 4a dc c2 50 63 ad bd b8 21 dc c2
       -109.910416 -110.145004 -0.08466208 -110.06586
0003c0 1e b7 db c2 7d 33 dc c2 2e c0 db c2 19 5f dc c2
       -109.85765 -110.10056 -109.87535 -110.18574
0003d0 59 5a dc c2 7b 0d dc c2 15 19 dc c2 ad 25 dc c2
       -110.17646 -110.02633 -110.04899 -110.073586
0003e0 b7 73 dc c2 2f 1e dc c2 11 c4 db c2 9a b5 db c2
       -110.226006 -110.05895 -109.88294 -109.85469
0003f0 4f 72 dc c2 44 00 dc c2 1a d9 db c2 f4 1c 16 3c
       -110.22326 -110.00052 -109.92403 0.009162176

post_mp.0.bias f4 [16]
000000 d9 e3 db c2 ea 7b db c2 93 14 db c2 f4 76 de c2
       -109.945015 -109.74202 -109.540184 -111.23233
000010 6f 22 db c2 8d 17 db c2 5a 67 db c2 27 2c dc c2
       -109.56725 -109.546 -109.70186 -110.086235
000020 bc d1 db c2 fd 15 dc c2 95 44 54 c2 52 47 db c2
       -109.90964 -110.042946 -53.066975 -109.6393
000030 c5 41 db c2 67 1b db c2 18 ea db c2 b4 40 db c2
       -109.628456 -109.55352 -109.957214 -109.62637

post_mp.3.weight f4 [2, 16]
000000 84 b9 db 42 87 67 db c2 2f ec da c2 ed 6a 79 c2
       109.862335 -109.7022 -109.461296 -62.35442
000010 b3 e7 da c2 66 9a db c2 54 3a db c2 62 9d db 42
       -109.45254 -109.80156 -109.61392 109.80739
000020 92 c6 db 42 6e 7f db 42 b6 c7 53 c2 81 cf db c2
       109.88783 109.748886 -52.94503 -109.90528
000030 4b 1f db c2 29 5a db c2 b5 ef db 42 e9 39 db c2
       -109.56112 -109.676094 109.96818 -109.613106
000040 1d 7d db c2 83 c0 db 42 17 a2 db 42 07 c6 78 42
       -109.74436 109.876 109.81658 62.193386
000050 36 a0 db 42 60 5a db 42 78 d5 db 42 a1 db db c2
       109.81291 109.67651 109.91693 -109.92896
000060 50 c0 db c2 6a 1b dc c2 33 79 54 42 43 1a db 42
       -109.87561 -110.05354 53.11836 109.55129
000070 6e d4 db 42 4a 76 db 42 f7 ae db c2 00 b4 db 42
       109.9149 109.73103 -109.84173 109.85156

post_mp.3.bias f4 [2]
000000 2c c2 e4 42 b6 26 e4 c2
       114.37924 -114.07561
